MARL/MAPPO-ATTENTIOAN/onpolicy/scripts/results/Meltingpot/collaborative_cooking__circuit_0/territory__rooms/mappo/check/run100/models/actor_agent0.pt (torch, 795666 bytes, 22 tensors)

base.cnn.cnn.0.weight f4 [32, 3, 3, 3]
000000 53 37 b6 bd 0a db 28 3e 8f 6f 30 bd d4 33 20 3c
       -0.08897271 0.16489807 -0.04307514 0.009777982
000010 08 ae 3a be e3 30 cc bb 5d 81 61 bd e8 c8 00 be
       -0.1823045 -0.0062314137 -0.05505501 -0.1257664
000020 6e f1 19 3e 1b a0 1d be a0 dc c4 bc 9e 43 4a bc
       0.15033504 -0.15393107 -0.024030983 -0.012345223
000030 cd bf 31 be 71 a6 ed 3d b1 92 83 bd 18 98 b3 3d
       -0.17358322 0.11604012 -0.064244635 0.08769244
000040 6b 33 db 3d 20 be 2c 3e 3a f2 5d 3d b2 55 1b 3e
       0.107031666 0.16869402 0.054186083 0.15169409
000050 b4 6c 38 3e b8 20 2e 3d be fb 1f bd a5 8e 66 bd
       0.18010217 0.04251167 -0.03905844 -0.05628838
000060 48 fa 0f 3d 6d 43 89 3d 93 bb 3b be 21 10 14 3e
       0.035150796 0.067023136 -0.18333273 0.14459278
000070 17 3a f0 3c ea 50 3a be fb cb 7c 3d fa 34 00 3e
       0.029324574 -0.18194929 0.06171797 0.12520209
000080 03 63 9b 3d ce 3c 22 3e c2 5e d5 3b 1f d3 26 be
       0.07587244 0.15843508 0.00651154 -0.16291474
000090 de 07 43 3b 9f aa 0e 3e e2 5b c6 bd 5b b7 ad 3d
       0.0029759328 0.13932274 -0.09685494 0.08482238
0000a0 39 8e 46 3d 06 5e f6 bc 6f ab 8d 3a a8 45 ad 3d
       0.048475478 -0.03007413 0.0010808537 0.084605515
0000b0 01 ef 06 be 85 f3 01 3e 98 71 05 3e 97 de e1 3d
       -0.1317711 0.12690552 0.13031614 0.11028784
0000c0 36 c0 44 3e 44 d4 87 bb b7 89 09 be 95 68 1d 3c
       0.19213948 -0.004145177 -0.1343144 0.009607454
0000d0 b4 8f 64 bd 72 89 8b 3d dc c8 2b 3e 36 c1 ce bd
       -0.05580111 0.06813325 0.1677584 -0.10095446
0000e0 a7 73 f4 3b dd 4e 42 3e 0c 82 20 be fa f6 13 bd
       0.007460076 0.18975396 -0.15674609 -0.036124207
0000f0 69 1b 41 3e 5c 1c 08 3e f0 0c 67 3d 11 36 a0 bd
       0.18858112 0.13292068 0.056408823 -0.07822812
000100 ec f2 6e bc f2 a5 34 be 3e 49 3d be 14 d8 3b be
       -0.014584284 -0.17641428 -0.18484971 -0.18344146
000110 59 65 3d 3e ed 3b 1c 3e f7 35 9a 3d 2f e5 4f bd
       0.18495692 0.15257235 0.07529824 -0.050755676
000120 c9 93 2c 3e 06 c0 4f bd f0 de 08 3e fa 4a 97 bb
       0.1685325 -0.050720237 0.13366294 -0.004617092
000130 de 21 ba bd 8c 0f 5e bd c3 d2 31 bd bf fc 3a be
       -0.09088491 -0.054214045 -0.04341389 -0.18260477
000140 87 71 68 3d eb 8f 80 bd 6b 34 b1 3d e0 3f f8 3d
       0.056748893 -0.0627745 0.08652576 0.12121558
000150 3f 96 0d bd a9 05 bc 3d 99 54 1e 3d 3d 62 02 3e
       -0.034567114 0.09180767 0.038654897 0.12732787
000160 20 be 03 be 09 42 99 bc 84 d6 8c bd f1 3d 2b 3e
       -0.12865496 -0.018708246 -0.06876853 0.16722848
000170 e8 a5 37 be 05 a6 e9 bd 23 de b4 3c 3e b0 31 3e
       -0.17934382 -0.11408619 0.02207858 0.17352387
000180 0d 88 05 3e 67 f1 3d be 19 ba 0c be f7 65 3f 3e
       0.1304018 -0.18549119 -0.13742866 0.1869124
000190 9e 32 e3 3c e3 ce 2d be 08 9c 86 bd 36 60 ab 3d
       0.027734097 -0.16973452 -0.06572729 0.0836796
0001a0 04 05 2a bd 57 0f 1a be e4 61 ff bd f2 4e ca bd
       -0.04150869 -0.15044914 -0.12469843 -0.09878339
0001b0 cd f9 ae bb f8 b5 96 3d a4 2b c5 3d 29 54 bb bd
       -0.005339837 0.073589265 0.096274644 -0.09146912
0001c0 6b d2 f6 bc 38 50 15 be ba d3 1a 3e 5c 39 49 3e
       -0.030129632 -0.14581382 0.1511983 0.19650787
0001d0 19 39 4a 3e f1 21 a9 3d 7e fa 31 bd 5e 99 71 bb
       0.19748344 0.08258427 -0.04345178 -0.0036865096
0001e0 8a 80 8e 3d c9 eb 2b be 85 14 6e 3c 2c 6a 1c be
       0.06958111 -0.16789164 0.014531259 -0.15274876
0001f0 43 b6 42 be a7 09 3a 3a e4 46 6e bd d3 2c 01 be
       -0.1901484 0.0007096775 -0.058173075 -0.12614755
000200 f1 65 15 3d bd 9e ea 3b dc df f0 3c 50 bb de bd
       0.036474172 0.0071600364 0.02940362 -0.10875571
000210 79 4c 3e be 78 01 ac 3b c0 d3 9a bd 7e e1 7f bd
       -0.1858386 0.0052491985 -0.07559919 -0.062470905
000220 e0 49 11 3e 54 70 08 3d 13 47 b4 3d 43 bc 4e bd
       0.14188337 0.03331025 0.08802619 -0.05047251
000230 f1 7e 1d be 99 23 1c 3d 2a 8e 03 be 9e c3 d5 3c
       -0.15380456 0.038119886 -0.128472 0.026094254
000240 75 a7 1b be 11 b2 15 3e ac 79 0a be 01 30 2f 3e
       -0.15200599 0.14618708 -0.13522977 0.17108156
000250 78 cf 0f 3e 00 1c 18 3e 48 a6 e9 3d af 86 34 3d
       0.14043987 0.14854431 0.11408669 0.044073757
000260 8a 94 23 bc 0c d7 99 ba ea 3f 9d bd 3d 43 36 be
       -0.009984145 -0.0011737063 -0.07678206 -0.17799087
000270 a5 98 38 3e 04 16 39 3c d8 b4 be 3d 0c 13 dc 3b
       0.1802698 0.011296753 0.09311837 0.0067161378
000280 95 28 60 3d a3 cb f6 bd 72 9d 19 be f7 82 17 3e
       0.054726202 -0.12050559 -0.15001467 0.14796053
000290 32 c7 97 3d 25 9e d0 3d d2 d9 43 be 2f 10 83 3c
       0.0741104 0.10186414 -0.1912606 0.015998928
0002a0 4e 8c 36 be 3e 74 9c bc 8f b3 1a bc 99 76 0b be
       -0.1782696 -0.019098397 -0.009442224 -0.1361946
0002b0 43 83 43 be c3 f8 b0 3a 24 a0 35 3e 42 c6 35 3e
       -0.19093041 0.0013501871 0.1773687 0.1775141
0002c0 dc a6 f0 bd 94 79 03 bd b4 bb 26 be 84 bc 1b be
       -0.11750576 -0.032098368 -0.1628254 -0.15208632
0002d0 ce 6c 66 bd 33 20 3f 3e 83 f1 54 bd ba 1c 4c 3c
       -0.056256108 0.18664627 -0.051988136 0.012458021
0002e0 c8 10 39 3e 4f 43 15 3d bb 2d 25 3e c3 d0 06 3e
       0.18072808 0.036441144 0.16130726 0.13165574
0002f0 50 03 3b 3e 41 92 00 3d e0 71 22 be 5e 45 2d be
       0.18262982 0.03138948 -0.15863752 -0.16920993
000300 d4 7b d4 bd 65 43 27 3e 4b 75 e7 3d 16 24 6f 3d
       -0.10375181 0.16334303 0.11301669 0.058384024
000310 b7 25 14 be df 55 13 be 91 45 1e 3e b9 02 a8 bc
       -0.14467512 -0.14388226 0.15456225 -0.02050911
000320 04 7c 44 be d8 73 cd bc 8c 61 37 bd 1a 55 a1 3b
       -0.19187933 -0.025079653 -0.044770762 0.004923475
000330 90 db a6 3d 6c 6a a0 3d 43 93 18 be 1a 98 d7 bb
       0.08147347 0.07832798 -0.14899926 -0.006579411
000340 a4 f7 c4 bd 73 f3 06 3e 97 99 bf 3d b5 89 df 3d
       -0.09617546 0.13178806 0.09355467 0.109149374
000350 b8 92 36 3e 47 4f b9 3d a2 98 45 be 97 53 46 3d
       0.17829406 0.09048324 -0.19296506 0.04841956
000360 7e e9 0a be c5 d1 fa 3c 5f 5a 8b 3b fb 0d 43 3e
       -0.13565633 0.030617604 0.0042527164 0.19048302
000370 34 e2 07 be 44 18 42 be 1e 5c 50 bd 80 1b fc 3c
       -0.13269883 -0.18954569 -0.0508691 0.030774832
000380 c1 e1 15 3e 4e eb 1d 3e c1 cf 1d 3e 16 0c 80 3d
       0.146369 0.15421793 0.15411283 0.06252305
000390 c2 50 61 bd 52 1f 23 bd 3f cf cf bd d6 30 1d 3d
       -0.055008657 -0.03982479 -0.10146951 0.03837665
0003a0 b6 39 0a be 4a 0f 8e 3d cf f9 f9 3d de 6c 2f 3e
       -0.13498577 0.0693651 0.1220585 0.17131373
0003b0 71 4f 43 be 29 6c 23 3e a3 d4 f8 bd 23 2e 3d bc
       -0.19073273 0.15959229 -0.12149932 -0.011546644
0003c0 3c 5b 35 3e 27 4c cf 3d c5 a5 74 bd 4b ef df 3d
       0.17710584 0.10121947 -0.059728403 0.109343134
0003d0 d5 b2 45 be 52 03 1a 3e 3f a7 3b 3e 07 2f 76 bc
       -0.193065 0.15040329 0.18325518 -0.015025861
0003e0 e7 1a d8 3c ef 83 4b bd 55 e7 02 be 38 bb be bd
       0.026380016 -0.04968637 -0.12783559 -0.09313053
0003f0 e5 55 8a bc f6 9b 27 be 72 be 23 be 79 29 97 3c
       -0.01688666 -0.16368088 -0.15990618 0.018452393

base.cnn.cnn.0.bias f4 [32]
000000 e5 a1 ba b3 55 7e 49 b3 8d 47 5f b2 18 89 a8 b2
       -8.6907484e-08 -4.6913858e-08 -1.2996577e-08 -1.9620117e-08
000010 b2 d3 0c b4 f5 22 a3 b3 66 03 0f 33 3d a4 ac b3
       -1.311553e-07 -7.5966376e-08 3.3297873e-08 -8.039249e-08
000020 f9 4f 2d b3 82 3a e9 b2 76 59 04 32 b3 81 2f 33
       -4.0352436e-08 -2.7151376e-08 7.703752e-09 4.0863323e-08
000030 c0 b3 6a b4 30 a1 99 33 5d cc fb 30 9b 06 68 b3
       -2.1858341e-07 7.1539375e-08 1.8320737e-09 -5.4022717e-08
000040 8f 80 22 34 6d 88 7b 32 91 d1 24 34 67 ab 54 33
       1.5134195e-07 1.46411425e-08 1.534993e-07 4.9515986e-08
000050 48 6d bc 33 97 54 fa b3 47 17 83 b3 cc 12 9e 33
       8.77431e-08 -1.1656919e-07 -6.104397e-08 7.3608675e-08
000060 f0 55 33 33 fd 94 3a 33 a0 19 8c 33 9a 14 83 b2
       4.1754845e-08 4.3442004e-08 6.523919e-08 -1.5259776e-08
000070 dc a4 b0 34 c3 8a 6d b2 1c 7a 38 33 5b 79 a6 b3
       3.2902506e-07 -1.3826766e-08 4.2951896e-08 -7.752052e-08

base.cnn.cnn.1.weight f4 [32]
000000 94 d9 7e 3f 49 41 7f 3f 23 88 7f 3f 7c 63 7f 3f
       0.9955075 0.9970899 0.99817103 0.99761176
000010 5a 1d 7f 3f 7e 50 7e 3f 2c f6 7e 3f 15 41 7f 3f
       0.9965416 0.9934157 0.9959438 0.9970868
000020 2b ef 7e 3f db ea 7e 3f 27 b4 7f 3f 44 ed 7e 3f
       0.9958369 0.9957711 0.99884266 0.9958079
000030 05 a8 7f 3f 2c 0e 7f 3f 46 e9 7e 3f 89 c9 7e 3f
       0.9986575 0.99631 0.99574697 0.9952627
000040 fe 94 7e 3f 7e 85 7f 3f 3c a8 7e 3f fe be 7e 3f
       0.99446094 0.9981307 0.99475455 0.9951018
000050 c1 74 7e 3f c6 90 7f 3f 7c bf 7f 3f 95 b8 7f 3f
       0.993969 0.9983028 0.99901557 0.99891025
000060 1b 8b 7f 3f 3e 3c 7f 3f ef 5c 7f 3f 8a 2f 80 3f
       0.99821633 0.997013 0.9975118 1.0014508
000070 d9 3a 7f 3f 26 00 7f 3f ff 35 7f 3f b8 29 7f 3f
       0.9969917 0.996096 0.99691767 0.9967303

base.cnn.cnn.1.bias f4 [32]
000000 21 ad 07 39 78 74 3a 3b 65 55 00 3b 16 4e 5a 3b
       0.00012939099 0.0028450768 0.001958215 0.0033310703
000010 66 da 1a bb 4b ab 75 bb c0 2f 1e 39 6a 62 ac 3a
       -0.002362871 -0.0037486132 0.00015085842 0.0013151888
000020 4b e9 ba ba d7 81 33 3b 9c da 24 3b 28 5a cc ba
       -0.00142602 0.0027390623 0.0025154715 -0.0015590834
000030 0f e7 15 3a 35 6d 15 bb e0 04 aa ba 15 0c c2 3b
       0.00057183293 -0.0022800688 -0.0012971424 0.0059218504
000040 fe 1e 92 b6 20 a2 44 3b 13 94 38 bb 4c 55 e2 ba
       -4.354747e-06 0.003000386 -0.002816443 -0.0017267852
000050 4f 01 8c ba 6e 2a 41 3b 74 37 2a 3b d7 7c 27 3a
       -0.0010681542 0.0029474753 0.0025972994 0.0006389147
000060 13 ee 48 3a 94 50 96 b9 ae 5d 19 39 99 f5 e8 3a
       0.00076648704 -0.00028670265 0.00014626115 0.0017773389
000070 68 f7 bf 38 42 be 0a 3a a9 60 96 3a 06 fd 7f ba
       9.153673e-05 0.0005292633 0.0011472899 -0.00097651815

base.cnn.cnn.1.running_mean f4 [32]
000000 fe a1 3d 3c cb 71 04 3e 6e 83 01 3d 0a c4 24 bd
       0.0115742665 0.12934034 0.03161948 -0.04022602
000010 d6 93 45 bd 9a a2 59 3d 55 86 4c 3c ae df dc bc
       -0.04823669 0.053133585 0.012483199 -0.026962128
000020 e2 b5 5e 3d 02 be c4 bd f9 d4 48 3d db e9 a0 3d
       0.054372676 -0.096065536 0.04903123 0.078571044
000030 58 f1 79 bd 28 85 11 3e 68 68 16 3c 62 0f 23 bc
       -0.06102118 0.14210951 0.009180166 -0.009952398
000040 94 cc eb bd c1 5c 3e 3e 34 26 11 be 73 9f 82 3d
       -0.115136296 0.1859007 -0.1417473 0.06378069
000050 b5 d1 b4 bc 92 a2 11 be 7b 31 29 3d 53 af 16 3d
       -0.022072652 -0.14222172 0.041306954 0.036788296
000060 19 1c aa bd 8b c1 12 3e 69 13 a8 3d ea 79 30 3d
       -0.083061405 0.14331643 0.08206827 0.043085016
000070 44 22 ae bc 01 d6 1b be 9b 98 ee 3d 84 d7 88 bd
       -0.021256573 -0.15218355 0.11650201 -0.06681731

base.cnn.cnn.1.running_var f4 [32]
000000 e5 22 81 3b ae 36 32 3c 82 99 c6 3b a2 4f ce 3b
       0.0039409273 0.0108772945 0.00606078 0.006296114
000010 c0 e6 75 3b a9 28 cb 3b 2b 23 a4 3b 02 fe d8 3b
       0.003752157 0.0061999154 0.005009075 0.006622077
000020 37 12 e2 3b 10 2d f5 3b 61 f5 d6 3b 5c 5e 8a 3b
       0.006899144 0.0074821785 0.006560013 0.0042226743
000030 9d 51 36 3b 20 b0 f7 3b d9 bd 4a 3b 77 bc 82 3b
       0.0027819641 0.0075588375 0.0030935912 0.003989752
000040 a7 80 ad 3b 30 91 15 3c c6 f2 fd 3b cd 13 c8 3b
       0.0052948776 0.009128854 0.007749888 0.006105876
000050 66 23 a9 3b f7 e9 23 3c 2a 6f 61 3b d8 e4 92 3b
       0.0051616905 0.010004512 0.0034398534 0.0044828467
000060 69 3d a9 3b 20 b4 eb 3b 3b bd a1 3b 37 8e c6 3b
       0.0051647914 0.0071931034 0.004935888 0.006059434
000070 14 34 81 3b b2 6e f0 3b 90 54 09 3c c8 ef 94 3b
       0.003942976 0.0073374147 0.008381978 0.0045451857

base.cnn.cnn.4.weight f4 [64, 2592]
000000 06 af 60 bd 4e 22 9e 3c 9a f7 e9 bc 7d cb ca 3c
       -0.054854415 0.019303467 -0.028560448 0.024755234
000010 98 db b6 b9 25 93 55 bd 9b 44 4e bd bb 58 8d bc
       -0.00034877355 -0.05214228 -0.050358396 -0.017254224
000020 69 e2 46 bd fc 17 31 3d 1c 01 89 bd a4 44 2f bd
       -0.048555765 0.043235764 -0.06689665 -0.04279007
000030 6b 33 ee 3c 50 b4 4e 3c e8 ad 31 bd 9e 6b 73 3d
       0.029077252 0.012616232 -0.04337874 0.059428804
000040 1a 6e 24 bc 9a 97 16 3c 61 bb 58 3d 54 17 ca 3c
       -0.010036016 0.009191418 0.052913073 0.024669327
000050 91 72 a3 ba f7 46 91 ba 20 b9 1b 3d 6e 71 93 3c
       -0.0012470057 -0.0011083771 0.038018346 0.017998423
000060 c9 7c 2d 3d ac 5a 4d bd cd fb 20 bd 65 16 6e 3d
       0.042355333 -0.0501353 -0.039302636 0.058126826
000070 cf 13 97 3c 6d 44 85 bd 66 94 03 3d 91 8f 8d bc
       0.018442063 -0.06507192 0.032123946 -0.017280372
000080 b2 9e 08 3d 52 8d 62 3d ab 8c 3b 3d 06 7a e5 3c
       0.03335447 0.055310555 0.04578845 0.028012287
000090 af b4 78 bd 89 d3 0f bd 62 24 d3 3c 8b 14 cc bc
       -0.06071919 -0.035113845 0.025774185 -0.02491214
0000a0 48 af d6 3c ae 10 af bc e7 d6 87 3d 14 40 87 3d
       0.026206627 -0.021370258 0.06632786 0.06604019
0000b0 bb 6e 2d 3d 7b f4 9b bc e5 07 e5 3c 3b d0 1e bd
       0.04234193 -0.019037476 0.027957866 -0.038772803
0000c0 bf 0a 1d 3c 17 f8 b9 39 4a c6 b8 bc 45 3d 95 3c
       0.009585082 0.0003547079 -0.02255549 0.018217692
0000d0 e8 c9 4a bd 53 1c 8a bd 59 1b a7 bc 40 ff 70 3d
       -0.04950896 -0.06743684 -0.020398783 0.058837175
0000e0 09 93 18 bd 41 4e 66 3c e9 19 3d bd a3 d2 0c bd
       -0.0372496 0.014056743 -0.046167288 -0.034380566
0000f0 a6 8b 71 bd 2e 96 81 bd 66 73 27 3d ed 25 89 bd
       -0.05897107 -0.063274726 0.040881537 -0.06696687
000100 cb 0c 6b 3d 11 bd d7 3c e3 58 8a bd 67 d7 e4 bc
       0.057385247 0.026335271 -0.06755235 -0.027934743
000110 ed 5b 5f 3d 22 22 05 bd eb 34 13 bd c7 fb 59 3d
       0.054531027 -0.032503255 -0.03593914 0.05321863
000120 b2 b2 76 3d bd 0f c3 bb 9c e2 83 3c ae 74 49 bd
       0.06022901 -0.005952804 0.016099267 -0.04918354
000130 67 57 0a 3d e7 9a 6c bc 4a 74 fb 3b 18 79 d5 bc
       0.03377476 -0.0144412285 0.007673775 -0.026058719
000140 51 09 ad 3c a9 7c 53 bd 50 39 1a bd 19 f6 08 3d
       0.021122606 -0.051632557 -0.037652314 0.033437822
000150 4d 24 28 bd 51 81 0e 3c 43 79 80 3c 9e 40 33 bc
       -0.041050244 0.008697824 0.015682822 -0.010940699
000160 ce 6c f7 bc c2 01 36 bd ad 80 79 bc db 9c 6a 3d
       -0.03020325 -0.04443527 -0.015228433 0.057278495
000170 08 73 bf 3c 0f e4 80 3d 93 79 35 bd 75 0e c1 3c
       0.02337028 0.06293499 -0.044305395 0.023566464
000180 72 6d 6a bd e7 b6 4d bd 61 73 c0 3c 90 12 41 3b
       -0.05723328 -0.050223257 0.023492517 0.0029460527
000190 e3 12 4b bd 2c 5f 31 bd 92 30 bf 3c c0 14 15 3d
       -0.04957856 -0.043303654 0.02333859 0.036396742
0001a0 b2 4a e3 3c da f4 60 3d 2b 11 c6 3b 67 6b 83 bc
       0.027745578 0.05492101 0.006044527 -0.016042424
0001b0 53 12 37 3d d6 24 76 3b 13 64 bd bb a3 f6 0f 3d
       0.04469521 0.0037558577 -0.005779752 0.03514732
0001c0 c4 6f a6 3b dd 19 be 3c 71 f6 10 3d d6 6e 44 bc
       0.0050792415 0.023205692 0.035391275 -0.011989316
0001d0 e7 c8 86 3c 44 a7 6d bd 06 6a ba bc 6e 11 d0 3a
       0.01645322 -0.058020845 -0.022755634 0.0015874335
0001e0 90 aa 36 bd 5a c2 32 3c 05 31 84 3d 80 cb b0 3c
       -0.044596255 0.010910595 0.06454662 0.021581411
0001f0 23 97 55 bc 46 38 72 3d 71 3f 60 3d e2 f4 39 bd
       -0.013036522 0.059135698 0.054748002 -0.045399554
000200 57 d3 e3 bc fb e2 42 3c a1 ba 95 3c ec 28 25 3d
       -0.027810736 0.011894937 0.018277468 0.04032223
000210 65 f8 92 3b 3a 95 b9 3b 51 09 01 bd 79 d5 bf 3a
       0.0044851773 0.005663541 -0.031503025 0.0014635763
000220 5e 03 34 3d 54 c8 6c bc 02 77 96 3c 1d da 31 bd
       0.043948524 -0.014452059 0.018367294 -0.0434209
000230 a5 49 75 bd 01 4e 33 bd 61 8d 0a bc cf 43 8a bd
       -0.059884686 -0.043775562 -0.008456559 -0.06751215
000240 c4 1c 51 bc db 7a 45 3d f7 b6 06 3d 8f 38 32 bd
       -0.012763206 0.048212867 0.032889333 -0.04351097
000250 79 94 53 bd 4a 09 0e bc 02 42 8c bd a9 fe 82 3d
       -0.051655266 -0.008669207 -0.068485275 0.06396229
000260 01 a1 f8 3a 46 0d 86 3c 06 40 12 3d 2b 5e 8e ba
       0.0018968881 0.016363751 0.03570559 -0.0010861804
000270 20 12 64 bd bd a8 19 3d ea c5 6c 3d ef 9b 90 3c
       -0.055681348 0.037514437 0.057805933 0.01765248
000280 cc b0 de 3c 4e 06 ff 3c 6d f0 9f bb 1d 2d f2 bb
       0.027183913 0.031130936 -0.004880956 -0.007390632
000290 c4 6f b2 bb d8 ed e9 3c 87 05 b7 bc e3 7f 66 bc
       -0.0054454524 0.028555796 -0.022341503 -0.0140685765
0002a0 05 e7 53 3d 11 9d 4a 3c fe 75 42 bd 61 5e 24 bd
       0.05173399 0.012366549 -0.047475807 -0.04012907
0002b0 fb 33 a4 bc cf 91 3d 3c 80 dd b6 bc 39 81 50 3d
       -0.020044317 0.011570408 -0.022322416 0.050904486
0002c0 94 27 88 3c 86 51 23 bd a1 76 1a bd 72 c1 05 3d
       0.016620435 -0.03987267 -0.03771079 0.032655187
0002d0 41 33 17 3d 92 d7 62 3d 21 6c 53 bd ab e5 54 bd
       0.036914114 0.055381365 -0.05161679 -0.05197684
0002e0 0f 70 62 bd d2 56 82 bd aa 96 01 bd 03 3f 62 3d
       -0.05528265 -0.06364216 -0.031637825 0.055235874
0002f0 b8 14 8d bc 2d 94 da bc b7 ba 6e bc be 06 d1 3b
       -0.017221794 -0.026681984 -0.0145708835 0.0063789776
000300 af 4d f9 bc 27 c5 3d bd d8 f8 89 bd d9 be 00 bd
       -0.03043255 -0.046330597 -0.06736916 -0.031432007
000310 cb fe 48 3d aa 53 ed 3c c5 90 29 bd e4 3b 4f 3d
       0.049071115 0.028970558 -0.04139783 0.050594226
000320 ba 7a 41 bd af a2 55 3d 25 64 76 3c b9 aa 34 bd
       -0.04723618 0.0521571 0.015038525 -0.044108126
000330 8c 2e 7b 3d 44 5d 12 bd b4 e3 d7 3c 1a 95 6e bd
       0.061323687 -0.035733476 0.026353694 -0.058247663
000340 0f d9 78 bc f4 1f 9d 3c 3d fe 16 3d 96 e8 fd bc
       -0.01518847 0.019180275 0.036863554 -0.030994695
000350 88 b3 04 3d 17 9e 82 3d ed 42 48 3d 48 0c 78 3d
       0.032397777 0.063778095 0.04889195 0.060558587
000360 bf 70 ca 3c 05 bd 09 bd eb df f1 bc 68 b9 f6 bb
       0.024711965 -0.03362753 -0.029525718 -0.0075294264
000370 f7 09 b9 bc a3 4e 5d 3d 43 17 a6 3c 96 5d 7b 3d
       -0.02258776 0.054030072 0.020274764 0.061368547
000380 64 23 05 bd 45 fe d6 bc 2b 4c 2d bd a4 fd 17 3d
       -0.032504454 -0.026244292 -0.042308968 0.037107125
000390 4d 12 f1 3c 85 a2 87 bb ca a9 64 3d 5e 92 66 bd
       0.029427672 -0.004139247 0.055825986 -0.05629193
0003a0 d3 7f 05 3c 50 1d 09 bd 04 5b 72 bd 97 cc be 3c
       0.008148151 -0.03347522 -0.05916883 0.023290915
0003b0 6e cb 3a bd 1a ee 1e bd 06 5b 0f bb 06 e9 06 bc
       -0.045604162 -0.03880129 -0.0021874323 -0.008234268
0003c0 01 8d b2 3b 3e df b8 3c 0b 63 20 3d 67 16 ef 3c
       0.005448938 0.022567388 0.039156955 0.029185487
0003d0 91 48 77 3d ac 96 4b bc 03 40 25 3d 14 1d b7 bc
       0.06037194 -0.01242606 0.04034425 -0.022352733
0003e0 3e 0b 2d bd 13 f0 41 bd 7a 3e 1e 3d ba e5 a3 3c
       -0.04224705 -0.047348093 0.0386338 0.020007003
0003f0 14 03 ec 3c 6f 51 11 3d f1 0f 0b bd de 51 35 3d
       0.028810062 0.03547805 -0.03395075 0.044267528

base.cnn.cnn.4.bias f4 [64]
000000 02 e0 ca 39 df e7 b2 ba 77 5d 6d 3a 78 ba be ba
       0.0003869534 -0.0013649425 0.000905476 -0.0014551422
000010 75 45 9d 3a 19 62 30 ba 98 14 34 3b 24 ae e9 39
       0.0011998849 -0.0006728485 0.0027478095 0.00044570968
000020 b4 98 b0 ba 3c 6d 50 39 ba 1b 0c 39 a6 35 ac ba
       -0.0013473243 0.00019877119 0.0001336177 -0.0013138547
000030 37 52 da b8 18 e2 ad ba 80 46 83 3a d3 4f 56 3b
       -0.00010410364 -0.0013266234 0.0010015517 0.0032701388
000040 a7 cb e7 ba 49 e3 4b b9 b7 2e 12 bb d6 72 c1 3a
       -0.0017684594 -0.00019444259 -0.0022305676 0.0014758955
000050 02 5c 91 3a be 48 0d 3b a0 51 b7 3a 5d c4 c9 ba
       0.0011090043 0.002155825 0.0013986118 -0.0015393604
000060 a3 9e 34 ba b2 58 1a 3b 7a ef 15 bb 96 24 28 bb
       -0.0006890094 0.0023551402 -0.0022878335 -0.0025656573
000070 e1 a8 45 bb fd 87 04 3b 6b cf a1 3a 7e 29 c5 ba
       -0.0030160474 0.0020222657 0.001234514 -0.0015042273
000080 17 b5 c8 3a 8e 2f f4 b8 f5 43 ac ba 36 36 ec 3a
       0.0015312758 -0.000116436844 -0.0013142811 0.0018021527
000090 43 1f 01 bb 12 a8 0e bb e1 5b e4 3a cc 4e 24 bb
       -0.0019702471 -0.0021767658 0.0017422402 -0.002507138
0000a0 37 6f 24 3b 4a 24 00 3b 14 d3 8b bb 08 49 4f 3a
       0.0025090703 0.001955288 -0.004267106 0.0007907306
0000b0 9d e7 df 38 f2 76 82 38 4b 19 15 bb 66 d6 f4 ba
       0.0001067661 6.221038e-05 -0.0022750671 -0.0018679618
0000c0 44 ac d1 3a 80 78 a7 37 e2 12 be 36 68 f6 0e bb
       0.0015996774 1.9964064e-05 5.6646395e-06 -0.002181435
0000d0 ab c9 6e 39 f6 b2 22 bb 3b 48 0b ba 86 8e 22 39
       0.00022772576 -0.0024825907 -0.00053131924 0.00015502618
0000e0 64 27 c4 ba a6 aa 6a ba cb 96 aa 3a f1 0a b6 3a
       -0.0014965353 -0.000895182 0.001301491 0.0013888759
0000f0 04 d4 22 3b 45 99 ad 3a e9 0d 49 b9 6b 14 ce 3a
       0.002484561 0.001324453 -0.00019174036 0.0015722638

base.cnn.cnn.5.weight f4 [64]
000000 4e fa 7e 3f cc 7c 7e 3f cd e4 7e 3f 56 69 7e 3f
       0.99600685 0.99409175 0.9956787 0.9937948
000010 be d4 7e 3f f1 b7 7e 3f 85 0f 80 3f e3 81 7f 3f
       0.9954337 0.9949942 1.0004736 0.99807566
000020 d6 87 7e 3f a2 43 7f 3f 3d 4e 7f 3f 10 85 7e 3f
       0.9942602 0.99712574 0.9972876 0.9942179
000030 9c d0 7e 3f 90 99 7e 3f 2a 4e 7f 3f 63 2e 80 3f
       0.9953706 0.9945307 0.99728644 1.0014156
000040 d7 41 7e 3f 8e 26 7e 3f 7d 6e 7e 3f 9c 37 7f 3f
       0.99319214 0.9927758 0.9938734 0.9969423
000050 4a c1 7e 3f 75 5d 7f 3f cb 81 7e 3f eb ac 7e 3f
       0.99513686 0.9975198 0.994168 0.994826
000060 b0 79 7e 3f e5 fd 7e 3f 91 4e 7e 3f 0f 54 7e 3f
       0.9940443 0.9960616 0.9933863 0.99347013
000070 eb c8 7e 3f db 29 7f 3f 14 0a 80 3f 4c 22 7e 3f
       0.99525326 0.9967324 1.0003076 0.9927108
000080 b5 10 7f 3f aa ad 7e 3f 2b 7b 7e 3f 2f f1 7e 3f
       0.9963487 0.9948374 0.9940669 0.99586767
000090 f9 af 7e 3f e2 17 7f 3f 01 fb 7e 3f 44 eb 7d 3f
       0.9948726 0.9964582 0.9960175 0.9918711
0000a0 4b 1a 80 3f 33 83 7e 3f f7 86 7e 3f 5b 91 7f 3f
       1.0008024 0.99418944 0.9942469 0.9983117
0000b0 d1 3f 7e 3f 3f a1 7e 3f fe b4 7e 3f 51 72 7e 3f
       0.99316126 0.9946479 0.9949492 0.99393183
0000c0 9f f6 7e 3f 0d a9 7e 3f 0a 74 7e 3f 39 57 7e 3f
       0.99595064 0.994767 0.9939581 0.9935184
0000d0 9a 4d 7e 3f cc 29 7e 3f a4 1c 7f 3f 93 62 7f 3f
       0.9933716 0.99282527 0.9965308 0.9975979
0000e0 83 a8 7e 3f 2b 58 7e 3f b1 a4 7f 3f c5 b0 7e 3f
       0.9947588 0.99353284 0.99860674 0.9948848
0000f0 e5 4f 7f 3f 82 c7 7e 3f 8b cf 7e 3f bf fd 7e 3f
       0.99731284 0.99523175 0.99535435 0.99605936

base.cnn.cnn.5.bias f4 [64]
000000 9a 59 a4 ba 43 3e 0c bb c4 a2 bf 3a d6 13 c1 ba
       -0.001253891 -0.0021399416 0.0014620651 -0.0014730643
000010 63 05 4b 3a 54 4d 07 bb 20 64 02 3b 12 c2 90 39
       0.0007744638 -0.0020645456 0.0019896105 0.00027610414
000020 0a 26 c0 ba 51 2a 2d b9 d6 10 80 3a 67 4b f8 ba
       -0.0014659774 -0.0001651433 0.0009770643 -0.001894337
000030 8b 96 a5 b9 8e b6 0d bb d1 b3 60 39 5d 40 60 3b
       -0.00031583416 -0.0021623704 0.00021429292 0.003421805
000040 df 87 34 bb d2 0e c5 ba f9 d3 6b bb 35 50 c8 3a
       -0.0027546806 -0.0015034324 -0.00359845 0.0015282693
000050 d1 7f a4 3a 8a 39 38 3a f5 f8 0b 3b 5a 68 db ba
       0.0012550299 0.0007027617 0.0021358107 -0.0016739473
000060 68 9e f7 ba 43 4f d6 3a 2f c0 47 bb 41 76 77 bb
       -0.0018891813 0.0016350526 -0.003047954 -0.0037759694
000070 d6 7e 57 bb 57 2f ed 3a 4e e9 aa 3a 8d 6f 29 bb
       -0.0032881997 0.0018095773 0.0013039501 -0.0025853843
000080 9e 7a 7e 3a d2 01 1d ba 89 52 de ba 7e 5e 5a 3a
       0.00097076024 -0.0005989346 -0.0016961853 0.00083301205
000090 19 f5 b2 ba 5a 17 23 bb f3 b7 52 3a 60 1a 63 bb
       -0.0013653367 -0.0024885745 0.0008038275 -0.0034653172
0000a0 0a 26 fe 3a 96 2d b1 39 e5 00 80 bb f4 5f c7 3a
       0.0019389999 0.00033794035 -0.0039063566 0.0015211091
0000b0 70 97 85 ba 1f 35 5f ba 5e 62 4c bb bc 04 40 bb
       -0.0010192227 -0.00085146906 -0.003118656 -0.0029299697
0000c0 6d 4a a7 39 9a 5a 79 b9 02 10 d2 39 56 84 55 bb
       0.00031908174 -0.00023780242 0.00040066248 -0.00325801
0000d0 59 66 50 ba 83 68 73 bb cc 72 a2 ba c1 4b a6 39
       -0.00079498213 -0.0037141151 -0.0012393831 0.00031718428
0000e0 4e 52 18 bb 2f d2 c1 ba cc a2 8c 3a ef 76 df b9
       -0.0023242417 -0.0014787371 0.001072967 -0.00042622487
0000f0 84 30 03 3b d8 b2 d7 35 34 fa ca ba 78 8d ad 3a
       0.0020017931 1.6070799e-06 -0.0015485943 0.0013241014

base.cnn.cnn.7.weight f4 [64, 64]
000000 bb 3e 26 be 76 9a ad 3d 72 ca 6b 3e 5e 41 2f bd
       -0.16234867 0.08476727 0.23026446 -0.04278695
000010 94 89 8b be f6 a0 ab 3c 00 4b 50 3e 90 f0 8c be
       -0.272534 0.020950776 0.2034111 -0.27527285
000020 98 e5 f8 3d 66 37 33 be 49 ca 9a 3e e8 a3 91 be
       0.121531665 -0.17501602 0.30232456 -0.28445363
000030 f1 20 90 be e8 25 9c bd e5 3f c8 3d 2b a8 09 be
       -0.28150132 -0.076244175 0.09777812 -0.13443057
000040 40 25 69 3e 7e 05 1e bd 9f d3 9a 3e 2f 2c f1 3d
       0.22768116 -0.038579457 0.3023958 0.117760055
000050 18 4e 2c be 86 cf 51 3e f1 d5 c7 bc f9 82 59 3e
       -0.16826665 0.2048932 -0.024394007 0.21241368
000060 b5 ca c1 3d af d8 73 3e d4 3f 2d 3e 7f 4c 06 bc
       0.094624914 0.23813127 0.1691888 -0.008196949
000070 1d 20 62 3e 4c 1a cb bd d5 be 45 be 0b f9 27 3e
       0.22082563 -0.09917125 -0.19311078 0.16403596
000080 1a fd 4f bd ad e2 de 3b 37 a3 a5 bd 4d 12 b1 bd
       -0.050778486 0.006801924 -0.080877714 -0.08646069
000090 d7 2d 92 bd b5 ed 53 3e d3 4d 2a be 4f 49 8f 3e
       -0.071376495 0.20696147 -0.1663125 0.27985618
0000a0 cb 30 b6 3d 78 af 4c bd 0c b3 89 3e 4e e7 49 be
       0.08896025 -0.049972028 0.26894414 -0.19717142
0000b0 f5 ec 4a be 02 a1 f4 3c b1 dd 10 be 09 50 cf 3c
       -0.19816954 0.02986193 -0.14147069 0.025306718
0000c0 59 aa c4 3d f6 05 40 3e 0b db 46 3e c1 0d f9 bd
       0.09602804 0.18752274 0.19419496 -0.121608265
0000d0 94 e8 8d 3b d2 d7 87 3d 4d 9b 39 bb b6 3b e0 bd
       0.004330704 0.06632961 -0.0028321326 -0.10948889
0000e0 54 65 58 3e f3 3b 74 3c f0 1e 91 be e2 60 3f be
       0.21132404 0.014906871 -0.28343916 -0.18689302
0000f0 9d 91 5a 3e ac 70 fe bd ae 86 b5 bd aa a7 2f 3e
       0.2134461 -0.12423834 -0.08863579 0.17153803
000100 7b c5 8b 3e 5e 4d 12 3e 71 fc 91 3e a1 35 2b be
       0.27299103 0.14287326 0.2851291 -0.16719677
000110 34 68 0b be 8d bb 0a be 0e 83 36 3e 37 d4 71 3e
       -0.13613969 -0.13548107 0.17823431 0.2361611
000120 06 18 81 3e 5c e5 ea bd b1 58 95 be 98 2b 5a 3d
       0.2521364 -0.11469528 -0.2916923 0.05326423
000130 70 83 0c 3e dc 6e 15 be ab da e0 bd 2d be b6 bd
       0.13722014 -0.14593071 -0.109792076 -0.08922992
000140 1d ed 8f 3e a8 1a 1a be de 0c 70 3e 49 e7 02 bb
       0.2811059 -0.15049231 0.23442408 -0.0019974282
000150 a1 e3 c5 bc 85 18 95 bd b2 46 9b be 4e 09 21 3e
       -0.024156393 -0.07280067 -0.30327374 0.15726206
000160 1b a9 5b 3d a0 5a 4c 3e c1 88 c8 bd 0c 8c 89 3e
       0.05362807 0.19956446 -0.09791709 0.2686466
000170 77 bc 80 3e 88 a5 ca 3d 03 a6 9a be c0 e5 8b 3e
       0.25143787 0.09894854 -0.30204782 0.27323723
000180 08 05 5f 3e 70 fc 0e be e1 dc 2d 3e 67 38 93 be
       0.21779263 -0.13963485 0.1697879 -0.2875397
000190 8f f5 94 3e c8 0f 95 be 21 e7 14 be 80 7e 8b be
       0.29093596 -0.29113603 -0.14541294 -0.2724495
0001a0 37 86 55 be 93 38 90 3d 8a 9b 92 be 31 66 42 3e
       -0.2085198 0.07042041 -0.28634292 0.18984295
0001b0 b2 bb 8a 3e 86 d4 30 be 57 28 80 be fc b4 49 3c
       0.27096325 -0.17268571 -0.25030777 0.012311216
0001c0 22 b6 40 3e 73 6f 1d be e3 15 28 3e f7 c1 65 be
       0.18819478 -0.15374546 0.16414599 -0.22437273
0001d0 2f 23 da 3d e5 de 99 3e dc d4 e1 3d 90 e8 24 3e
       0.10651242 0.30052868 0.11026928 0.1610434
0001e0 b3 d4 15 be bc d5 cd 3d d2 36 83 3d c5 cb 7a bd
       -0.1463192 0.10050532 0.064069405 -0.061229486
0001f0 48 d4 b6 bb 10 9b ea 3d 77 53 73 bd 22 78 34 be
       -0.005579505 0.11455357 -0.05940577 -0.17623952
000200 f4 d3 29 be e5 6b 4f be b6 05 78 3d cb 90 94 be
       -0.1658476 -0.20256002 0.06055232 -0.29016718
000210 1e 9e 96 be 75 41 fd bd 06 e9 bc bd 1c 66 98 be
       -0.2941751 -0.123660006 -0.09224133 -0.29765403
000220 a3 14 93 be 2f 93 56 bd 84 49 08 3e 0c 8e 4c 3e
       -0.28726682 -0.05238646 0.13309294 0.19976062
000230 58 0a 73 3e 8d f0 6f 3e 1d 9d 8d bd b8 0f 6f 3b
       0.23734415 0.23431607 -0.069147326 0.0036477875
000240 36 01 2e be bb 91 29 be c4 ae 2d be b4 51 cb 3d
       -0.1699265 -0.16559498 -0.16961199 0.09927693
000250 b7 0f 01 3e 90 9e 02 be 51 37 12 3e 2c f0 fe 3d
       0.12603651 -0.127558 0.14278914 0.12448153
000260 78 24 ef 3d 1e c4 c0 bd bc d3 95 bc b5 22 0b 3e
       0.11676878 -0.094124064 -0.01828944 0.13587458
000270 83 03 88 3e e5 d8 45 be a1 3c 88 3e d4 12 26 3e
       0.2656518 -0.1932102 0.26608756 0.1621812
000280 e2 80 36 be 6a e4 04 be d5 95 70 be e5 79 27 3b
       -0.17822602 -0.12977758 -0.23494656 0.0025554833
000290 a6 d7 87 be e7 28 78 be c6 34 02 be 2b 9c 32 be
       -0.26531714 -0.24234353 -0.12715444 -0.17442386
0002a0 a4 de 19 be 0c 1b 15 3c 4a 91 2e be b8 98 7c 3e
       -0.15026337 0.009100687 -0.17047611 0.24667633
0002b0 8c 16 5b 3e 2d 22 01 be 1f 4f d3 bc 6c a9 04 3e
       0.2139532 -0.12610693 -0.025794564 0.12955254
0002c0 ff c2 8f be 2c 4f 7f 3e 98 83 7d 3e 03 15 a5 3d
       -0.28078458 0.24932545 0.2475723 0.08060648
0002d0 c7 e3 b8 3b 45 81 cd 3c af c9 32 3c ab dc 88 be
       0.0056423876 0.025086055 0.010912343 -0.26730856
0002e0 80 f9 4f be f0 53 22 be 0b 9e 6e 3e 52 40 4a 3e
       -0.2031002 -0.15852332 0.23302476 0.19751099
0002f0 6f b3 1d be 2d ca 5f be c7 ff eb bd 12 b0 93 be
       -0.1540048 -0.21854468 -0.11523395 -0.28845268
000300 8a 0d 22 3c 6e b0 3f bd 77 c0 1a be 85 4a 83 be
       0.009890923 -0.046799116 -0.15112482 -0.2564279
000310 ec 91 08 be e9 aa 2b be 26 e3 6e bd 5d 03 22 3e
       -0.13336915 -0.16764416 -0.058322094 0.15821595
000320 75 8c 82 3e 1d ac 81 3e 4f 96 94 3e 81 72 c3 3c
       0.25497785 0.25326625 0.29020926 0.02385831
000330 93 3a 93 be 72 c7 96 be 97 c7 35 be 3e 41 b2 bd
       -0.28755626 -0.2944904 -0.17751919 -0.0870385
000340 06 a3 05 3e 7b 7e 26 bd 17 0c 55 be 27 86 c6 bd
       0.1305047 -0.040647965 -0.20805393 -0.09693556
000350 ee 0e 53 be be 0c 93 be 8d 3e 03 3e b7 08 6d 3e
       -0.20611164 -0.2872066 0.1281683 0.23147856
000360 79 5e 96 3d 09 e3 4e be f8 10 21 3e a0 de df bd
       0.07342238 -0.20203795 0.1572913 -0.10931134
000370 cb fa 91 3e a4 f2 ba 3d e2 1b 6a be 48 ea 1f be
       0.28511652 0.09128311 -0.22862199 -0.15616715
000380 61 3d dc bd 9c d8 8a be 91 2f fd bd 34 40 51 be
       -0.107538946 -0.27118385 -0.12362588 -0.20434648
000390 d9 7e be 3d 97 a5 48 3e 4f 61 e4 3d ed 16 2c 3d
       0.09301538 0.19594418 0.11151373 0.04201405
0003a0 ef 6b 82 bc 8b 24 b6 3d ac 9b a9 bc 5a 30 06 be
       -0.015920607 0.08893689 -0.020704113 -0.13104382
0003b0 7c a3 df 3d 7d 7c 0b 3e ce a8 2a bd be a7 8e 3b
       0.10919854 0.13621707 -0.04166489 0.0043534925
0003c0 f4 4f c2 3b af 21 f9 3d 6a de 1a 3e 04 f4 89 be
       0.0059299413 0.12164628 0.15123907 -0.26943982
0003d0 86 f7 c4 bd 0b 7c 58 be 39 c2 e7 3d e8 19 74 bd
       -0.09617524 -0.21141069 0.11316342 -0.05959502
0003e0 0b d6 1d bd d9 77 29 3e 26 71 8d bd 8d 31 9d bd
       -0.038534205 0.16549625 -0.06906347 -0.07675467
0003f0 1c 33 06 be 0f f2 9a be d6 fb 0f 3d 85 bc 8e be
       -0.13105434 -0.302628 0.03515228 -0.27878204

base.cnn.cnn.7.bias f4 [64]
000000 93 09 8f 39 06 25 be bb 6d 51 7c ba ad a6 e5 3a
       0.0002728222 -0.0058027534 -0.00096251705 0.0017520987
000010 23 93 20 bb f1 7c 28 3b 96 9e 9f ba de 52 1d 3a
       -0.0024501763 0.0025709237 -0.0012178 0.0006001423
000020 70 11 1e ba 25 4b 1d bb 7e dd 50 ba a3 bf 61 ba
       -0.000602982 -0.0024001088 -0.0007967575 -0.0008611625
000030 18 df 85 3a d4 2f f6 ba e7 d9 a7 3b 01 c5 39 b9
       0.0010213582 -0.0018782564 0.0051224115 -0.00017716365
000040 7d 4b 47 bb ec 49 06 3a ec a3 c2 3a 80 0d 06 bb
       -0.0030409985 0.00051227096 0.0014849878 -0.0020454824
000050 37 11 16 3b 21 10 80 3b 90 79 cf 3a ce 63 c6 3a
       0.0022898444 0.0039081727 0.0015829075 0.0015135945
000060 48 56 b5 b9 d5 2c f2 ba 98 ba 09 3b 8e f9 1a bb
       -0.00034587295 -0.0018476496 0.002101576 -0.0023647281
000070 bd b2 31 b9 d4 f2 8f 3b c0 6c 98 3a 67 2d 3e bb
       -0.0001694662 0.004392961 0.001162909 -0.002901876
000080 a3 cd ea 3a 44 4d 5b bb 5f 08 f0 3a aa 8e be 3a
       0.0017914068 -0.0033462802 0.0018313042 0.0014538367
000090 3c 6f e6 3a 4b a1 4b 3b 63 55 9f b9 67 3b 5c ba
       0.0017580758 0.003107148 -0.0003039046 -0.00084011856
0000a0 0b 1d 07 3b d6 f2 a1 bb fc ff 33 3a 62 fa b8 39
       0.0020616676 -0.0049422784 0.0006866453 0.00035281765
0000b0 4f 3d c9 3a 28 9c c7 3a 78 00 00 bb ca 48 8e ba
       0.0015353354 0.0015229033 -0.001953153 -0.0010855433
0000c0 d8 2e 88 bb f4 c9 b5 3b ed cd c9 3a fa 26 08 b9
       -0.004155975 0.0055477563 0.0015396454 -0.0001298449
0000d0 97 2e 97 3a 50 aa 60 bb 16 f9 00 3b 7c 99 37 3b
       0.0011534271 -0.0034281202 0.0019679717 0.0028015068
0000e0 bb f8 6a ba e6 21 2a bb 9a 65 a4 39 b0 99 20 3b
       -0.00089634553 -0.0025960146 0.00031356217 0.0024505667
0000f0 24 c4 98 bb e1 fe c1 b9 b8 9f d0 b9 db 5c 94 b9
       -0.0046620537 -0.00037001728 -0.0003979185 -0.00028297942

base.cnn.cnn.8.weight f4 [64]
000000 74 62 7e 3f 47 ff 7d 3f cb 54 7e 3f ab 8a 7e 3f
       0.9936898 0.9921765 0.99348134 0.9943034
000010 29 2c 7e 3f f9 b5 7e 3f ea 68 7e 3f 65 a9 7e 3f
       0.99286133 0.9949642 0.99378836 0.99477226
000020 23 e7 7e 3f 44 27 7e 3f 04 17 7f 3f cd 03 7f 3f
       0.99571437 0.99278665 0.99644494 0.99615175
000030 94 38 7e 3f dd 84 7e 3f 60 26 80 3f 0d 7e 7e 3f
       0.9930508 0.99421483 1.0011711 0.9941109
000040 e7 86 7e 3f 04 42 7e 3f d5 73 7e 3f 17 a0 7e 3f
       0.99424595 0.9931948 0.99395496 0.9946303
000050 4d f5 7f 3f ea 59 80 3f 24 12 80 3f bf c5 7e 3f
       0.99983674 1.002744 1.0005536 0.99520487
000060 c1 42 7e 3f 3e 14 7e 3f 1c 67 7f 3f 93 96 7e 3f
       0.9932061 0.9924964 0.9976671 0.9944851
000070 00 45 7e 3f 75 4e 7f 3f 2e 9e 7e 3f d5 40 7e 3f
       0.99324036 0.9972909 0.99460113 0.99317676
000080 6b 88 7e 3f 85 30 7e 3f 1a 36 7f 3f e9 2b 7f 3f
       0.9942691 0.99292785 0.9969193 0.99676377
000090 51 fc 7e 3f 0f 40 7f 3f f7 b4 7e 3f 23 e8 7e 3f
       0.99603754 0.9970712 0.9949488 0.9957296
0000a0 a8 3a 7e 3f 59 45 7e 3f aa a6 7e 3f c4 5b 7f 3f
       0.9930825 0.99324566 0.9947306 0.997494
0000b0 b1 e3 7f 3f 63 e1 7f 3f db c5 7e 3f 0c 34 7e 3f
       0.99956805 0.9995329 0.99520653 0.9929817
0000c0 c5 6d 7e 3f 55 65 80 3f 7c 09 7f 3f c1 5a 7e 3f
       0.99386245 1.0030924 0.99623847 0.9935723
0000d0 fc ca 7e 3f ff 19 7e 3f 24 d4 7e 3f 24 ed 7e 3f
       0.9952848 0.99258417 0.9954245 0.995806
0000e0 b6 c3 7e 3f 51 fd 7e 3f f8 69 7e 3f f7 87 7e 3f
       0.9951738 0.9960528 0.99380445 0.99426216
0000f0 4a 8a 7e 3f 60 32 7f 3f b6 49 7e 3f 72 5a 7f 3f
       0.9942976 0.9968624 0.99331224 0.99747384

base.cnn.cnn.8.bias f4 [64]
000000 9d 4f 86 38 29 2c c0 bb 29 95 5b ba 1e a5 d9 3a
       6.404447e-05 -0.0058646393 -0.00083764136 0.0016604995
000010 bd 49 13 bb 2a d2 19 3b 0a 8c 70 ba 76 76 0d 3a
       -0.0022474371 0.0023471215 -0.0009176141 0.0005396375
000020 5f d7 52 ba d2 b2 2a bb 88 61 5c ba c9 38 83 ba
       -0.0008042957 -0.0026046527 -0.0008406867 -0.001001143
000030 6d 1c 91 3a 43 03 a8 ba dc 86 9c 3b cd 9b 49 ba
       0.0011071094 -0.0012818355 0.0047768187 -0.00076907576
000040 fc fd 48 bb 76 f0 1f 37 39 b6 a9 3a 40 43 e3 ba
       -0.0030668965 9.533125e-06 0.0012947983 -0.0017338768
000050 0b 8e fd 3a 95 f5 61 3b 70 e8 ec 3a cf 3e 9f 3a
       0.00193447 0.0034478654 0.0018074643 0.0012149456
000060 5a a9 f8 b9 9b 8f f4 ba f4 23 0a 3b b4 c3 0f bb
       -0.00047428423 -0.001865852 0.0021078559 -0.0021936717
000070 4b aa a1 38 c1 ed 8b 3b 78 53 56 3a 4a 9b 65 bb
       7.708798e-05 0.004270286 0.000817589 -0.0035035186
000080 9a 59 ae 3a 2b 17 75 bb 90 07 c6 3a 0b 60 aa 3a
       0.001330185 -0.0037397842 0.0015108455 0.0012998594
000090 d7 71 ca 3a 75 db 48 3b b5 65 ed b9 07 bc 6e ba
       0.0015445304 0.0030648385 -0.0004527994 -0.0009106998
0000a0 60 53 b7 3a 31 12 a6 bb 01 65 6a 39 78 5a 77 39
       0.001398664 -0.0050680866 0.00022353606 0.00023589458
0000b0 bf 65 8b 3a 95 01 b3 3a aa 03 f4 ba 13 3a 9f ba
       0.0010635181 0.0013657088 -0.0018616815 -0.0012148045
0000c0 4b 80 8a bb e1 ce a3 3b 6f aa d0 3a 7b ce 01 ba
       -0.0042267195 0.004999027 0.0015919934 -0.00049517275
0000d0 37 b4 9a 3a 2e 2e 54 bb 3a f6 f3 3a a9 bb 1b 3b
       0.0011802976 -0.0032376158 0.001861281 0.0023762977
0000e0 08 a8 ba ba 0d 89 38 bb f7 0d ea b6 4c 2f 16 3b
       -0.0014240751 -0.002815786 -6.975369e-06 0.0022916375
0000f0 33 23 9a bb 37 75 da b9 de 50 0c ba 41 6d a7 b9
       -0.004703903 -0.00041667532 -0.00053526263 -0.00031934123

rnn.rnn.weight_ih_l0 f4 [192, 64]
000000 9d 7c 54 bc 69 1d 9d bc 59 4b 06 be 23 8e e1 bd
       -0.012969163 -0.019179063 -0.1311468 -0.110134386
000010 d1 27 64 3b 50 ad 19 bc 6f b7 78 bd 26 36 9c 3d
       0.0034813771 -0.0093797 -0.06072181 0.076275155
000020 c1 99 2e bd db 7e 02 3e 65 c7 f2 3c 90 dc b9 3d
       -0.0426271 0.12743704 0.029636094 0.09075272
000030 62 0d c5 bd d1 66 e1 bc c3 d1 9a 3d fa a2 f3 bd
       -0.09621693 -0.027514847 0.0755954 -0.1189632
000040 cf 56 cc bb 94 b1 00 3e ec da 8b bc c1 bf af 3d
       -0.0062359343 0.1256774 -0.017072164 0.08581496
000050 b8 e2 ad bd a3 85 d3 3d cf 02 fe bd e1 09 a2 bd
       -0.08490509 0.103282236 -0.124028794 -0.079120405
000060 3c ab 9b 3d b6 94 bd 3d ed f6 82 3d 90 5d 00 3e
       0.0760102 0.0925688 0.063947536 0.12535691
000070 51 c5 0b bd 4f 68 33 3c 48 80 1a 3d 87 8f 6f bd
       -0.034123722 0.010950162 0.037719995 -0.058486488
000080 cf a2 02 be e6 31 94 bc 06 d8 6c bd c7 3d d5 3d
       -0.12757419 -0.0180902 -0.057823204 0.10412174
000090 05 66 65 bd 56 ad 15 bd 0e f9 a7 3d 8f 86 83 bd
       -0.056005497 -0.03654226 0.082018 -0.064221494
0000a0 d2 9b 82 3d bb 0a 92 bd cd c3 b8 3d 24 9a a3 bd
       0.063773766 -0.07130953 0.09021721 -0.07988384
0000b0 e4 c0 01 be 53 3d d7 bd 95 60 46 bc 6c b4 88 3d
       -0.12671238 -0.105097435 -0.012107988 0.06675038
0000c0 00 1f 80 3d 7e 4a c5 bd 41 07 e1 3d ce 65 29 3d
       0.06255913 -0.09633349 0.10987712 0.041356854
0000d0 16 99 00 be be fc 04 3d 38 0f 05 3d d5 7b 1f bc
       -0.12558398 0.032467596 0.032485217 -0.009734114
0000e0 6d 27 0c be e3 4c 98 bd 9c 75 ef 3d 8e 7b e2 3d
       -0.13686915 -0.0743654 0.11692354 0.110587224
0000f0 2b a7 02 be 16 48 07 3e ce a7 81 3d e7 c3 23 bd
       -0.12759082 0.13211092 0.06330834 -0.03998175
000100 0c f8 82 3c bf 3f fa 3d 42 fa d6 bd 21 86 67 bd
       0.015987419 0.1221919 -0.10496952 -0.0565244
000110 d1 13 9a bd 69 d3 7b bd 7e 8f b1 3d 08 1b c1 bd
       -0.07523311 -0.061480913 0.08669947 -0.09428984
000120 74 69 1c 3d 2c 2e 43 bc fc 90 be 3d 0e 58 93 3d
       0.038186505 -0.011912864 0.09304997 0.071945295
000130 b3 36 8f bd f8 25 06 3e 53 9a 08 3e a5 13 8a 3d
       -0.06992855 0.13100421 0.1334012 0.06742028
000140 ce 19 75 bd d3 66 5e bd 4e 18 07 3e cd 10 00 3d
       -0.059839062 -0.05429728 0.13192865 0.031266022
000150 98 50 01 3e 81 e3 86 3d 99 18 79 bd b8 cd c7 3c
       0.126284 0.06586362 -0.060814474 0.024390087
000160 ba 7d 50 3d 8a b5 08 be dd 54 4b bd fa 30 22 3d
       0.050901152 -0.13350502 -0.04964148 0.03959749
000170 ee 7d 95 3d e1 80 0b 3e 7a d6 aa bd 4c 8a 15 be
       0.0729941 0.13623382 -0.083416894 -0.14603537
000180 bb 96 e2 3d 2f 67 12 3e 41 fb 07 3d 57 77 65 3c
       0.11063906 0.14297174 0.0331986 0.014005504
000190 76 ad 1a 3d 60 6f 76 3d 8c 40 09 3e 70 36 0f be
       0.03776308 0.06016481 0.13403529 -0.1398561
0001a0 0f d9 97 bd 6f 2b 8b 3c 0c 46 97 3d d3 e2 0c be
       -0.074144475 0.016988484 0.07386407 -0.13758402
0001b0 36 da 11 be c1 90 24 3c b2 30 6c 3d ba 5a 17 3e
       -0.14243397 0.010044278 0.057663627 0.14780703
0001c0 0e 8c d6 bd 1b 12 17 be be fd 0f 3e ed ee 8b bd
       -0.10475932 -0.14753 0.14061639 -0.06832681
0001d0 73 b7 b6 3d 77 41 e1 bd f8 d5 15 be a8 db 0b 3c
       0.08921709 -0.109988146 -0.14632404 0.008536257
0001e0 e4 1c 90 3c 4a 74 0d 3c c6 94 d9 bd d2 b8 95 bd
       0.017591901 0.0086336825 -0.106240794 -0.07310642
0001f0 29 21 da bd f2 f6 e1 bd 45 6c 05 3e 81 76 c5 3d
       -0.10650856 -0.11033429 0.13029583 0.096417435
000200 e8 c5 c7 3d 30 13 62 bd 16 02 bf 3c c8 04 04 3e
       0.097545445 -0.05519408 0.023316424 0.12892449
000210 6f bc 43 bc 78 ae a2 bd cb ca 5d bd 45 31 13 be
       -0.011946782 -0.079434335 -0.054148477 -0.14374264
000220 c8 b2 0e 3d 95 4f 76 3d e7 41 c0 3d e7 5f 56 bd
       0.034838468 0.06013449 0.0938757 -0.052337553
000230 37 25 41 3d 7a f7 d8 3d 52 82 f7 bd 16 3a 0a be
       0.04715463 0.105940774 -0.120854035 -0.1349872
000240 c3 1d 7e bd 49 fd 7a bd ba 3e c6 bc d3 52 13 be
       -0.0620401 -0.061276708 -0.024199832 -0.14387064
000250 1d dd e5 3d a1 d9 4e bd f0 b6 0d 3d 77 3e ca bd
       0.11223815 -0.050500516 0.03459829 -0.098751955
000260 12 7b 9c 3c 79 83 1c 3d b3 94 9c bd d8 c1 06 3e
       0.019101653 0.03821132 -0.076455496 0.13159883
000270 7a 2c d7 bd b1 70 9d 3d 08 d0 12 3e 3d 33 6f bd
       -0.1050653 0.0768751 0.1433717 -0.058398474
000280 ef 31 cc bd 40 d8 e2 3d 56 85 06 3e 49 a6 06 bc
       -0.099704616 0.11076403 0.13136801 -0.008218356
000290 4e ce 25 3d ab 09 e6 3b bc 22 c8 bd 29 0c e1 3d
       0.04047995 0.0070201955 -0.0977225 0.109886475
0002a0 59 c2 06 bc 33 f6 ad bd 99 04 bc 3d ab 75 a3 bd
       -0.008225047 -0.084942244 0.091805644 -0.07981428
0002b0 53 46 13 3c a0 b8 19 3d 87 97 94 bc af f8 76 3d
       0.008988935 0.037529588 -0.01813866 0.060295757
0002c0 2c ad ad 3c 2e f3 95 bd 42 8c 4a 3d d1 75 9e 3c
       0.021200739 -0.073217735 0.049450167 0.019343289
0002d0 67 90 94 3d 46 2f 49 bc 80 c0 89 bd 22 27 a4 3c
       0.07254105 -0.012279337 -0.067261696 0.020038191
0002e0 19 e7 19 be f9 58 1a be 91 00 f7 bd 7c 77 65 bd
       -0.15029563 -0.15073003 -0.12060655 -0.056022152
0002f0 26 22 4e bd 93 40 88 3d af 61 19 be 84 4e db bc
       -0.050325535 0.066529416 -0.1497867 -0.026770838
000300 7d bb 98 3d 59 91 f0 3d f0 13 19 3e 3b 41 19 3b
       0.074576356 0.11746473 0.14949012 0.0023384828
000310 dd 59 df 3d c2 4a b0 bd c4 15 86 3d f7 1a a1 3d
       0.10905812 -0.08608009 0.0654712 0.07866471
000320 ea 6e 62 bd 27 3e c2 3c 03 c4 8c 3d 87 11 f7 3d
       -0.055281557 0.023711277 0.06873324 0.1206389
000330 b3 26 b6 3c 9b 3f ae 3d b9 c0 0e be 03 dd ad bc
       0.02223525 0.085082255 -0.13940705 -0.02122355
000340 84 1c 40 3d 1a c5 02 be 14 6f 47 3d 5c 96 47 3d
       0.046902195 -0.12770501 0.048689917 0.04872738
000350 3f 9d 0a 3e 2b 8e 87 3d 77 63 11 be 9c 3f aa b8
       0.13536547 0.06618913 -0.14198099 -8.11808e-05
000360 ae 92 cd 3d 89 5c fa bd fc d4 ad 3c e5 11 05 3e
       0.100377426 -0.12224681 0.021219723 0.12995107
000370 7b 7d 58 bc 6e 27 e1 3c 09 50 bd 3d 54 1e fc 3c
       -0.013213511 0.027484622 0.09243781 0.03077618
000380 21 ee 8d bd 9e e2 5c bd 67 02 c4 bd 6e 4f fb 3d
       -0.06930185 -0.053927056 -0.09570771 0.122710094
000390 1b 55 0f be da 02 1e bd ac 9f 0b 3d 93 26 9c bd
       -0.13997309 -0.03857694 0.03408782 -0.07624545
0003a0 76 9a 5d bd 50 8a a2 3d bd 14 bc 3d 7c e3 70 3c
       -0.054102384 0.07936537 0.09183643 0.014702674
0003b0 38 1a 82 bd f5 40 09 be 03 3b 03 3e 16 c9 af 3c
       -0.06352657 -0.13403685 0.1281548 0.02145819
0003c0 31 c5 b1 bd db 2b 9c 3d ae 2c b8 bd af c0 ca bc
       -0.086801894 0.07625552 -0.08992897 -0.024750082
0003d0 0c dd 0b be 5a 7d 09 3e f3 2b 91 3d 8d 7e 89 bd
       -0.13658541 0.13426724 0.07088461 -0.06713591
0003e0 22 9e c6 3d dc 41 e5 bd ed df 8e 3d 65 22 79 bd
       0.0969813 -0.11194202 0.06976304 -0.060823817
0003f0 c3 ba 03 3e a1 b8 82 bd 07 15 d1 3d b1 42 ba bd
       0.12864213 -0.063828714 0.10209089 -0.090947516
