MARL/MAPPO-ATTENTIOAN/onpolicy/scripts/results/Meltingpot/collaborative_cooking__circuit_0/territory__rooms/mappo/check/run100/models/actor_agent8.pt (torch, 795666 bytes, 22 tensors)

base.cnn.cnn.0.weight f4 [32, 3, 3, 3]
-0.08337756 0.1539896 0.16655183 0.16404597 0.11555684 0.010501259 0.01996755 -0.16102003
0.059942935 0.011468635 0.15552962 0.15301831 0.18450823 -0.040284682 0.10540377 0.1463403
0.0031429783 0.03803084 0.15342893 0.01896548 -0.08981351 -0.13886434 0.12986262 0.06725929
0.066059306 -0.186563 -0.14080313 0.018791985 -0.041955695 -0.05973761 0.02676371 -0.09195757
-0.16821891 0.14444156 0.10705153 -0.13626888 -0.12668188 0.011103409 0.08451238 0.18387194
-0.13511088 0.11725254 0.17239736 0.12388915 0.101671845 -0.1721191 0.12592073 -0.12180293
-0.09656004 0.017370721 0.087868765 -0.06530986 0.003740118 0.028235234 0.024283366 -0.07155285
0.13419203 -0.12579446 0.03901531 0.1008453 -0.14183599 -0.029442748 0.08701393 -0.10993521
0.12604116 -0.13291864 -0.117551245 0.18167569 0.13704565 0.18718511 -0.1466106 -0.13271295
0.0067073363 0.12550066 -0.09052425 0.0997847 0.10355338 0.17823824 -0.029531376 -0.19091614
0.03145457 0.083557755 0.042370945 -0.033339936 -0.061277065 0.16106702 -0.1511275 0.16020212
0.18565615 -0.010512402 0.049079087 -0.02438352 0.1826358 -0.086277485 -0.19088866 0.14596228
0.06660892 -0.038841613 -0.12009646 0.123416364 -0.018016709 0.036401294 0.085129 -0.12358642
-0.14161967 0.11847176 -0.07099251 -0.15615976 0.044625904 -0.1759884 -0.1384591 -0.016575579
0.12274047 0.1713628 0.0751737 0.10887299 -0.1789869 -0.025228968 0.078450836 0.016613722
0.09235144 0.08356095 -0.11160829 0.1590754 0.08018892 -0.021788502 -0.115020804 0.02195668
-0.039088946 0.1777259 -0.055206295 -0.18400246 0.19016007 0.14869338 -0.16913588 -0.15808205
-0.16163783 0.06651063 0.08284423 -0.024523009 0.10683513 0.06535463 -0.1147466 -0.014939012
-0.04737543 -0.02668971 0.118913785 -0.14229743 -0.12466437 -0.19407457 0.05721876 -0.18320687
0.18819007 0.041790333 -0.16599375 -0.13292123 0.13974571 -0.07732545 0.08874274 0.059302524
-0.103964366 -0.061426908 -0.025220921 -0.048708234 0.04934447 -0.17528218 0.112707384 0.055176165
0.11448558 -0.134194 -0.18224077 -0.039713237 0.10800062 -0.15515052 0.14395012 -0.016051188
-0.12586299 -0.19062988 -0.10655651 -0.04979192 -0.11427181 0.01355382 0.041525587 0.15841149
-0.18457012 0.16373932 -0.107330285 -0.06329614 0.091890454 -0.027411098 0.07771662 0.19414686
0.13022915 -0.13893546 -0.17854573 0.019088235 0.17881092 -0.18015414 -0.033078086 0.16030829
-0.11085829 -0.1114311 0.18079434 0.119139746 -0.13344717 0.066213906 0.17419516 0.06654914
-0.18439913 0.025277868 0.104105994 -0.1856819 0.16885383 -0.1362098 -0.088488355 -0.14260475
0.0053124153 -0.07525316 0.0016293639 -0.06944807 -0.017927166 -0.110528804 0.17469722 -0.122523755
-0.17262052 0.034126148 -0.07571933 -0.03582799 0.14739144 0.0406275 0.092774 0.17812297
-0.011114756 -0.15459701 0.096613266 0.04527414 -0.081557035 -0.0101562375 -0.1663822 -0.10744674
0.03961605 0.030232137 -0.18277632 0.15463789 0.08747835 -0.0159884 -0.08535371 0.053605244
-0.081130736 -0.10295029 -0.1511998 0.044036858 -0.11375222 -0.17722987 0.18197519 -0.016421888
00000000: dbc1 aabd 73af 1d3e 908c 2a3e abfb 273e
00000010: 11a9 ec3d 790d 2c3c fd92 a33c 6fe2 24be
00000020: b986 753d f1e6 3b3c 2843 1f3e d5b0 1c3e
00000030: baef 3c3e 8d01 25bd efdd d73d 3bda 153e
00000040: 6dfa 4d3b 3ac6 1b3d 791c 1d3e 7f5d 9b3c
00000050: 25f0 b7bd 7432 0ebe b5fa 043e 3dbf 893d
00000060: 1a4a 873d 5f0a 3fbe b22e 10be a6f1 993c
00000070: bcd9 2bbd 6daf 74bd 913f db3c 4054 bcbd
00000080: 9441 2cbe 7de8 133e d53d db3d 128a 0bbe
00000090: e5b8 01be 13eb 353c d414 ad3d ed48 3c3e
000000a0: 825a 0abe 1a22 f03d ef88 303e 98b9 fd3d
000000b0: 5439 d03d fd3f 30be 5df1 003e d173 f9bd
000000c0: 45c1 c5bd 0b4d 8e3c 8af4 b33d 2dc1 85bd
000000d0: c41c 753b 944d e73c e9ed c63c 4d8a 92bd
000000e0: a369 093e 43d0 00be 85ce 1f3d fb87 ce3d
000000f0: 743d 11be eb31 f1bc 5c34 b23d b625 e1bd
00000100: ef10 013e d31b 08be b5be f0bd 3109 3a3e
00000110: b255 0c3e 74ad 3f3e 1721 16be e7e5 07be
00000120: 37c9 db3b 3f83 003e c764 b9bd ec5b cc3d
00000130: cb13 d43d 1684 363e c9eb f1bc 857f 43be
00000140: 82d6 003d 5420 ab3d 288d 2d3d 758f 08bd
00000150: a9fd 7abd c1ee 243e 2bc1 1abe 060c 243e
00000160: a51c 3e3e 363c 2cbc 2707 493d f3bf c7bc
00000170: e104 3b3e 40b2 b0bd 5178 43be 2377 153e
00000180: 426a 883d 6218 1fbd 22f5 f5bd b8c1 fc3d
00000190: c797 93bc 8619 153d 1d58 ae3d e11a fdbd
000001a0: bf04 11be 52a1 f23d 8564 91bd 58e8 1fbe
000001b0: a7c9 363d 4e36 34be 39c8 0dbe 82c9 87bc
000001c0: 5b5f fb3d bb79 2f3e abf4 993d cdf8 de3d
000001d0: 5848 37be fbac cebc d5aa a03d 8019 883c
000001e0: c022 bd3d 0122 ab3d e392 e4bd a9e4 223e
000001f0: 173a a43d cd7d b2bc 0790 ebbd 7fde b33c
00000200: bb1b 20bd c7fd 353e ff1f 62bd 246b 3cbe
00000210: 52b9 423e 1443 183e f531 2dbe 43e0 21be
00000220: 6384 25be ba36 883d 3caa a93d 7ae4 c8bc
00000230: 60cc da3d a6d8 853d 4400 ebbd c2c2 74bc
00000240: bd0c 42bd 61a4 dabc 1289 f33d 6bb6 11be
00000250: 0950 ffbd 7cbb 46be 385e 6a3d 959a 3bbe
00000260: e6b4 403e 572c 2b3d 44fa 29be 811c 08be
00000270: 8019 0f3e ce5c 9ebd c1be b53d 34e7 723d
00000280: 45eb d4bd c89a 7bbd 1b9c cebc 4982 47bd
00000290: 6d1d 4a3d 2c7d 33be 21d3 e63d 6700 623d
000002a0: 6a77 ea3d 276a 09be 539d 3abe 59aa 22bd
000002b0: 6e2f dd3d c7df 1ebe a967 133e c87d 83bc
000002c0: 3ae2 00be 7b34 43be 4d3a dabd 9df2 4bbd
000002d0: 5707 eabd d710 5e3c bc16 2a3d 9f36 223e
000002e0: f3ff 3cbe 48ab 273e fbcf dbbd 68a1 81bd
000002f0: 1031 bc3d 3d8d e0bc e429 9f3d 6fce 463e
00000300: ca5a 053e 1945 0ebe b1d4 36be ee5e 9c3c
00000310: 361a 373e 547a 38be e37c 07bd db27 243e
00000320: ac09 e3bd fd35 e4bd 2722 393e 8aff f33d
00000330: 60a6 08be 289b 873d 3760 323e ea4a 883d
00000340: 20d3 3cbe 8813 cf3c 8635 d53d 6523 3ebe
00000350: 05e8 2c3e 957a 0bbe 6239 b5bd fb06 12be
00000360: c513 ae3b 541e 9abd 6190 d53a ca3a 8ebd
00000370: fedb 92bc ed5c e2bd d4e3 323e bced fabd
00000380: 6fc3 30be dcc7 0b3d bc12 9bbd 5fc0 12bd
00000390: c8ed 163e 0569 263d 4b00 be3d de65 363e
000003a0: aa1a 36bc ae4e 1ebe 2ddd c53d 6071 393d
000003b0: 6007 a7bd 5966 26bc 1860 2abe 090d dcbd
000003c0: 7044 223d 63a9 f73c b729 3bbe 6559 1e3e
000003d0: d927 b33d 1bfa 82bc edcd aebd 2c91 5b3d
000003e0: df27 a6bd 9ad7 d2bd 1fd4 1abe fe5f 343d
000003f0: edf6 e8bd bf7b 35be b457 3a3e 3287 86bc

base.cnn.cnn.0.bias f4 [32]
-8.483358e-09 4.038725e-09 4.3380597e-09 -1.5792256e-08 2.5414146e-09 -2.908858e-08 -6.611694e-08 2.0176207e-08
7.107886e-08 -1.1780792e-07 1.5156628e-08 -2.6766374e-09 2.3027335e-08 -2.1907317e-07 2.2618934e-08 3.3072192e-09
4.9283685e-08 -3.594004e-08 4.446703e-09 -2.9966125e-09 1.870083e-08 5.580466e-08 -3.508864e-08 -7.007561e-08
-3.746944e-08 -1.8382268e-08 -1.490828e-08 1.0909661e-08 2.1892513e-08 -7.4072695e-09 2.8337421e-08 4.4658353e-09
00000000: 34be 11b2 00c5 8a31 fa0d 9531 8aa7 87b2
00000010: 0aa5 2e31 77de f9b2 2cfc 8db3 f34f ad32
00000020: 04a4 9833 97fd fcb3 c731 8232 e7ef 37b1
00000030: a5cd c532 603a 6bb4 904b c232 3745 6331
00000040: fcab 5333 7e5c 1ab3 9dc9 9831 f7ec 4db1
00000050: 8fa3 a032 dfad 6f33 5eb4 16b3 797c 96b3
00000060: 16ee 20b3 09e7 9db2 a80f 80b2 326d 3b32
00000070: 250e bc32 0883 feb1 a66a f332 e771 9931

base.cnn.cnn.1.weight f4 [32]
0.9984512 0.998872 0.99653226 0.9978571 0.9988649 0.9977778 0.99701715 0.9977582
0.9965141 0.9967295 0.99691683 0.9970079 0.99673784 0.9969188 0.9959281 0.99893177
0.9959895 0.99721545 0.9966419 0.9958695 0.99825656 0.99581933 0.99721956 0.99707276
0.99745554 0.99686825 0.99874395 0.9985245 1.0019158 0.9970074 0.99760866 0.99947834
00000000: 7f9a 7f3f 13b6 7f3f bd1c 7f3f 9073 7f3f
00000010: 9cb5 7f3f 5e6e 7f3f 843c 7f3f 156d 7f3f
00000020: 8c1b 7f3f aa29 7f3f f135 7f3f e93b 7f3f
00000030: 362a 7f3f 1236 7f3f 25f5 7e3f feb9 7f3f
00000040: 2bf9 7e3f 8349 7f3f ec23 7f3f 4ef1 7e3f
00000050: be8d 7f3f 04ee 7e3f c849 7f3f 2940 7f3f
00000060: 3f59 7f3f c232 7f3f afad 7f3f 4d9f 7f3f
00000070: c73e 803f e13b 7f3f 4863 7f3f d0dd 7f3f

base.cnn.cnn.1.bias f4 [32]
0.00049768016 -0.00043063282 -0.0011451517 -0.0011122869 0.0017039792 0.0023475063 0.0011100705 0.0017273125
-0.002607275 -0.0014648375 0.0016331522 -0.0007015013 -0.0013285078 0.0003306048 0.0002374178 -0.0009906678
-0.0015787932 -0.00078318134 -0.0019330761 -0.002473971 -0.00063813175 -0.00046373607 -0.0014797569 2.4964987e-05
0.001563987 0.001577644 0.0018195313 0.0021895538 0.0023392097 -0.0012433191 0.0007021688 0.0011649781
00000000: c076 023a 8fc6 e1b9 ea18 96ba 28ca 91ba
00000010: 0e58 df3a 9fd8 193b c97f 913a fd66 e23a
00000020: d1de 2abb caff bfba 7f0f d63a f5e4 37ba
00000030: 5321 aeba 0655 ad39 5bf3 7839 4cd9 81ba
00000040: 82ef ceba 694e 4dba 455f fdba 5922 22bb
00000050: 4c48 27ba 9a21 f3b9 67f4 c1ba e76b d137
00000060: b2fe cc3a f3c8 ce3a 577d ee3a 9e7e 0f3b
00000070: 6d4d 193b def6 a2ba c011 383a 2eb2 983a

base.cnn.cnn.1.running_mean f4 [32]
0.09346655 0.00811064 0.020691453 0.021795418 0.026204366 -0.060469117 -0.05624202 0.00140776
-0.04756792 -0.08388571 0.0025884183 0.0747548 0.03722734 -0.0019910447 -0.035225138 0.049497627
-0.094598204 -0.056672465 0.0079802135 0.029490976 0.004850704 -0.021558873 0.02930683 -0.02581288
0.06922084 0.091291904 0.043727156 -0.056555588 0.029717911 -0.145303 0.056637432 0.013900327
00000000: 646b bf3d 7de2 043c 1f81 a93c 4e8c b23c
00000010: 8aaa d63c 77ae 77bd 085e 66bd 9684 b83a
00000020: 94d6 42bd 45cc abbd 74a2 293b 0b19 993d
00000030: b27b 183d 307c 02bb 3c48 10bd 06be 4a3d
00000040: b4bc c1bd 6321 68bd 71bf 023c 0f97 f13c
00000050: a8f2 9e3b 3c9c b0bc e114 f03c 8875 d3bc
00000060: a8c3 8d3d 40f7 ba3d 3f1b 333d d5a6 67bd
00000070: fa72 f33c 4fca 14be a7fc 673d 32be 633c

base.cnn.cnn.1.running_var f4 [32]
0.014757574 0.002448702 0.0037036818 0.0032760059 0.006326628 0.0076253437 0.005650843 0.0017999721
0.006987948 0.010410096 0.0036835668 0.010424714 0.0039773197 0.0013148355 0.004096635 0.0058791307
0.0145638045 0.0057894117 0.0018139447 0.0049357596 0.002350994 0.0039431327 0.003441984 0.0029042428
0.009289716 0.0139101995 0.0060084853 0.0061374498 0.003250285 0.02875723 0.0059939283 0.002127489
00000000: c0c9 713c 677a 203b 78b9 723b 42b2 563b
00000010: 9a4f cf3b 05de f93b b52a b93b 0bed eb3a
00000020: 28fb e43b 1b8f 2a3c ff67 713b 6bcc 2a3c
00000030: 2d54 823b 8f56 ac3a 113d 863b b9a5 c03b
00000040: 069d 6e3c 1bb5 bd3b e2c1 ed3a 27bc a13b
00000050: 2213 1a3b 6535 813b e992 613b 1c55 3e3b
00000060: e533 183c 9be7 633c d4e2 c43b a91c c93b
00000070: bc02 553b 4894 eb3c b768 c43b 586d 0b3b

base.cnn.cnn.4.weight f4 [64, 2592]
-0.00089093536 0.004994927 0.00037053056 0.04731645 -0.027407525 0.034163427 -0.013014452 -0.027444744
-0.033474855 -0.0057063824 -0.04124485 0.020344537 -0.049220793 0.0011315545 0.061325103 0.048163727
-0.03904565 0.061228834 0.009665763 0.028788006 -0.0047099516 -0.015837017 0.023424564 0.038450684
-0.00912614 -0.024231058 -0.0016547134 -0.013883323 -0.06284087 0.008804434 0.012213734 -0.04026421
-0.00316616 -0.05254021 0.0027459157 0.06671475 -0.03421568 0.066798456 -0.06330461 -0.060585722
0.051317737 0.06588819 0.05047416 -0.044217348 0.010594 -0.05635117 0.0669858 -0.051489476
-0.013133922 0.028323967 -0.008297728 0.02898776 -0.06511602 -0.01663455 0.03409693 0.04630795
0.064852 0.05083802 0.0074936543 -0.028996114 -0.0042543453 0.015142924 0.017164027 -0.04707583
0.0329957 -0.04277169 -0.02486289 -0.045408648 -0.049485367 0.04867381 0.04368515 0.048930503
-0.0023551148 0.040386215 0.024663985 0.0027486763 0.047851358 -0.03229318 -0.045912363 0.049921982
-0.028961457 -0.015677622 0.04699717 0.060282145 -0.00994829 -0.007520864 0.017448599 -0.03942775
0.06017401 -0.016214795 0.059626013 -0.025787737 0.01219461 0.063421555 0.030549245 0.0034681514
0.03322664 -0.04359203 -0.04406347 -0.018931806 -0.014011766 0.05896364 -0.027662437 0.047575273
0.030268637 0.06739106 -0.042599156 -0.029975768 0.0044485508 0.02356443 0.033515736 -0.05355051
-0.03405258 0.03628313 0.060321562 -0.05193765 0.06135792 0.040066168 -0.045161504 0.021471787
-0.04762542 0.016260328 -0.06659549 -0.044036563 0.06626219 0.0055175414 0.04901238 -0.0005145615
-0.0090442775 0.030752102 -0.04707435 -0.023285007 -0.02124845 0.022858424 0.06163933 -0.058856968
-0.061679993 -0.04795402 -0.017490901 -0.03439979 -0.009664731 -0.02130402 0.06525987 -0.02107555
-0.022752397 0.064893946 0.056550857 -0.008382155 0.0415799 -0.008264558 0.040935103 0.04259464
0.063871756 -0.05921241 -0.005940737 -0.02801689 0.02688068 -0.05166109 0.0492167 -0.051105183
0.008001022 0.045059893 -0.049419455 -0.046991747 -0.025412759 -0.008289175 -0.026189083 0.054818735
-0.026932927 -0.02297431 -0.0001726174 -0.063081026 0.032694675 -0.054290563 0.043331295 -0.039380416
-0.012298871 0.0041626305 0.04481282 -0.002678305 -0.04884628 -0.011621338 0.053178117 0.017610336
0.032877676 0.02179848 -0.022485 0.058097325 0.02027198 -0.049751136 0.028711667 -0.012182949
0.054348182 0.043676306 -0.056352343 -0.063565746 -0.049133424 0.039344586 -0.06256858 0.010042683
0.043744605 -0.055943687 -0.033047494 -0.06512764 0.014137747 -0.025192764 -0.049536526 0.020841066
0.00579685 -0.045784403 -0.055087995 -0.004079201 0.059687752 0.02878652 -0.03229887 -0.050311834
0.0283053 -0.02071509 0.033213418 0.019334935 0.0012234438 0.060313277 0.022888549 0.051383153
0.026311759 -0.06431768 -0.022261743 -0.044737503 0.063699126 -0.02784513 0.027035223 -0.027594715
-0.019233767 0.033118848 0.021202374 0.023525136 0.00018019411 -0.05124091 -0.052327294 -0.02382772
0.027640078 0.044973135 0.06382471 0.006621137 -0.01951251 -0.04301732 0.010128368 -0.057457794
0.022577781 -0.029041588 -0.01568835 0.023711514 0.0019612303 -0.04242389 -0.053276233 0.035454523
00000000: a98d 69ba 7cac a33b c543 c239 e5ce 413d
00000010: bf85 e0bc f3ee 0b3d 913a 55bc cdd3 e0bc
00000020: ee1c 09bd 9bfc babb 5cf0 28bd 96a9 a63c
00000030: be9b 49bd ab50 943a 0830 7b3d 5447 453d
00000040: 55ee 1fbd 16cb 7a3d 265d 1e3c d3d4 eb3c
00000050: f055 9abb a2bc 81bc dfe4 bf3c 777e 1d3d
00000060: ce85 15bc 3680 c6bc f8e2 d8ba e176 63bc
00000070: b7b2 80bd 7940 103c 1d1c 483c 16ec 24bd
00000080: 5a7f 4fbb 6734 57bd d2f4 333b bea1 883d
00000090: be25 0cbd a1cd 883d d9a5 81bd bc28 78bd
000000a0: 8c32 523d 63f0 863d febd 4e3d 401d 35bd
000000b0: 7592 2d3c 7cd0 66bd da2f 893d a1e6 52bd
000000c0: a92f 57bc aa07 e83c 32f3 07bc bd77 ed3c
000000d0: 8c5b 85bd 2e45 88bc 39a9 0b3d 68ad 3d3d
000000e0: 20d1 843d 873b 503d 548d f53b 4289 edbc
000000f0: 0968 8bbb 071a 783c 939b 8c3c 96d2 40bd
00000100: 8026 073d 5e31 2fbd 42ad cbbc 6bfe 39bd
00000110: 2bb1 4abd 305e 473d 33ef 323d 5a6b 483d
00000120: 4558 1abb 046c 253d 200c ca3c 2323 343b
00000130: c9ff 433d da45 04bd 9a0e 3cbd fe7a 4c3d
00000140: 9440 edbc 5b6e 80bc 1b80 403d 69ea 763d
00000150: 27fe 22bc 9471 f6bb 5df0 8e3c fe7e 21bd
00000160: 0679 763d e4d4 84bc 683a 743d ce40 d3bc
00000170: e7cb 473c 29e3 813d 6942 fa3c ed49 633b
00000180: a818 083d 8e8d 32bd e67b 34bd e016 9bbc
00000190: 9b91 65bc dc83 713d 569c e2bc 4ade 423d
000001a0: eff5 f73c 5304 8a3d 747c 2ebd be8f f5bc
000001b0: 26c5 913b 310a c13c cc47 093d c857 5bbd
000001c0: b87a 0bbd 9f9d 143d be13 773d 93bc 54bd
000001d0: 7152 7b3d 6c1c 243d 45fb 38bd 9ae5 af3c
000001e0: df12 43bd 6134 853c 3763 88bd af5f 34bd
000001f0: 79b4 873d 7ecc b43b 35c1 483d a3e3 06ba
00000200: 732e 14bc d5eb fb3c 09d1 40bd 33c0 bebc
00000210: 3b11 aebc 9741 bb3c 8679 7c3d 0114 71bd
00000220: 29a4 7cbd 6f6b 44bd 1449 8fbc cbe6 0cbd
00000230: d258 1ebc c585 aebc f7a6 853d a2a6 acbc
00000240: 3c63 babc 1ee7 843d dfa1 673d 4e55 09bc
00000250: af4f 2a3d 1268 07bc 91ab 273d b877 2e3d
00000260: 32cf 823d b688 72bd 84aa c2bb ad83 e5bc
00000270: df34 dc3c 949a 53bd 7397 493d ab53 51bd
00000280: b816 033c b990 383d 0e6c 4abd 6b7a 40bd
00000290: 6b2e d0bc 52cf 07bc 7d8a d6bc 9c89 603d
000002a0: 71a2 dcbc 9f34 bcbc a100 35b9 a030 81bd
000002b0: daea 053d c85f 5ebd 287c 313d 5c4d 21bd
000002c0: 3481 49bc ad66 883b a68d 373d 8086 2fbb
000002d0: 0913 48bd 6d67 3ebc 4cd1 593d 8d43 903c
000002e0: beaa 063d ba92 b23c 7632 b8bc 76f7 6d3d
000002f0: 6c11 a63c d9c7 4bbd bb34 eb3c fe9a 47bc
00000300: 339c 5e3d ede5 323d b7d1 66bd c22e 82bd
00000310: 2140 49bd ca27 213d f523 80bd 118a 243c
00000320: 8b2d 333d 3525 65bd cf5c 07bd a461 85bd
00000330: 02a2 673c 0e61 cebc d0e6 4abd e2ba aa3c
00000340: 81f3 bd3b 6d88 3bbd f3a3 61bd d1aa 85bb
00000350: 257b 743d b5d1 eb3c d24b 04bd c813 4ebd
00000360: 84e0 e73c b1b2 a9bc cb0a 083d 4c64 9e3c
00000370: f65b a03a 0e0b 773d c480 bb3c 2477 523d
00000380: c28b d73c fdb8 83bd 425e b6bc ac3e 37bd
00000390: b074 823d 781b e4bc f978 dd3c 500e e2bc
000003a0: 2290 9dbc a1a7 073d 9ab0 ad3c c9b7 c03c
000003b0: 7df2 3c39 fde1 51bd 2555 56bd 5a32 c3bc
000003c0: 726d e23c c035 383d 88b6 823d 1ff6 d83b
000003d0: b3d8 9fbc ee32 30bd 74f1 253c dd58 6bbd
000003e0: 0af5 b83c a0e8 edbc db84 80bc a63e c23c
000003f0: fc87 003b acc4 2dbd 2e38 5abd c338 113d

base.cnn.cnn.4.bias f4 [64]
-0.00024648188 -1.872857e-05 -0.0008604637 0.0008719441 -0.0023661633 -0.0006967556 0.0023612555 -0.0022985945
-0.0018211502 -0.000815501 0.00046530328 0.000623809 0.00012571862 0.0027871495 0.00024649475 -0.0006349846
-0.0010097148 -0.0009307713 0.0006318559 0.0030254938 -0.00060332386 -0.00041084024 0.0017332644 -0.0022028317
0.00013194802 0.0027042825 0.0017995641 -1.0996487e-05 0.002439457 0.0011207287 0.0027449636 0.0014084397
0.0006795594 -0.00048721797 -0.0022891131 0.00214644 -0.0011076955 -0.00071633473 0.001860946 -0.00016347031
-0.000926357 -0.0006647855 0.0018435431 0.0014452862 -0.0019621104 0.00021740976 -0.00033522147 0.00047882347
0.0010275074 0.0014081616 -0.0030310466 -0.0007478584 -0.001963658 -0.0009345433 -0.0016733556 -0.0024357059
-0.000707011 0.00048471888 0.0014025338 -0.0008840501 0.0010706384 -7.802594e-05 -0.0009580032 0.0001500236
00000000: 3d3a 81b9 4c1b 9db7 be90 61ba 2e93 643a
00000010: a211 1bbb 7aa6 36ba 4bbf 1a3b 04a4 16bb
00000020: a9b3 eeba 58c7 55ba f3f3 f339 1d87 233a
00000030: 56d3 0339 9ca8 363b f73b 8139 1875 26ba
00000040: 6858 84ba 01ff 73ba 22a3 253a 5d47 463b
00000050: 6128 1eba 0b66 d7b9 b42e e33a 625d 10bb
00000060: 875b 0a39 553a 313b 5adf eb3a 8d7d 38b7
00000070: 4cdf 1f3b 6ae5 923a d9e4 333b 659b b83a
00000080: 7624 323a 4a71 ffb9 f204 16bb 4aab 0c3b
00000090: 1830 91ba 69c8 3bba fcea f33a 3a69 2bb9
000000a0: c4d6 72ba 0045 2eba 0ba3 f13a c26f bd3a
000000b0: c096 00bb 7df8 6339 aac0 afb9 990a fb39
000000c0: 6dad 863a 1092 b83a 86a4 46bb ed0b 44ba
000000d0: b7b0 00bb 24fc 74ba 7f54 dbba 5da0 1fbb
000000e0: b456 39ba de21 fe39 3ad5 b73a 99bf 67ba
000000f0: aa54 8c3a dca1 a3b8 8222 7bba a74f 1d39

base.cnn.cnn.5.weight f4 [64]
0.9968874 0.99684477 0.9969976 0.9990933 0.9964043 0.9970024 0.9976415 0.9959233
0.9955801 0.996164 0.9965027 0.99724746 0.9960371 0.9998686 0.9965801 0.99718577
0.9982989 0.995666 0.9966767 0.9992726 0.9964871 0.9956605 0.9978942 0.9953477
0.99793565 1.0014675 0.9972939 0.99583256 1.0007033 0.99703586 0.9976786 0.9976327
0.99579644 0.99739414 0.9951189 0.9981905 0.9957736 0.9972451 0.99658984 0.9961345
0.99571055 0.99686176 0.9993469 0.99943906 0.99543035 0.99654454 0.9969067 0.996936
0.99608994 0.9965982 0.9959574 0.9961293 0.9956306 0.99590987 0.99600387 0.99564725
0.9962883 0.9964445 0.9967081 0.99636996 0.99889976 0.99627316 0.9960762 0.9964591
00000000: 0334 7f3f 3831 7f3f 3c3b 7f3f 94c4 7f3f
00000010: 5a14 7f3f 8d3b 7f3f 6f65 7f3f d4f4 7e3f
00000020: 56de 7e3f 9b04 7f3f cd1a 7f3f 9c4b 7f3f
00000030: 4afc 7e3f 63f7 7f3f e01f 7f3f 9147 7f3f
00000040: 8490 7f3f f8e3 7e3f 3426 7f3f 54d0 7f3f
00000050: c719 7f3f 9be3 7e3f ff75 7f3f 1bcf 7e3f
00000060: b678 7f3f 1630 803f a74e 7f3f e2ee 7e3f
00000070: 0c17 803f be3d 7f3f dd67 7f3f db64 7f3f
00000080: 84ec 7e3f 3955 7f3f 1dc0 7e3f 6a89 7f3f
00000090: 05eb 7e3f 744b 7f3f 8320 7f3f ac02 7f3f
000000a0: e3e6 7e3f 5532 7f3f 33d5 7f3f 3ddb 7f3f
000000b0: 86d4 7e3f 8b1d 7f3f 4735 7f3f 3337 7f3f
000000c0: c0ff 7e3f 0f21 7f3f 10f7 7e3f 5402 7f3f
000000d0: a6e1 7e3f f3f3 7e3f 1cfa 7e3f bde2 7e3f
000000e0: c00c 7f3f fd16 7f3f 4328 7f3f 1a12 7f3f
000000f0: e5b7 7f3f c20b 7f3f dafe 7e3f f217 7f3f

base.cnn.cnn.5.bias f4 [64]
-0.00035780366 -0.00017670114 -0.00023846133 0.0015193716 -0.0025287366 -0.0005828733 0.0025238376 -0.0023082043
-0.0024236175 -0.0015180779 0.00024017337 0.00034909605 0.00053294445 0.002144422 -0.00012287822 -0.0008183903
-0.0017254892 -0.0016659017 0.00044112414 0.00275547 -0.0006640061 -0.00067962194 0.0016679086 -0.0031494368
4.854329e-05 0.002746317 0.0023987123 -0.0010190485 0.0026102606 0.00033675064 0.0031827402 0.0018247677
0.0009322031 -0.00045009947 -0.003462087 0.0013966735 -0.001753269 -0.0010636114 0.0016350452 -0.00075397507
-0.0010663605 -0.00039147388 0.002289915 0.0022094678 -0.0023931114 -5.2904914e-05 -0.0005611953 0.0003638154
0.0010033087 0.0016101985 -0.0028087376 -0.0007356066 -0.0022399018 -0.001038456 -0.001931088 -0.002693674
-0.0005359716 0.00023071664 0.0016583932 -0.001102824 0.0015079655 5.7468973e-05 -0.00089196523 -0.00023186352
00000000: 9897 bbb9 da48 39b9 7a0b 7ab9 a725 c73a
00000010: 29b9 25bb f7cb 18ba f866 253b 3e45 17bb
00000020: 8ed5 1ebb 3efa c6ba 0cd7 7b39 e106 b739
00000030: 4cb5 0b3a 6e89 0c3b dfd8 00b9 3e89 56ba
00000040: cf29 e2ba 635a daba ae46 e739 1e95 343b
00000050: b210 2eba a828 32ba ba9d da3a c866 4ebb
00000060: f69a 4b38 8efb 333b b733 1d3b 9891 85ba
00000070: e810 2b3b e88d b039 8595 503b 0b2d ef3a
00000080: 175f 743a 54fb ebb9 2ee4 62bb 9610 b73a
00000090: f2cd e5ba e068 8bba 034f d63a 69a6 45ba
000000a0: 1fc5 8bba bc3e cdb9 6612 163b b8cc 103b
000000b0: bfd5 1cbb 38e6 5db8 2e1d 13ba 7abe be39
000000c0: 7481 833a 4c0d d33a cc12 38bb b9d5 40ba
000000d0: 51cb 12bb cd1c 88ba 901c fdba 5a88 30bb
000000e0: 7280 0cba 87ec 7139 715e d93a a28c 90ba
000000f0: eda6 c53a d70a 7138 c6d2 69ba 6420 73b9

base.cnn.cnn.7.weight f4 [64, 64]
0.2762432 0.0077007087 -0.14200623 -0.13997684 0.30192855 0.0550774 -0.22025716 0.2653094
0.023680603 0.14473341 0.2406955 -0.0720951 0.05864749 0.17846012 0.0850847 -0.1437882
-0.26613787 0.29117477 -0.17720008 -0.29882115 0.079662435 -0.17159238 -0.03237142 -0.014451246
0.26376855 0.010929942 0.2677277 0.06784749 -0.23154826 -0.2048832 -0.05309712 -0.23997588
0.00013644615 0.09921513 -0.20213175 -0.21227957 -0.06489463 0.248271 0.1439391 0.19670936
0.10495775 -0.1456385 -0.019441223 -0.10855184 0.18426849 -0.09858968 -0.2795536 -0.15426384
-0.11707844 -0.09033957 0.07866126 0.17748967 0.13531217 0.20064493 -0.02202825 0.29188982
-0.2299342 0.04180461 -0.03368767 -0.16661566 0.09933018 0.29843923 0.2416512 0.15163557
0.13344926 0.01621868 0.049725864 0.11038516 0.06842293 0.0109186 -0.13965592 -0.25228274
0.09940061 -0.19337294 0.11945534 0.04806499 0.26138923 0.1553075 0.28262243 -0.055297986
-0.137221 0.10930608 -0.25534165 0.11118788 -0.21942817 -0.27072743 -0.1730029 0.21668984
0.13335808 -0.05824366 -0.17762119 0.049491018 0.18125905 -0.20115711 -0.089942954 0.18375449
-0.2423352 0.13677698 0.052676544 0.1842926 0.049975246 0.18425333 -0.19767448 -0.19470035
0.028065456 0.28570265 -0.00013872099 -0.22149763 -0.15407091 0.011468665 -0.04772642 -0.25483072
-0.0780792 0.007179818 -0.29798815 -0.21024367 0.13812998 0.26876205 0.22443031 0.24556261
0.22872932 0.0084025515 -0.20839979 -0.013538144 -0.26651296 -0.040805023 -0.18165335 -0.22666527
-0.022471087 -0.08269988 0.013898617 -0.043792352 -0.15933287 -0.18782605 0.16935739 0.16877815
-0.2090316 -0.01485998 0.12421068 -0.18774505 -0.24134962 0.043127604 -0.29036203 -0.10246158
0.25728804 -0.2157074 0.18999451 -0.083665825 -0.08185551 0.22319855 -0.16001503 -0.011438821
-0.12048346 0.13996597 -0.13899715 0.007262348 -0.14044431 0.049127776 0.24702263 0.2712418
0.11055871 0.050643522 0.2858817 -0.19770253 -0.20621324 0.19994971 -0.076338425 -0.21088557
-0.17842202 -0.27211338 0.05193256 0.23319042 -0.2644765 -0.2324807 0.12192513 0.105589606
0.19013669 0.1774165 0.019611904 -0.27475724 0.23644756 -0.1720994 -0.010877299 -0.17421699
-0.19753736 -0.20488612 0.02446842 -0.16640772 0.23093319 -0.22557941 -0.16523094 -0.14517662
0.056904987 -0.07520653 -0.19068266 -0.051955756 -0.261907 -0.124005094 0.1158137 -0.08758629
-0.27890354 0.29426777 0.06739086 -0.17112605 -0.12114669 -0.13648681 0.23150802 0.20969988
-0.20230947 -0.0492366 0.29190361 0.26682672 0.29067126 -0.012607813 -0.11627028 0.16407298
0.05365189 0.28823474 -0.023328098 0.19957474 0.3015935 -0.29405293 0.18762371 0.21224089
-0.036458995 0.039504837 0.27522102 -0.24393289 0.024614463 -0.12538274 0.06408555 0.0202223
0.1752184 0.07057638 0.1366498 -0.15711941 0.102907516 0.19748867 0.1851092 0.056688856
0.23295414 0.1744001 0.10166166 -0.22849482 -0.0047935145 -0.15476927 0.03823412 0.23925714
0.25294036 -0.116846 -0.30024683 -0.25714794 -0.20518205 -0.004747808 -0.004760591 0.01850371
00000000: c06f 8d3e 3a56 fc3b 156a 11be 1756 0fbe
00000010: 6196 9a3e d798 613d 188b 61be a2d6 873e
00000020: d3fd c13c ff34 143e e278 763e 99a6 93bd
00000030: 5a38 703d 40be 363e e340 ae3d 373d 13be
00000040: 3943 88be dc14 953e f073 35be 16ff 98be
00000050: 0f26 a33d eab5 2fbe e597 04bd ebc4 6cbc
00000060: ac0c 873e 8013 333c 9b13 893e a0f3 8a3d
00000070: fd1a 6dbe e7cc 51be 5e7c 59bd 3dbc 75be
00000080: fc12 0f39 4d31 cb3d a0fb 4ebe d15f 59be
00000090: 7ae7 84bd c13a 7e3e c564 133e 2e6e 493e
000000a0: 17f4 d63d 4222 15be 3343 9fbc 6d50 debd
000000b0: e1b0 3c3e 63e9 c9bd a621 8fbe 57f7 1dbe
000000c0: d2c6 efbd f403 b9bd 2819 a13d dabf 353e
000000d0: 468f 0a3e dd75 4d3e 9774 b4bc 9572 953e
000000e0: df73 6bbe 503b 2b3d 15fc 09bd 4c9d 2abe
000000f0: 9f6d cb3d 07cd 983e 6a73 773e 5b46 1b3e
00000100: eca6 083e 0add 843c 59ad 4b3d 9d11 e23d
00000110: 5221 8c3d ede3 323c f601 0fbe 342b 81be
00000120: 8c92 cb3d 8e03 46be 00a5 f43d ccdf 443d
00000130: cfd4 853e ee08 1f3e e3b3 903e 2480 62bd
00000140: a983 0cbe dedb df3d 24bc 82be 79b6 e33d
00000150: c7b1 60be c99c 8abe ac27 31be f1e3 5d3e
00000160: 058f 083e e790 6ebd 54e2 35be 18b7 4a3d
00000170: f99b 393e 21fc 4dbe 0334 b8bd 232a 3c3e
00000180: b826 78be 440f 0c3e 5cc3 573d 33b7 3c3e
00000190: d8b2 4c3d e8ac 3c3e 2e6b 4abe 875f 47be
000001a0: 87e9 e53c 9e47 923e a275 11b9 46d0 62be
000001b0: c4c4 1dbe 11e7 3b3c c77c 43bd 2c79 82be
000001c0: fde7 9fbd ae44 eb3b e791 98be 1e4a 57be
000001d0: f271 0d3e 2e9b 893e 0fd1 653e c474 7b3e
000001e0: 0538 6a3e dbaa 093c c166 55be 17cf 5dbc
000001f0: 6374 88be 2b23 27bd 5603 3abe f11a 68be
00000200: 4915 b8bc 8e5e a9bd 06b7 633c 9c5f 33bd
00000210: 2828 23be 7955 40be 066c 2d3e 2ed4 2c3e
00000220: 610c 56be 4677 73bc 2b62 fe3d 3d40 40be
00000230: 5b24 77be 92a6 303d 55aa 94be 60d7 d1bd
00000240: 42bb 833e 67e2 5cbe ec8d 423e fd58 abbd
00000250: dda3 a7bd 298e 643e fbda 23be e569 3bbc
00000260: 08c0 f6bd 3d53 0f3e 4555 0ebe fef8 ed3b
00000270: a2d0 0fbe 353a 493d 80f3 7c3e 35e0 8a3e
00000280: 9b6c e23d 956f 4f3d 165f 923e 8872 4abe
00000290: 9029 53be 9ebf 4c3e 5257 9cbd 63f2 57be
000002a0: 43b4 36be 7252 8bbe 3cb7 543d 78c9 6e3e
000002b0: 7769 87be 6c0f 6ebe e2b3 f93d 5d3f d83d
000002c0: 31b3 423e acac 353e 25a9 a03c fbac 8cbe
000002d0: 4f1f 723e d33a 30be b336 32bc f065 32be
000002e0: 3c47 4abe abcd 51be ff71 c83c c966 2abe
000002f0: c079 6c3e 4afe 66be 4d32 29be 2ea9 14be
00000300: 3415 693d e205 9abd 5142 43be 8fcf 54bd
00000310: ad18 86be 62f6 fdbd bc2f ed3d 7160 b3bd
00000320: 72cc 8ebe 44aa 963e 3804 8a3d ab3b 2fbe
00000330: c11b f8bd 33c3 0bbe 7010 6d3e 91bb 563e
00000340: 372a 4fbe 51ac 49bd 6474 953e 839d 883e
00000350: ddd2 943e 0091 4ebc 1d1f eebd bf02 283e
00000360: 16c2 5b3d 8193 933e 911a bfbc 525d 4c3e
00000370: 776a 9a3e 1b8e 96be 6e20 403e ad55 593e
00000380: 0756 15bd d3cf 213d c5e9 8c3e 8bc9 79be
00000390: 45a4 c93c 5564 00be 493f 833d 3da9 a53c
000003a0: 746c 333e 598a 903d eded 0b3e e9e3 20be
000003b0: 2dc1 d23d 783a 4a3e 448d 3d3e 9332 683d
000003c0: 888b 6e3e f195 323e fd33 d03d 8cfa 69be
000003d0: ea12 9dbb d67b 1ebe 619b 1c3d d3ff 743e
000003e0: 6681 813e f54c efbd f4b9 99be e5a8 83be
000003f0: 3e1b 52be 8093 9bbb bbfe 9bbb 1895 973c

base.cnn.cnn.7.bias f4 [64]
0.0004404543 0.00034853476 0.0021592046 0.0004795143 -0.004589475 0.0011585024 0.003708392 -0.0015786719
0.00041822437 -0.0032850427 0.00089515065 -0.0015206974 -0.0030667163 -0.0014055768 0.00021149854 -0.0030403808
0.00014357576 -0.0013359503 0.0021085015 0.002206738 -0.0014055179 -0.00015811529 0.0020573018 -0.0019897553
-0.0020570303 -0.0011761107 -0.0020610841 -0.0019539853 0.0026098627 0.00063632644 -0.0017035633 0.0034422395
0.00026515106 0.0009422579 -0.0006195027 -5.438482e-06 0.0009621536 -0.001460922 0.00027430573 -0.0016053711
-0.0017063544 -0.0015812978 -0.001443793 0.0034111324 -0.0008890234 0.0012135541 0.0033398275 9.281895e-05
0.0020677221 0.0011384604 -0.003360287 -0.0014088529 0.0013187975 -0.0001025259 -0.0016082885 -0.0005928859
0.0040801154 -2.9606625e-05 -0.001393216 -0.0021443754 0.001114874 0.0007203628 0.0024990966 0.0037795692
00000000: c7ec e639 8bbb b639 7181 0d3b 5267 fb39
00000010: 4f63 96bb e4d8 973a 7e08 733b 70eb ceba
00000020: 2045 db39 df49 57bb 8ba8 6a3a 2352 c7ba
00000030: f6fa 48bb 553b b8ba b5c5 5d39 2041 47bb
00000040: d38c 1639 0e1b afba c92e 0a3b ec9e 103b
00000050: 5b39 b8ba c0cb 25b9 ccd3 063b 8e66 02bb
00000060: 3ecf 06bb ba27 9aba 4113 07bb 6f0e 00bb
00000070: 3b0a 2b3b 25cf 263a 194a dfba 3297 613b
00000080: f903 8b39 db01 773a 1f66 22ba 347c b6b6
00000090: 0939 7c3a 687c bfba b1d0 8f39 516b d2ba
000000a0: c1a7 dfba 8d43 cfba a73d bdba 4e8d 5f3b
000000b0: 5a0d 69ba 1e10 9f3a 02e1 5a3b cba7 c238
000000c0: 9f82 073b 6438 953a 4338 5cbb 42a9 b8ba
000000d0: 80db ac3a 2c03 d7b8 35cd d2ba e66b 1bba
000000e0: 7db2 853b be5b f8b7 929c b6ba a688 0cbb
000000f0: f720 923a bbd6 3c3a e2c7 233b a6b2 773b

base.cnn.cnn.8.weight f4 [64]
0.9971431 0.996534 0.9966542 0.99804527 0.9944968 0.99798137 0.9982449 0.9958229
0.99742097 0.99560565 0.99668944 0.9965303 0.9960552 0.99634176 0.997103 0.995738
0.9969732 0.99598205 0.9964868 1.0004914 0.9959257 0.996988 0.99914783 0.9953367
0.99613273 0.9959613 0.9961542 0.9958954 0.9999921 0.9973461 0.99562585 1.0001001
0.99737144 0.9965453 0.9959328 0.9961925 0.9978115 0.99619365 0.9956865 0.9978903
0.9955172 0.9957454 0.9960283 0.99866974 0.9959617 0.9967544 1.0013745 0.99796927
0.9965314 0.9963534 0.9960614 0.9958201 0.9972031 0.9960035 0.9956171 0.995804
1.0026194 0.9958105 0.9972369 0.9968602 0.9959814 0.99582034 0.99888486 0.99838537
00000000: c544 7f3f da1c 7f3f bb24 7f3f e57f 7f3f
00000010: 5897 7e3f b57b 7f3f fa8c 7f3f 40ee 7e3f
00000020: fb56 7f3f 03e0 7e3f 0a27 7f3f 9c1c 7f3f
00000030: 79fd 7e3f 4110 7f3f 2442 7f3f b0e8 7e3f
00000040: a339 7f3f aef8 7e3f c219 7f3f 1a10 803f
00000050: fdf4 7e3f 9b3a 7f3f 27c8 7f3f 63ce 7e3f
00000060: 8e02 7f3f 52f7 7e3f f603 7f3f 00f3 7e3f
00000070: 7bff 7f3f 1352 7f3f 56e1 7e3f 4803 803f
00000080: bc53 7f3f 981d 7f3f 74f5 7e3f 7906 7f3f
00000090: 9370 7f3f 8c06 7f3f 4fe5 7e3f bd75 7f3f
000000a0: 37da 7e3f 2ce9 7e3f b6fb 7e3f d2a8 7f3f
000000b0: 59f7 7e3f 4c2b 7f3f 0a2d 803f ea7a 7f3f
000000c0: af1c 7f3f 0411 7f3f e1fd 7e3f 11ee 7e3f
000000d0: b448 7f3f 16fa 7e3f c3e0 7e3f 03ed 7e3f
000000e0: d555 803f 70ed 7e3f eb4a 7f3f 3b32 7f3f
000000f0: a3f8 7e3f 15ee 7e3f ebb6 7f3f 2f96 7f3f

base.cnn.cnn.8.bias f4 [64]
-0.00012773079 -0.00011545177 0.0018615327 0.000112386195 -0.0047750445 0.0007948824 0.0034554757 -0.0016945879
8.116549e-05 -0.0033663865 0.00055884494 -0.0018133797 -0.0032386822 -0.0017191604 -0.00026762986 -0.0031413063
1.3542865e-05 -0.0017876136 0.0018492105 0.0020478778 -0.0017417341 -0.00067579333 0.0018191931 -0.0022886493
-0.0022594398 -0.0014727003 -0.0022321127 -0.0020276476 0.0025339122 0.00047094224 -0.0019134748 0.00309568
-0.00018575533 0.00055496546 -0.0010678471 -0.000684186 0.00034314554 -0.0018262619 -8.339609e-05 -0.0017222419
-0.0020827467 -0.0019786693 -0.0017276147 0.003336203 -0.0014892439 0.0009288078 0.0033613741 -0.00073543465
0.0015979668 0.0005807205 -0.0033998217 -0.0017375733 0.0008509917 -0.00028205686 -0.001843464 -0.00082055887
0.004048505 -7.482284e-05 -0.0016203953 -0.0023087757 0.0008840615 0.00048464732 0.0022706091 0.0036131295
00000000: 79ef 05b9 b21e f2b8 acfe f33a e1b0 eb38
00000010: fa77 9cbb a85f 503a 4375 623b ef1c deba
00000020: 6437 aa38 989e 5cbb 737f 123a edae edba
00000030: 1240 54bb 7355 e1ba ac50 8cb9 60de 4dbb
00000040: 2a36 6337 5c4e eaba 3561 f23a b035 063b
00000050: e64a e4ba b927 31ba fe71 ee3a 2afd 15bb
00000060: 1c13 14bb 9f07 c1ba a348 12bb 48e2 04bb
00000070: fe0f 263b cce8 f639 8fcd faba e4e0 4a3b
00000080: 51c7 42b9 1a7b 113a 01f7 8bba f25a 33ba
00000090: 37e8 b339 2e5f efba efe4 aeb8 d9bc e1ba
000000a0: b17e 08bb 90ac 01bb 2171 e2ba 33a4 5a3b
000000b0: bc32 c3ba 3d7b 733a 804a 5c3b 2fca 40ba
000000c0: de72 d13a 7e3b 183a 8bcf 5ebb 49bf e3ba
000000d0: 1615 5f3a 08e1 93b9 63a0 f1ba c61a 57ba
000000e0: 52a9 843b 35ea 9cb8 7263 d4ba d44e 17bb
000000f0: 5dc0 673a 4318 fe39 80ce 143b 41ca 6c3b

rnn.rnn.weight_ih_l0 f4 [192, 64]
0.13756783 -0.121207565 -0.022079725 -0.14338279 -0.09533194 -0.11530987 -0.1452539 -0.0977782
-0.09300104 0.12039746 0.116197474 -0.10097935 -0.14084044 -0.12769826 0.015245493 -0.14664416
0.13803618 0.005959666 0.11517141 0.13092466 -0.053173885 0.0073022298 0.14284223 -0.07990979
0.0244827 0.07564388 -0.117784865 -0.08882329 -0.04326472 0.10230624 0.01877593 0.011011867
-0.05690265 0.031673748 -0.018021625 0.005933127 -0.04482607 0.13083543 -0.08415254 0.0053155376
0.021436596 0.008554804 -0.020079616 0.036673214 -0.009178647 0.078148365 0.13604952 -0.02159967
-0.08212525 0.029357906 0.14444296 -0.0818389 0.059267677 0.11941124 -0.060667496 0.10433804
-0.15100536 -0.07677607 -0.026594266 -0.010760626 0.12356998 0.04113555 0.053126674 0.07533274
0.07342575 0.0044909352 -0.08676924 0.065640725 0.03689552 0.020990593 -0.13896404 0.14162341
-0.11897463 -0.020897683 0.037611794 -0.05934234 0.03691664 -0.116901286 0.052567806 -0.066834666
0.10160894 0.041157193 -0.068522505 -0.09548207 -0.06388142 -0.023207301 -0.108866975 -0.10003055
0.01539846 0.053330768 -0.07169705 -0.097394936 -0.0054714642 0.060020253 0.1366752 0.00020275367
0.09001856 0.08298524 0.070301205 -0.05789814 0.0062046074 -0.08057848 -0.08293165 0.011599693
-0.09353946 -0.13899335 0.012871718 0.0796954 -0.13721596 0.027802184 -0.040617652 -0.010722655
-0.0777569 -0.07952476 -0.09635009 0.058131672 0.074276015 -0.021967296 0.11115205 0.01889684
-0.13172856 -0.053578172 0.0340613 0.06309899 -0.076677874 -0.021143556 -0.056092862 0.043653265
0.120409854 0.11048038 0.04121316 0.08355557 -0.061994396 0.02213744 0.07060186 -0.043131247
0.09416794 0.09000054 -0.07984513 -0.07206471 -0.09994322 -0.09083004 -0.14776458 -0.11284529
0.030365404 -0.004342265 -0.14763135 0.12326087 -0.016810084 -0.14699815 0.004234559 -0.0007157287
-0.05113974 -0.12965494 -0.0154129565 0.14150795 0.028731361 -0.06624761 0.103086956 0.025686918
-0.055717997 0.065985285 0.11898434 0.08828079 0.06376917 -0.0038335845 0.14323714 -0.086117044
-0.044002697 -0.10508073 -0.077494785 0.052675776 -0.09902725 0.112943865 -0.11501127 -0.0788089
0.05225641 0.12615475 0.078797854 -0.022918303 0.13879296 0.06286352 -0.13775674 -0.06129273
0.042165898 -0.060988553 0.06939278 0.076737374 0.0721933 -0.028954279 -0.05416998 0.08421573
0.08111565 0.12880872 0.11826639 0.07954764 -0.13506337 -0.13396107 -0.10242537 -0.022838295
-0.07866458 -0.09577076 -0.058867596 0.05306929 -0.11770267 -0.10106042 0.10655076 -0.1239321
-0.08363379 -0.030148033 0.08430719 -0.012114935 -0.101340376 0.10142402 0.08541859 -0.035448074
0.01019382 0.06449225 0.095216505 -0.1201751 0.07119558 -0.14889261 -0.016492344 0.06341451
-0.078339994 0.04856569 0.009311389 0.1481854 0.12778473 0.047112778 0.09773244 -0.12886177
-0.06274935 0.12075109 -0.03398869 -0.1414121 0.12167785 0.024080094 -0.13544556 -0.02587427
-0.095911026 0.046904486 0.08818128 -0.03253552 -0.08643081 -0.01255733 -0.01593102 0.07827933
0.050449226 0.030586932 0.009206401 -0.14546505 -0.0089033805 0.12634587 0.016536029 0.13982026
00000000: 95de 0c3e ac3b f8bd 8ae0 b4bc f0d2 12be
00000010: 643d c3bd 9527 ecbd 70bd 14be f03f c8bd
00000020: 5477 bebd f292 f63d f1f8 ed3d 43ce cebd
00000030: 7a38 10be 55c3 02be 3bc8 793c e329 16be
00000040: 5b59 0d3e 4d49 c33b fdde eb3d 1d11 063e
00000050: dccc 59bd 8b47 ef3b 3c45 123e bea7 a3bd
00000060: f18f c83c 2eeb 9a3d 3139 f1bd fce8 b5bd
00000070: 5936 31bd ef85 d13d fbcf 993c 1e6b 343c
00000080: c112 69bd 55bc 013d 16a2 93bc ad6a c23b
00000090: 8b9b 37bd b9f9 053e 2b58 acbd f62d ae3b
000000a0: cd9b af3c 7329 0c3c 027e a4bc a736 163d
000000b0: 0962 16bc 400c a03d 9150 0b3e cbf1 b0bc
000000c0: 4831 a8bd fe7f f03c dbe8 133e 279b a7bd
000000d0: aac2 723d e18d f43d 7b7e 78bd 2faf d53d
000000e0: 26a1 1abe c63c 9dbd 38dc d9bc 564d 30bc
000000f0: 4212 fd3d c07d 283d 5b9b 593d 0d48 9a3d
00000100: 3d60 963d b228 933b 12b4 b1bd a56e 863d
00000110: c21f 173d 77f4 ab3c 974c 0ebe ba05 113e
00000120: f9a8 f3bd 9e31 abbc d30e 1a3d f410 73bd
00000130: e735 173d f169 efbd 5751 573d 9de0 88bd
00000140: 5918 d03d 7294 283d 8755 8cbd 1b8c c3bd
00000150: 43d4 82bd 3d1d bebc a6f5 debd d1dc ccbd
00000160: d349 7c3c 5d71 5a3d e7d5 92bd ff76 c7bd
00000170: f849 b3bb ccd7 753d 95f4 0b3e 469a 5439
00000180: a75b b83d 2af4 a93d 14fa 8f3d 9a26 6dbd
00000190: 0550 cb3b 5506 a5bd 12d8 a9bd a40c 3e3c
000001a0: 9e91 bfbd 4654 0ebe e6e3 523c 5837 a33d
000001b0: 5782 0cbe 68c1 e33c b25e 26bd 13ae 2fbc
000001c0: 023f 9fbd e1dd a2bd 3253 c5bd 7a1b 6e3d
000001d0: 061e 983d c2f4 b3bc b0a3 e33d 8ccd 9a3c
000001e0: dae3 06be c974 5bbd dd83 0b3d 0b3a 813d
000001f0: 4a09 9dbd 4035 adbc a1c1 65bd c4cd 323d
00000200: 7199 f63d 8a43 e23d 21cf 283d 2f1f ab3d
00000210: d6ed 7dbd 9459 b53c b597 903d 64aa 30bd
00000220: 1fdb c03d 3452 b83d d885 a3bd aa96 93bd
00000230: 08af ccbd 1a05 babd 994f 17be 6e1b e7bd
00000240: dec0 f83c 8f49 8ebb ac2c 17be 3270 fc3d
00000250: 4db5 89bc af86 16be 0ec2 8a3b bd9f 3bba
00000260: e777 51bd 44c4 04be a086 7cbc 76e7 103e
00000270: 085e eb3c d4ac 87bd 411f d33d 5f6d d23c
00000280: 8e38 64bd 4b23 873d 10ae f33d 8fcc b43d
00000290: 6999 823d e03c 7bbb c2ac 123e 225e b0bd
000002a0: 2c3c 34bd 9134 d7bd 96b5 9ebd 8ec2 573d
000002b0: cdce cabd 1d4f e73d 078b ebbd 9066 a1bd
000002c0: d10a 563d b62e 013e c560 a13d 2abf bbbc
000002d0: be1f 0e3e 97be 803d 1a10 0dbe 160e 7bbd
000002e0: 26b6 2c3d 22cf 79bd cd1d 8e3d 7c28 9d3d
000002f0: 15da 933d 8631 edbc 57e1 5dbd 4c79 ac3d
00000300: f61f a63d 6fe6 033e a635 f23d e0e9 a23d
00000310: 0d4e 0abe 172d 09be 64c4 d1bd 6017 bbbc
00000320: e51a a1bd 7623 c4bd 261f 71bd 2f5f 593d
00000330: 190e f1bd c4f8 cebd 4937 da3d 1dd0 fdbd
00000340: 3148 abbd 02f9 f6bc 3fa9 ac3d b87d 46bc
00000350: 8b8b cfbd 66b7 cf3d f1ef ae3d 0032 11bd
00000360: fb03 273c 8314 843d df00 c33d 5d1e f6bd
00000370: fdce 913d 4e77 18be f41a 87bc 77df 813d
00000380: b870 a0bd d1ec 463d cc8e 183c eabd 173e
00000390: 00da 023e 54f9 403d f227 c83d 57f4 03be
000003a0: bb82 80bd 594c f73d b937 0bbd 55ce 10be
000003b0: 3d32 f93d 9e43 c53c 3eb2 0abe 47f6 d3bc
000003c0: 006d c4bd eb1e 403d 6398 b43d f743 05bd
000003d0: a302 b1bd 42bd 4dbc c581 82bc ea50 a03d
000003e0: d9a3 4e3d 7291 fa3c 72d6 163c caf4 14be
000003f0: 7cdf 11bc d060 013e 9176 873c 0b2d 0f3e

rnn.rnn.weight_hh_l0 f4 [192, 64]
0.011661541 0.09139627 -0.108806245 0.11973883 0.045377094 0.13821946 0.10008438 0.1435649
0.05087311 0.055666436 -0.07842346 0.08387848 -0.09252102 0.06563723 0.15029785 0.080829635
0.09853634 0.055114176 -0.041599035 0.06833271 0.08077004 0.07127861 -0.1138616 0.04122855
0.07075843 0.032691758 -0.10650476 0.015599471 0.14408493 0.0049846536 0.02282833 0.11041877
-0.11317841 -0.08654611 -0.02624866 -0.09550529 0.038169812 -0.0894096 0.13404806 0.08741253
-0.004912424 -0.08133914 -0.060193438 0.016524347 0.1275812 -0.09832479 -0.12729429 -0.0032011878
-0.1073342 0.01786065 -0.050366744 0.013220437 -0.054382764 -0.103999004 0.014629868 0.14148353
-0.026288835 0.04194982 0.07263369 0.12374152 -0.004821481 0.0848824 -0.08116323 -0.03495763
0.08414297 -0.012076716 0.10729544 -0.07989253 -0.102336004 -0.014985113 -0.1380137 -0.02425281
-0.13403675 0.03729765 0.050346956 0.14211248 0.10539462 -0.064854294 0.14338347 -0.009046343
0.14908144 0.054424375 0.06252179 0.0039647 0.012477042 -0.09414412 -0.009695396 0.12322141
0.09878107 0.06431302 0.10704819 0.07368276 0.08349468 0.061290372 -0.13051598 -0.07345109
0.051971048 0.057284508 0.13170727 -0.07446331 0.028293112 -0.053228594 -0.037131406 -0.045996938
0.12186246 0.02463571 0.1162444 -0.098142676 -0.10528827 0.025505427 -0.06337422 -0.022642452
-0.09700922 0.10607216 0.14179134 -0.07592096 0.10622607 -0.14631604 -0.15013164 0.084748775
0.033668563 0.11772754 -0.07924907 0.032133687 -0.12121783 0.14066824 -0.0387895 -0.122806594
-0.0571909 0.05460075 -0.13665876 0.015740661 -0.02920706 0.12972954 0.030577302 -0.11267862
-0.060111947 -0.053921062 0.14920548 0.074791074 -0.12646677 0.11961617 -0.13107169 0.050794166
-0.104031116 0.07636831 -0.019289326 0.056786418 0.093585595 0.13558456 0.03027965 -0.12622587
0.058103755 -0.09103435 -0.030234285 0.10903605 -0.05457838 0.09620495 0.017951388 0.10142458
-0.1508694 0.13001017 -0.0069734682 0.13470367 -0.087831534 -0.11805136 -0.11488401 0.033683077
0.13445498 -0.10416099 -0.056950305 -0.024452357 -0.03980422 -0.08779487 0.122053154 0.07444325
-0.1089545 0.14139886 -0.08399634 0.089351766 -0.11680925 -0.006356794 0.0835715 -0.075935416
0.13580616 0.014561935 -0.12363223 0.0083019 0.117386304 0.023819277 -0.0899508 0.00102582
-0.13538624 0.12663615 0.12412186 0.12417837 -0.11871646 -0.041943513 0.10673811 -0.100795604
-0.09181954 0.11639522 0.06971497 0.024034604 -0.09944393 0.022806052 0.082570985 0.07954022
0.14399636 -0.030379577 -0.094851926 0.085937686 -0.009259433 -0.12626085 0.06556608 -0.13349526
-0.059109397 0.14757408 -0.13294326 -0.028092535 0.046961937 0.0009119112 0.08952887 0.029208627
-0.09422267 0.07928466 -0.1327156 -0.14544073 0.12747978 -0.14896376 0.06786418 0.12296427
-0.12631613 -0.13762659 -0.048313707 0.077926576 0.10302395 0.0014575794 -0.13543664 0.09210872
-0.020461993 0.13832222 -0.1343911 0.14444402 0.110243246 -0.038228985 0.100439385 -0.010872452
-0.13037112 -0.037099853 0.02012398 0.082513265 0.06498449 0.12989126 -0.1031777 0.09046384
00000000: 0c10 3f3c f82d bb3d cfd5 debd a239 f53d
00000010: 55dd 393d 6789 0d3e 0af9 cc3d ad02 133e
00000020: 5260 503d 7d02 643d 7b9c a0bd 7bc8 ab3d
00000030: a97b bdbd d06c 863d aee7 193e 028a a53d
00000040: 6ccd c93d 67bf 613d c063 2abd 05f2 8b3d
00000050: c36a a53d 85fa 913d 4530 e9bd 45df 283d
00000060: cce9 903d cbe7 053d 2b1f dabd ec94 7f3c
00000070: 008b 133e 4e56 a33b 7a02 bb3c 3c23 e23d
00000080: 15ca e7bd 163f b1bd 6e07 d7bc 4798 c3bd
00000090: f357 1c3d 611c b7bd e543 093e 5705 b33d
000000a0: 66f8 a0bb 2395 a6bd 658d 76bd 115e 873c
000000b0: a5a4 023e 825e c9bd 6f59 02be 05cb 51bb
000000c0: 08d2 dbbd 7f50 923c 5c4d 4ebd 889a 583c
000000d0: 76c0 5ebd 6efd d4bd 1db2 6f3c 0fe1 103e
000000e0: af5b d7bc 93d3 2b3d f9c0 943d 326c fd3d
000000f0: 84fd 9dbb d3d6 ad3d e838 a6bd bb2f 0fbd
00000100: 2653 ac3d 6bdd 45bc b6bd db3d b29e a3bd
00000110: 8a95 d1bd 1f84 75bc 7753 0dbe d4ad c6bc
00000120: ee40 09be 6cc5 183d 9c38 4e3d ef85 113e
00000130: 22d9 d73d 54d2 84bd 1ed3 123e 1d37 14bc
00000140: cea8 183e 18ec 5e3d 6d0b 803d 50ea 813b
00000150: 826c 4c3c a2ce c0bd 70d9 1ebc 825b fc3d
00000160: bb4d ca3d 8bb6 833d 153c db3d fde6 963d
00000170: 42ff aa3d 9d0b 7b3d fba5 05be 866d 96bd
00000180: 98df 543d 29a3 6a3d 45de 063e 3880 98bd
00000190: f5c6 e73c 3a06 5abd 1a17 18bd 4967 3cbd
000001a0: 0793 f93d d4d0 c93c 8b11 ee3d 07ff c8bd
000001b0: 60a1 d7bd c2f0 d03c 58ca 81bd aa7c b9bc
000001c0: c5ac c6bd 5c3c d93d c031 113e 737c 9bbd
000001d0: 0e8d d93d dfd3 15be 1cbc 19be c490 ad3d
000001e0: 0ce8 093d 231b f13d 564d a2bd 9d9e 033d
000001f0: 0e41 f8bd 560b 103e bde1 1ebd 0682 fbbd
00000200: 0141 6abd 09a5 5f3d 46f0 0bbe 8ff2 803c
00000210: a543 efbc d2d7 043e 407d fa3c 0cc4 e6bd
00000220: f237 76bd 55dc 5cbd 52c9 183e 102c 993d
00000230: 8180 01be 53f9 f43d a837 06be 8b0d 503d
00000240: 440e d5bd fd66 9c3d a604 9ebc e098 683d
00000250: cea9 bf3d aed6 0a3e 070d f83c 5b41 01be
00000260: 34fe 6d3d 3870 babd e4ad f7bc 4b4e df3d
00000270: 948d 5fbd 1a07 c53d ca0e 933c b1b7 cf3d
00000280: 827d 1abe 6321 053e b181 e4bb c2ef 093e
00000290: 05e1 b3bd e9c4 f1bd 4f48 ebbd 44f7 093d
000002a0: 91ae 093e 5b52 d5bd b944 69bd 4f50 c8bc
000002b0: c009 23bd cccd b3bd 01f7 f93d b475 983d
000002c0: 8923 dfbd ddca 103e 4606 acbd 0ffe b63d
000002d0: b039 efbd a74c d0bb 8927 ab3d 0784 9bbd
000002e0: c510 0b3e 2f95 6e3c e532 fdbd b104 083c
000002f0: 3b68 f03d a520 c33c 2038 b8bd cf74 863a
00000300: b1a2 0abe e8ac 013e 9a33 fe3d 3b51 fe3d
00000310: 9e21 f3bd f6cc 2bbd 8399 da3d ed6d cebd
00000320: e20b bcbd 9e60 ee3d b9c6 8e3d 38e4 c43c
00000330: 42a9 cbbd c2d3 ba3c fa1a a93d fce5 a23d
00000340: c873 133e 97de f8bc ba41 c2bd 1900 b03d
00000350: e0b4 17bc 864a 01be 8247 863d fbb2 08be
00000360: b21c 72bd a91d 173e 4722 08be 5122 e6bc
00000370: 295b 403d 530d 6f3a ea5a b73d ee46 ef3c
00000380: d1f7 c0bd ff5f a23d 99e6 07be 6aee 14be
00000390: 0f8a 023e f589 18be 60fc 8a3d b1d4 fb3d
000003a0: 0459 01be fced 0cbe 98e4 45bd f897 9f3d
000003b0: 38fe d23d 400c bf3a e7af 0abe 7fa3 bc3d
000003c0: e99f a7bc 57a4 0d3e d29d 09be 22e9 133e
000003d0: 36c7 e13d ff95 1cbd 2ab3 cd3d 5e22 32bc
000003e0: 0280 05be 04f6 17bd 0bdb a43c b7fc a83d
000003f0: 9716 853d 3702 053e d44e d3bd 1b45 b93d

rnn.rnn.bias_ih_l0 f4 [192]
0.00011088031 0.00013282431 -1.1508326e-06 -0.00017496363 -0.00017474862 -3.774924e-05 -4.326922e-05 -0.000107401116
-3.7519338e-05 -0.00090959773 0.0006649819 0.0001503377 -0.00013620818 3.82792e-06 0.00029252024 -0.00025108166
0.0001202189 -3.6021465e-06 -0.00035667315 -0.0001172699 7.964535e-05 0.00046973643 -6.566063e-05 -4.440711e-05
-0.00034974187 -0.0003588774 -0.00030705958 6.275354e-05 8.245703e-06 0.00034897917 -0.000128806 4.4601828e-05
-0.00014815257 -0.000331166 -0.00029483918 -0.00019046667 3.1786214e-05 -0.0002484391 8.135884e-05 0.0003722015
9.793796e-06 1.0683068e-05 -0.00023630502 0.0008311371 -0.00069744664 -0.0003463015 -5.3782238e-05 -0.0001625187
0.00027207495 -1.2942671e-05 0.000106685475 7.720035e-05 -3.933237e-05 -0.0007531329 -0.00016454578 -6.3112195e-05
-3.1207383e-05 0.00033454734 0.00035626115 -4.4965864e-06 -0.00037860253 0.00015033937 -7.255403e-05 -0.00021362728
0.0017158793 0.00046164513 -0.0024177532 -0.0019247496 0.0007094468 0.0001232498 -0.00072634 0.0018474502
-0.0004532634 0.0017580373 -0.0012877175 -0.001430694 -0.0018155037 -0.00054199784 -0.00026138322 -0.00032079354
-0.0023628601 0.0004964266 -0.00090579124 -0.0015109759 0.0001482429 0.00064384344 -0.0011996257 0.0011404576
-0.0007996418 0.0014721062 0.00073815597 -0.001453513 -0.001022311 0.00018043336 0.0011844988 -0.0002407032
0.00039686039 0.0020956246 0.002547027 0.0007646899 0.0010714118 0.0012741066 0.0005814417 0.00080465834
0.00044879637 0.00070847827 0.0008490871 -0.0011319007 0.001696828 -0.0009640717 0.00048850826 -0.00026616812
0.0013047347 -0.00056691025 0.0010760492 0.00041959726 -4.47712e-05 -6.860047e-05 -0.0013962461 0.0011972248
-2.5254723e-05 -0.00026728783 0.00077292375 -0.0016100612 -0.0015030933 0.00081254763 -0.0024429448 -0.001171604
0.0032500348 -0.004232532 0.002338119 -0.0026038606 -0.0017485953 -0.0025136983 -0.00015858248 0.004535638
-0.00088237505 0.0061852615 0.004076931 0.0030739203 -0.0024235996 0.0031967794 -0.0015084057 -0.0010259147
-0.0031645305 0.0014026624 0.004433546 -0.002305263 0.0025013916 0.003217618 -0.0011672135 0.0015694841
-0.00043696407 0.0021129583 -0.0020853346 0.0021371788 -1.9838235e-06 0.0032491758 -0.0031724505 -0.0022346773
0.0007388795 -0.001091892 -0.0029935325 0.0028960714 -0.0013401577 0.0026965828 0.00083929073 -0.000108293716
0.0016467418 0.0001939215 0.00011646786 0.004016269 -0.0022710396 -0.003020284 -0.000752006 -0.002135488
-0.0024247703 0.0011718647 -0.0032509507 -0.0031422868 0.0006673742 -0.002103644 -0.0012582979 0.002216689
-0.001081005 -0.0026931027 0.00017037663 0.0026096557 -0.0035637605 0.003934237 -0.0039656283 -0.0016016526
00000000: 6a88 e838 c146 0b39 4f76 9ab5 7176 37b9
00000010: ba3c 37b9 f054 1eb8 f97b 35b8 893c e1b8
00000020: 155e 1db8 1272 6eba 2e52 2e3a f8a3 1d39
00000030: 1bd3 0eb9 9571 8036 675d 9939 9ca3 83b9
00000040: 081e fc38 68bc 71b6 dcff bab9 ccee f5b8
00000050: 4607 a738 f546 f639 48b3 89b8 c541 3ab8
00000060: 8f5d b7b9 b627 bcb9 d7fc a0b9 8d9a 8338
00000070: 0657 0a37 31f7 b639 1910 07b9 d912 3b38
00000080: 6759 1bb9 59a0 adb9 a594 9ab9 02b8 47b9
00000090: 3052 0538 ee40 82b9 329f aa38 0a24 c339
000000a0: 0950 2437 6d3b 3337 a5c8 77b9 abe0 593a
000000b0: dad4 36ba cd8f b5b9 3d94 61b8 c869 2ab9
000000c0: 48a5 8e39 5924 59b7 54bc df38 9fe6 a138
000000d0: d0f8 24b8 e56d 45ba ec89 2cb9 1a5b 84b8
000000e0: ace4 02b8 2f66 af39 90c8 ba39 62e1 96b6
000000f0: 2c7f c6b9 6ba4 1d39 2628 98b8 2301 60b9
00000100: 5be7 e03a f608 f239 2b73 1ebb e147 fcba
00000110: 2bfa 393a 9e3c 0139 da67 3eba 2426 f23a
00000120: fca3 edb9 f16d e63a a1c8 a8ba 2086 bbba
00000130: 32f6 edba dc14 0eba 430a 89b9 2e30 a8b9
00000140: 37da 1abb a022 023a 9f72 6dba f00b c6ba
00000150: a771 1b39 9ac7 283a c23c 9dba 687b 953a
00000160: 0e9f 51ba b0f3 c03a cf80 413a ce83 beba
00000170: 11ff 85ba b632 3d39 2f41 9b3a 4665 7cb9
00000180: b311 d039 bf56 093b 06ec 263b 7875 483a
00000190: 9d6e 8c3a ecff a63a e46b 183a b5ef 523a
000001a0: 6e4c eb39 2cb9 393a 4595 5e3a 495c 94ba
000001b0: 1a68 de3a c2b9 7cba 3c0f 003a 7b8c 8bb9
000001c0: a203 ab3a b49c 14ba 380a 8d3a 64fd db39
000001d0: b6c8 3bb8 99dd 8fb8 3f02 b7ba 33ec 9c3a
000001e0: 1bda d3b7 c422 8cb9 099e 4a3a b008 d3ba
000001f0: 7103 c5ba 2601 553a d019 20bb 8290 99ba
00000200: 89fe 543b 0db1 8abb 213b 193b 88a5 2abb
00000210: 1f31 e5ba dcbc 24bb 2949 26b9 b09f 943b
00000220: 304f 67ba bcad ca3b c797 853b d373 493b
00000230: 41d5 1ebb 0f81 513b b2b5 c5ba fc77 86ba
00000240: 0364 4fbb 8ad9 b73a 4847 913b e513 17bb
00000250: 63ee 233b acde 523b 30fd 98ba 26b7 cd3a
00000260: 5318 e5b9 8f79 0a3b 1caa 08bb e90f 0c3b
00000270: d421 05b6 20f0 543b e3e8 4fbb aa73 12bb
00000280: 5db1 413a d11d 8fba 242f 44bb 04cc 3d3b
00000290: 3ba8 afba 27b9 303b d903 5c3a bf1b e3b8
000002a0: 7cd7 d73a 6857 4b39 3540 f438 e89a 833b
000002b0: b9d5 14bb f5ef 45bb 4522 45ba 8bf3 0bbb
000002c0: e5e8 1ebb 4199 993a e70d 55bb d3ee 4dbb
000002d0: b9f2 2e3a 4add 09bb 79ed a4ba df45 113b
000002e0: 82b0 8dba c47e 30bb 21a7 3239 c206 2b3b
000002f0: fb8d 69bb c6ea 803b 1af2 81bb 8bee d1ba
