MARL/MAPPO-ATTENTIOAN/onpolicy/scripts/results/Meltingpot/collaborative_cooking__circuit_0/territory__rooms/mappo/check/run100/models/actor_agent7.pt (torch, 795666 bytes, 22 tensors)

base.cnn.cnn.0.weight f4 [32, 3, 3, 3]
00000000: fb07 d53d ad50 62bd 6df5 80bd 54a3 a83d
00000010: 22c0 d13d 8fc6 4ebd 2c8f 813d 8700 1fbd
00000020: cba8 7d3a 2db4 e63d 7b05 0c3e 8b03 413e
00000030: b306 aa3c fe2c 44be 4a86 c73d 0eb0 3bbe
00000040: bee9 3fbe 7f85 013e 3561 f43d e923 173d
00000050: 55cc 3f3d 63b1 16bd bf7d 06bd 078c 4abc
00000060: 05ed d6bd d849 b93d 67db db3b ece7 3dbd
00000070: eb22 10be 96aa aabd 23bb 1fbe 7c2e e83d
00000080: eb20 923d a334 ab3c 77c1 413c d18b 3bbe
00000090: 2fad 89bc 0e5c 27be 3f71 d63d 6943 2ebe
000000a0: c65d 073e 0a11 0fbe 1438 e2bb dbea 8a3c
000000b0: fbfb 143e e705 993d c970 033d b8ad e83d
000000c0: 11c3 eb3d ac81 30be 1eab 0fbd 22c4 f7bd
000000d0: b697 1fbe e4d5 71bd eec8 593d e5a4 923d
000000e0: 4fe1 053e 261f b73b 04f7 16be 0325 b93d
000000f0: a69e 803d 8727 76bd 9538 963d 4237 28be
00000100: eee3 103d b9a6 c2bc 5789 163d ba8f e9bd
00000110: 6b9d 393e 1c66 01be 0ee7 1bbe 9c25 0ebd
00000120: c5fd a1bd 477c 90bd ca68 febd 494f 44be
00000130: d09d 8abd 9685 58bd 066b 35be 5521 05be
00000140: 7d53 94bd 73d3 863d 5b6e 31bd 060d 1bbe
00000150: 8872 3dbd 3ad2 cb3c af9c 25be 4ffb 4cbd
00000160: 297f 14be eeb9 42be fa68 1dbe 56df dcbd
00000170: 517d f0bd 1f4f a2ba 55d6 27be 5b93 133e
00000180: af09 cfbd 0ddc 93bd a424 853d 5286 363d
00000190: aeb4 25be f865 833d 130b a5bd cb02 b13d
000001a0: 0aa6 a23d 5d57 193e 69c3 353e 8f35 14bd
000001b0: eda2 253e 11da 973d d3a3 b5bc 02bd 8abd
000001c0: 9740 373e 41c1 12be 1623 323e 8bd9 36bd
000001d0: 5139 37bd 8f1a 0abe d757 dabd aeeb d43d
000001e0: fb04 a53d 4695 093e e32c 42be 0961 063e
000001f0: 9624 0c3d 206e a2bd 7d67 febd 1114 19be
00000200: 560c 343b 7f5c 83bd a490 00be c4b8 2f3e
00000210: bcba dbbc 820d ea3d 5e99 d93d b978 9cbc
00000220: 6689 2bbe 6542 0a3d ffc1 eabd 6427 0f3c
00000230: 3edb 94bb f4d5 0abe c3bd 24be 409d b5bd
00000240: b684 7cbd 1603 92bd d902 eabd e9e3 e33d
00000250: 356c e53d 01dd 05be 0abe 2fbe b0e3 aabd
00000260: d7cd dabd 74da ddbd 0bb9 aa3c f80a 5fbd
00000270: 6652 5f3d 7a6f e93c 282c 113e 7e91 d4bd
00000280: de60 283e 589c 23be a324 ed3d f280 41be
00000290: 366f 45be 586a bf3d 900a 203e 8b24 48bd
000002a0: e10c 25bc 5246 32bc aa6b 04be e66b 133e
000002b0: eff1 023e ed35 46be c4af a6bd fd60 073e
000002c0: f3a4 09be 7f19 c23d 3244 3d3e 185f a9bd
000002d0: eaad 013d e5d4 2d3e 21d5 3bbe eeaa 32bd
000002e0: 2d23 d4bd 3b0f 44bd 2b08 653d 91e0 023c
000002f0: f636 fdbd b363 45bd 0981 303e acc2 fa3b
00000300: 5ff0 16be 464d 193c 3ae4 3abe b276 bcbc
00000310: e1f1 223e ff4b 1b3e 8baf 01be 1f45 e63b
00000320: b979 1ebe cedb 323e f43c c4bc 8852 d9bd
00000330: b2eb 20bc 558a e5bd 47e0 73bd 5225 f63d
00000340: 89a4 993d 3788 3abe 7f2f 1fbd 4372 08be
00000350: 367b 043e 73bc 1fbe 7322 0bbd 844e 2abe
00000360: 408b 453c 3008 173e bfbb d33d 9880 873c
00000370: 5638 26be f76d 2c3d 1ec1 d2bd 7ad4 0fbc
00000380: a8fd 2d3e 398a c9bc 32df 8cbb b708 403e
00000390: 07f8 393d 2731 f33d 822e c2bd c311 16be
000003a0: cc97 f2bd 61c1 43bd 7e7c 3dbe f1cc 123e
000003b0: d2b9 90bd d446 253d a878 abbd 7231 443d
000003c0: 9410 d33d dce5 3bbc 0bd2 063e 16c2 1c3e
000003d0: 5160 583d 7613 e43d 6d1e d9bd a939 133d
000003e0: 29e8 1e3e 494e 0e3e 2ed6 f9bd 4bf5 0dbe
000003f0: c118 a83d 3f2f c5bd da16 3dbe 267e fe3d
0.10401913 -0.05525272 -0.06296811 0.08234277 0.102417246 -0.05048233 0.06326136 -0.038818862
0.0009676336 0.112648346 0.13673966 0.18849008 0.020755148 -0.19157788 0.097424105 -0.18328878
-0.1874151 0.12648581 0.11932603 0.03689948 0.046825726 -0.036790263 -0.032834765 -0.012362487
-0.10494427 0.09047288 0.0067095044 -0.046363756 -0.1407582 -0.08333318 -0.1559873 0.11336991
0.07135185 0.020899123 0.011825911 -0.18315054 -0.016806213 -0.1634371 0.10470819 -0.17017902
0.13219365 -0.13971344 -0.0069036577 0.016957691 0.14549248 0.07471829 0.032089982 0.11361259
0.11511815 -0.17236966 -0.0350753 -0.12097956 -0.15585217 -0.059041873 0.053170137 0.071603574
0.1307423 0.00558843 -0.14742666 0.090402626 0.0628026 -0.06009629 0.07335011 -0.16427329
0.03537362 -0.02376114 0.03675207 -0.11404367 0.18126456 -0.12636608 -0.15224859 -0.034703836
-0.07909731 -0.07054954 -0.12422331 -0.1917087 -0.067683816 -0.052861772 -0.17716607 -0.13000996
-0.072424866 0.065832995 -0.043318134 -0.15141687 -0.046251804 0.024880517 -0.16173051 -0.050044354
-0.14501633 -0.19016239 -0.15372077 -0.107847854 -0.11742652 -0.0012383199 -0.16390355 0.1441168
-0.10109269 -0.07219706 0.06501129 0.04456169 -0.16182205 0.06415933 -0.08058753 0.08643111
0.07941826 0.14974733 0.17750324 -0.03618389 0.16175433 0.0741464 -0.022172844 -0.06774332
0.17895733 -0.14331533 0.17396197 -0.04464106 -0.044732396 -0.13486694 -0.10661285 0.10396515
0.080575906 0.1343585 -0.18962435 0.13122953 0.03421458 -0.07931161 -0.124220826 -0.14949061
0.0027473173 -0.064141266 -0.12555176 0.17160326 -0.02682244 0.11428358 0.106249556 -0.019100534
-0.16751632 0.033754725 -0.11462783 0.008737419 -0.0045427373 -0.13558179 -0.16088013 -0.08867884
-0.06165 -0.07129495 -0.114263244 0.11127455 0.112022795 -0.13072588 -0.17162338 -0.08344209
-0.10683792 -0.10832682 0.020840188 -0.05445382 0.05452194 0.028495539 0.14177 -0.10379313
0.16443202 -0.15977609 0.115792535 -0.18896845 -0.19280705 0.09346455 0.1562903 -0.048862975
-0.010073871 -0.0108810235 -0.12931696 0.14396629 0.12787603 -0.19356509 -0.081389934 0.13220592
-0.1344183 0.09477519 0.18483046 -0.08270091 0.031659998 0.16975744 -0.18343021 -0.043620043
-0.10358272 -0.047866087 0.055915993 0.007988111 -0.123639986 -0.048190784 0.17236723 0.007652601
-0.14740132 0.009356802 -0.18251124 -0.023005817 0.15912582 0.15165709 -0.1266462 0.007027283
-0.15476121 0.17466661 -0.023954846 -0.10611445 -0.009821819 -0.11208025 -0.05954006 0.12018837
0.07502086 -0.18216024 -0.038863655 -0.13324837 0.12937626 -0.15599231 -0.0339684 -0.16631514
0.012057126 0.14749217 0.10338544 0.01654081 -0.16232428 0.04209706 -0.102907404 -0.008778686
0.16991293 -0.024602043 -0.004299068 0.18753324 0.045402553 0.118746094 -0.09481527 -0.14655213
-0.11845359 -0.047791842 -0.18504521 0.14335991 -0.070666924 0.04035075 -0.08372623 0.047898717
0.103058964 -0.011468377 0.13166063 0.15308413 0.05282623 0.111365244 -0.106015064 0.03594366
0.1551825 0.13897051 -0.12199055 -0.13863103 0.082078464 -0.09628152 -0.18465748 0.12426405

base.cnn.cnn.0.bias f4 [32]
00000000: 6ff1 2eb2 d1b6 1b33 306d bf32 0499 5e33
00000010: 7d57 3b32 87d1 2e32 c2eb f432 09f7 f2b2
00000020: 19e0 c3b2 20e0 eeb2 ed46 4532 4755 d431
00000030: e95a 86b2 71ed b1b1 d896 bd32 78af 6bb2
00000040: 8f41 63b2 7192 39b3 c514 8630 2494 39b3
00000050: 1af9 72b2 749b e3b1 3c8b b0b3 0ed3 e231
00000060: 556f 20b3 ebc0 ae33 c994 2b32 d224 fb32
00000070: 8502 97b3 ece4 70b2 d5e6 3ab4 e880 ab33
-1.0183029e-08 3.625502e-08 2.228498e-08 5.182757e-08 1.0904725e-08 1.0175774e-08 2.8512549e-08 -2.8284846e-08
-2.2802896e-08 -2.7808767e-08 1.1483036e-08 6.179707e-09 -1.5640994e-08 -5.178372e-09 2.2071092e-08 -1.3718697e-08
-1.3228045e-08 -4.3206857e-08 9.755686e-10 -4.3208402e-08 -1.4142893e-08 -6.6242425e-09 -8.220965e-08 6.60146e-09
-3.735416e-08 8.137598e-08 9.98734e-09 2.923699e-08 -7.031944e-08 -1.4021889e-08 -1.7406576e-07 7.986256e-08

base.cnn.cnn.1.weight f4 [32]
00000000: 70e4 7f3f c9ee 7f3f 3143 7f3f 04fb 7e3f
00000010: 3499 7f3f 124e 7f3f e929 7f3f 224b 7f3f
00000020: b5e2 7e3f ed7f 7f3f 2567 7f3f b547 7f3f
00000030: 57df 7e3f d800 7f3f 692b 803f 5fdd 7f3f
00000040: 0162 7f3f 5c6c 7f3f a223 7f3f 1748 7f3f
00000050: 8c1c 803f c352 7f3f f178 7f3f fa66 7f3f
00000060: cfff 7e3f 03b8 7f3f a984 7f3f 4c9d 7f3f
00000070: 77da 7e3f a6d5 7f3f a709 803f cba8 7f3f
0.9995794 0.9997373 0.997119 0.9960177 0.99843144 0.997285 0.99673325 0.9972402
0.9956468 0.99804574 0.9976676 0.9971879 0.9955954 0.9961066 1.0013248 0.9994716
0.9975892 0.9977472 0.99663746 0.99719375 1.0008712 0.9973566 0.99793917 0.99766505
0.9960908 0.99890155 0.998118 0.9984939 0.995521 0.99935377 1.0002946 0.9986693

base.cnn.cnn.1.bias f4 [32]
00000000: 0d45 bbb8 f7fe ac3a 4c18 0aba 7f2a 47bb
00000010: d296 40bb 625f a13a f2dd 153a cae3 efba
00000020: 903e 8cba 66af 423a 22f3 9d39 7721 14b8
00000030: f6cf 31bb 8fca cbba f625 1c3b fef2 9439
00000040: 076e 4f39 b472 b139 5184 d3ba e299 6cba
00000050: 24f6 393b 5d65 b1ba ca01 6cba ade5 11bb
00000060: 419b ebba 64ca 713a 51fe d7b9 4753 8c3a
00000070: 9d0b 5dbb 45d9 78ba 4221 ce3a 0d4a 42ba
-8.9297166e-05 0.0013198544 -0.0005267903 -0.003039032 -0.002938677 0.0012311751 0.00057169714 -0.0018302139
-0.0010699797 0.0007426649 0.00030126522 -3.5317116e-05 -0.002713201 -0.0015548038 0.0023826337 0.00028409803
0.00019782047 0.0003384553 -0.0016137456 -0.0009025616 0.002837547 -0.0013534237 -0.0009002952 -0.0022262142
-0.0017975346 0.0009223579 -0.00041197476 0.0010705971 -0.0033728846 -0.0009492825 0.0015726464 -0.0007411547

base.cnn.cnn.1.running_mean f4 [32]
00000000: ebe7 7f3d 3974 f1bd 6ef3 1fbe a301 1ebe
00000010: 31ec f93c ad25 4dbe e47b 2dbd b2fa dbbd
00000020: 3a84 2d3d 5c89 e43b 71a9 803d 36bd 763c
00000030: f6b9 113c 5a96 4d3c 976a af3d fac3 893d
00000040: f306 b93d 4b26 083d c40c 51be 0984 65bc
00000050: 2b48 a4bd 60f8 4e3d efea 83bd e626 18bc
00000060: 37e5 5fbd e553 b0bd 448f 533d af1c 553d
00000070: 91d7 32be 3163 fd3d 37a4 90bd aad1 b0bc
0.062477034 -0.11789746 -0.15620205 -0.15430312 0.030508133 -0.20033903 -0.04235448 -0.10741176
0.04236243 0.0069743823 0.062823184 0.01505976 0.008894434 0.012548054 0.08565252 0.06726833
0.090345286 0.033239644 -0.20415026 -0.01400853 -0.080215774 0.050529838 -0.064412944 -0.009286618
-0.054661956 -0.086097516 0.0516503 0.052029308 -0.17465045 0.12372435 -0.070625715 -0.02158435

base.cnn.cnn.1.running_var f4 [32]
00000000: bd39 b43b c4f2 8d3b 92c9 193c 8740 df3b
00000010: f87d 853b 6db8 053c ffbd 393c 5fa3 9d3b
00000020: f546 923b bfdf a83b 7533 a03b e097 8e3b
00000030: a7e3 9a3b 898c 9f3b 7957 8d3b 4985 bc3b
00000040: 4d0a 993b 6dd7 793b 2f4d 133c 0766 003c
00000050: 1025 bf3b f1c7 ab3b cdaa 823b 31f2 c43b
00000060: edd9 4c3b b6b8 bb3b 8f9f ac3b d0bb e93b
00000070: 5eac 663c 4304 f03b 64ad c93b 0fef 003c
0.005500047 0.0043319184 0.009386437 0.006813112 0.0040738545 0.008161646 0.0113368025 0.004810735
0.004464025 0.0051536257 0.0048889467 0.004351601 0.0047268453 0.004869048 0.004313406 0.0057531935
0.0046704174 0.0038122789 0.00899057 0.007836825 0.0058332756 0.0052423407 0.003987646 0.006010317
0.0031257824 0.0057288064 0.0052680443 0.0071329847 0.0140791815 0.007324727 0.006154703 0.007869496

base.cnn.cnn.4.weight f4 [64, 2592]
00000000: 8c63 eb3c b4fb cd3b 5e84 cabc a72b a0bb
00000010: 6375 30bd 42ee 183d 5953 9b3c 8880 d93a
00000020: 2cc0 4fbd 24c1 89bc c26e d73c 3550 e73b
00000030: 80fe 953c 6437 923c e305 efbc 75d7 653d
00000040: fe1b 77bd 81ee b73c 7f45 57bd df58 283b
00000050: dc03 b9bc a9da 65bc d499 353c cba8 4fbd
00000060: 5e32 353b 7ca9 6bbd b02d 2bbd 3c76 07bd
00000070: f8f6 67bd 7ccf da3c 7533 63bd f765 3abd
00000080: 4af8 433d 21d6 82bd 2451 793d 818d b5bc
00000090: d57c 233d 6e61 71bc 9fb0 08bd b394 873c
000000a0: b9e8 b63c 1e41 83bd c346 06bd 2035 543d
000000b0: 8ae4 463d d223 4abd 97ac 73bd c8a5 22bd
000000c0: 51a0 16bd 68ea d03c 346b adbc e614 2d3d
000000d0: d11e 19bc 7a05 2f3d e7ec 85bc 3c58 463d
000000e0: cdb3 5dbc 1050 0abd 907f 1e3d cf82 b7bb
000000f0: 9105 a0bc dac5 f73c 4ac9 48bd 52b3 54bc
00000100: b6d2 b13c cbb9 87bd 7e2f 4d3d 932a 4ebd
00000110: 05fe 353d add5 8e38 9429 053c 4002 233d
00000120: 7e59 88bc 6a35 5c3d fd32 633d 2223 56bd
00000130: b385 fa3c d302 76bd 31f9 d5bc c36d 313d
00000140: dff8 36bd e071 683d 3041 dc3c ca23 833d
00000150: 91c7 4abd ea55 a4ba a7b5 93bc ce77 133d
00000160: b372 97bc 7d94 7abd e5d2 83bc 95c5 7dbd
00000170: 3c1c 74bd d848 39bc b7d9 823d e6a0 393c
00000180: b698 3c3d 8b91 b4bc 77c7 bfbc 080f e2bb
00000190: 4f37 37bd 4d6f f63c 3a8c a13c 5c7b 293d
000001a0: 2df4 973c 0e41 f7bc 606d 87bd b1bd 9a3c
000001b0: 009d 39bd 6fa4 013d 855a 343d 12a3 d8bb
000001c0: e150 56bd 8c1f 73bb 9d8d 89bb 79c2 39bd
000001d0: 48c9 edbc 3d9b 7dbc 4738 d93c 7218 a0bb
000001e0: 3c6b 17bd cd00 9ebb 10c1 1b3d 3c5c 463c
000001f0: 7fc3 e4bb aec5 07bd bcf7 a03c 968d 44bd
00000200: 376b 213d fe06 a23c 4df8 6cbd 07c1 bf3c
00000210: 6652 71bd e4f4 51bd c2d8 063d ed8d 1f3d
00000220: 46d8 abba 5c01 dc3c b918 20bd 8dce 41bd
00000230: d317 42bd e8eb 24bd 5650 f8bc 0635 353d
00000240: f693 49bd 7ebe 173d 3836 363d 3df5 66bd
00000250: 13b0 0c3d aa1f 42bd 6983 a6bc 97e6 763d
00000260: 40eb 303d 8df3 44bd dc6c 7abd da76 1e3d
00000270: 9e51 6d3d 52f2 36bd d1a5 e9bb 3085 cdbc
00000280: 5802 413d e089 6cbd 987e a0bb fc30 d9bb
00000290: 33b3 8ebc eae2 a3b9 9380 403b 2c55 653c
000002a0: 67af 0f3c cca3 1e3d baa5 80bd a118 4dbd
000002b0: 93d9 ddbb 038b b4bc f11e ef38 1229 0b3d
000002c0: 23f3 6dbd 7830 50bd 2fe1 203d d9a9 53bd
000002d0: 1bf0 13bb 7adf 663d f6cd 2cbd 12bd d8bc
000002e0: 6eb8 49bd fa0a 0c3d c32b 503d 6dc8 08bd
000002f0: 0b57 40bc 573c 5a3a 3fd2 8e3b 5216 82bd
00000300: c328 3fbc 25a8 533d 923d 7abd 53cd a33c
00000310: c0ff 2fbd 323c 173c 3511 373d 9d15 573d
00000320: f74b 44bc c961 f7bb e460 fb3b 607d 85bd
00000330: 57df bf3c a4c6 373d 4205 0bbd afaa d93c
00000340: ab28 86bd 9604 393d 39d1 f4bc 8dfb fbbc
00000350: 22f5 61bc 12ca 813d 34af a9bc f8e9 5ebd
00000360: 0b74 46bd 43e4 e53c e2a3 65bd 8491 36bd
00000370: c6a5 78bc b7b8 903c 40c0 5b3d 53b8 02bd
00000380: 6c9e 32bc 4096 13bd 7f75 7fbd ea17 8c3c
00000390: 3989 fabb 93ec 7a3d db6d 51bd b7e8 21bd
000003a0: 03ac 60bc 7a4e 4ebd 97cb a0ba ad25 343d
000003b0: dad2 aa3b 9353 4e3d 75ad ad3c d9e6 603d
000003c0: f9d5 323d 0aef 2dbd 1aab 7abd 8802 d1bc
000003d0: cc6f 26bd 8a4a 093d 89ae 503d 1efe 1dbd
000003e0: 4a83 04bd 3814 4dbb 50b1 12bd a10e 6f3d
000003f0: 4248 513c a8cf 493d c4f2 873d 88e3 873d
0.028733991 0.006286109 -0.02472132 -0.0048880163 -0.0430807 0.037336595 0.018960642 0.0016594091
-0.05072038 -0.01681573 0.02629793 0.007059122 0.018309832 0.017848678 -0.029177612 0.05611368
-0.06032943 0.022452595 -0.05255651 0.0025687737 -0.022584848 -0.014029183 0.011084039 -0.050698083
0.002764843 -0.05753468 -0.041791618 -0.03307174 -0.056632012 0.026710264 -0.055468995 -0.045507398
0.04784421 -0.06388498 0.060868397 -0.0221622 0.03991397 -0.014732702 -0.033371564 0.016550398
0.022327768 -0.064089045 -0.032782327 0.051808476 0.048557796 -0.049350567 -0.059490766 -0.039708883
-0.036773983 0.025502399 -0.021169282 0.04225626 -0.009345726 0.042729832 -0.016348315 0.04842399
-0.013531637 -0.03376776 0.03869587 -0.0056003104 -0.019533904 0.03024571 -0.04902009 -0.012982206
0.02170692 -0.06627234 0.05009412 -0.05033357 0.044431705 6.810888e-05 0.008127589 0.039797068
-0.016644236 0.053761877 0.055468548 -0.0522796 0.03058133 -0.060061287 -0.0261198 0.043317568
-0.044670936 0.056749225 0.026886553 0.064033106 -0.049506728 -0.0012537811 -0.018030955 0.036002927
-0.01848731 -0.061176766 -0.016091773 -0.061956007 -0.05959724 -0.011308871 0.06389182 0.011329865
0.046044074 -0.022042057 -0.023410542 -0.0068987645 -0.04473048 0.03008237 0.019720186 0.04137741
0.01854905 -0.030182388 -0.066126585 0.01888928 -0.045315742 0.031650957 0.04403164 -0.0066112364
-0.052323226 -0.003709766 -0.00419779 -0.04535148 -0.029026642 -0.015478906 0.026516093 -0.0048857266
-0.0369675 -0.004821873 0.038025916 0.012106951 -0.0069813128 -0.033147506 0.019649379 -0.04798659
0.03940889 0.019778725 -0.057853986 0.023407472 -0.058916472 -0.051258937 0.03292156 0.03895371
-0.0013110719 0.026856117 -0.039086077 -0.047316123 -0.047386 -0.04026404 -0.030311745 0.04424002
-0.049213372 0.037046902 0.0444853 -0.05638622 0.034347605 -0.04739348 -0.020326333 0.0602785
0.043193102 -0.04808383 -0.061138973 0.038687564 0.057939164 -0.04466469 -0.0071303626 -0.025087923
0.047121376 -0.057748675 -0.0048979037 -0.006628154 -0.017419433 -0.00031258847 0.0029373511 0.013997357
0.0087698465 0.038730428 -0.0628161 -0.050072316 -0.0067703216 -0.022038942 0.000114021714 0.033974715
-0.0580932 -0.050827473 0.03927725 -0.05167565 -0.0022573534 0.056365468 -0.042188607 -0.026457343
-0.04924815 0.034190156 0.050822984 -0.033394266 -0.011739503 0.00083250314 0.0043585594 -0.063519135
-0.011667433 0.051674027 -0.061093874 0.019995367 -0.04296851 0.00923066 0.044694144 0.052510846
-0.011981002 -0.0075494987 0.0076714624 -0.06518054 0.023421926 0.044867173 -0.03394056 0.026570646
-0.065507255 0.04517039 -0.029884921 -0.030759597 -0.013791354 0.0633737 -0.020713426 -0.05442235
-0.04845051 0.028062945 -0.056064494 -0.04457237 -0.015176242 0.017666204 0.05365014 -0.031914067
-0.0109020285 -0.03603196 -0.062367912 0.017101247 -0.0076457527 0.06126077 -0.051130157 -0.039528575
-0.013712886 -0.05036781 -0.0012267706 0.043981243 0.0052131237 0.05037267 0.021200875 0.054907653
0.04366109 -0.042464294 -0.06119833 -0.025513902 -0.04063396 0.03351835 0.0509477 -0.038572423
-0.03235177 -0.003129257 -0.03581363 0.05836356 0.012773575 0.049270302 0.06638101 0.06635195

base.cnn.cnn.4.bias f4 [64]
00000000: f671 053a 2b87 97ba 9603 13bb 54a7 e13a
00000010: 2a92 02bb 4890 8d3a e839 f1b9 07e1 83ba
00000020: 4750 893a 22a0 7eba d7a1 ac39 9d1e 273a
00000030: 1a48 a53a 51bc 103b f676 fb38 5668 7eba
00000040: cb8c 1539 694d 9dba 5af4 1a3b 6841 e2b9
00000050: a640 9f39 e0d1 3b39 74c9 17ba 5dc7 2f3b
00000060: 7edd 00bb be11 9d3a a71e 6b3a 521a 13b8
00000070: 11af 2eb9 ee74 e3ba 3895 82ba d01a 60b9
00000080: 5356 b43a bdb5 59ba 018e f8b9 136b 953a
00000090: a914 c63a 68b6 5f39 ee57 3b3b c729 f5ba
000000a0: 98d8 b53a 56e9 c239 9e81 8f3a c5bb ac39
000000b0: 7d73 05bb d59d 70ba 0ee6 ab38 590d 99b9
000000c0: f93f cb3a 3c40 563a 5877 963a 1e7f 48ba
000000d0: 3741 d2ba 4abd fcb9 5716 40bb 827a 4b3a
000000e0: bddb c238 b291 75b9 5ea0 f839 fd14 193b
000000f0: c6de dd39 2b45 99ba 98d9 fcb8 b36a 00bb
0.0005090529 -0.0011560669 -0.0022432557 0.0017216005 -0.0019923546 0.0010800445 -0.00046010246 -0.001006157
0.0010476195 -0.00097131927 0.00032926977 0.0006375106 0.0012609989 0.0022084902 0.00011990771 -0.00097048783
0.00014262197 -0.001200122 0.002364418 -0.0004315481 0.0003037501 0.00017911894 -0.0005790212 0.002682171
-0.001966327 0.0011983437 0.0008969106 -3.5072044e-05 -0.0001665915 -0.0017353573 -0.0009962684 -0.00021372293
0.0013758637 -0.0008304974 -0.00047408047 0.0011399708 0.0015112358 0.00021334889 0.0028586346 -0.0018704467
0.0013873754 0.00037176412 0.0010948663 0.00032946296 -0.0020363026 -0.0009178792 8.1967664e-05 -0.0002919238
0.0015506736 0.0008173024 0.0011479659 -0.00076483365 -0.0016041164 -0.00048206217 -0.002931019 0.00077620905
9.29157e-05 -0.00023419296 0.0004742173 0.0023358457 0.00042318384 -0.0011693587 -0.000120568264 -0.0019594848

base.cnn.cnn.5.weight f4 [64]
00000000: ce01 7f3f 18ee 7e3f 440d 7f3f 7804 803f
00000010: 3fe7 7e3f 120a 7f3f 1f2b 7f3f f1fc 7e3f
00000020: bb9d 7f3f cf0e 7f3f a401 7f3f fc73 7f3f
00000030: bdcd 7f3f 2fcb 7f3f 2cff 7e3f 720c 7f3f
00000040: 8733 7f3f 0448 7f3f f8b8 7f3f cd9a 7f3f
00000050: f222 7f3f de18 7f3f feee 7e3f 212e 803f
00000060: 6d03 7f3f 9364 7f3f 62bb 7f3f be38 7f3f
00000070: 0ba5 7f3f 54eb 7e3f 0bfc 7e3f 4e25 7f3f
00000080: 8bd7 7f3f 13fd 7e3f 8edf 7e3f f3cf 7f3f
00000090: b440 7f3f a62b 7f3f 78cb 7f3f f923 7f3f
000000a0: 89b8 7f3f 2d73 7f3f f0c6 7f3f a69c 7f3f
000000b0: d0f8 7e3f 70f0 7e3f ea29 7f3f ac3b 7f3f
000000c0: 187a 7f3f 4edb 7f3f d0e9 7f3f 770e 7f3f
000000d0: e5ee 7e3f a468 7f3f b69f 7e3f b512 7f3f
000000e0: 1e93 7f3f 7d02 7f3f b913 7f3f ccf7 7f3f
000000f0: f224 7f3f 2d14 7f3f ee16 7f3f 89e0 7e3f
0.9961213 0.9958205 0.99629617 1.0001364 0.99571604 0.9962474 0.9967517 0.9960471
0.9985005 0.9963197 0.9961188 0.99786353 0.99923307 0.9991941 0.9960811 0.99628365
0.99688 0.9971926 0.99891615 0.9984558 0.996627 0.9964732 0.99583423 1.0014077
0.996146 0.9976284 0.998953 0.99695957 0.9986121 0.9957783 0.9960334 0.996663
0.9993827 0.9960491 0.9955987 0.9992668 0.99708104 0.9967598 0.99919844 0.99664265
0.99890953 0.9978512 0.9991293 0.998484 0.9959841 0.9958563 0.9967333 0.9970043
0.99795675 0.9994401 0.99966145 0.99631447 0.99583274 0.99769044 0.9946245 0.9963792
0.9983386 0.9961317 0.9963947 0.99987483 0.9966575 0.9964016 0.9964436 0.99561363

base.cnn.cnn.5.bias f4 [64]
00000000: d5ad 3f3a b1e2 d7ba 7ff9 39bb 620c 113b
00000010: 0de0 20bb 1c89 ab3a 4549 8cb9 03b7 9eba
00000020: 58a2 a03a 78d9 6eba 838d 223a ad13 523a
00000030: d619 843a 9484 223b 1c44 3db9 b65c 90ba
00000040: 6e20 1e39 efe7 80ba bc4f 353b fc35 a8b9
00000050: 9493 033a 24c7 d2b9 315a 71b9 ed5f 223b
00000060: e4a6 2ebb 877c ac3a 77bd 2d3a 3eff d939
00000070: 814a 0038 66f5 15bb 68f9 8aba cdf5 2539
00000080: 9a3f bc3a 1e4a b4ba ca09 25ba 9bbf a539
00000090: e9d0 083b e525 f3b9 c2d0 473b 1f56 0fbb
000000a0: ef75 383a 1146 c339 70be ad3a c26a 3839
000000b0: 07cb 08bb 64b1 efba 9021 3e3a c448 3cb9
000000c0: 059c fb3a d1a2 d63a a946 c43a 33a7 b9ba
000000d0: e646 e0ba 77d4 95ba 1ea5 5bbb f34a 693a
000000e0: e1a2 853a 343a 40ba bf85 f639 7763 223b
000000f0: 0737 0d39 7585 95ba 2c69 9839 0a36 01bb
0.0007311975 -0.0016470758 -0.002837747 0.0022132625 -0.0024547607 0.0013087126 -0.0002675747 -0.0012108985
0.0012255413 -0.0009111385 0.00062008965 0.0008013796 0.00100785 0.002479826 -0.00018049817 -0.0011013958
0.00015080135 -0.0009834747 0.0027665934 -0.00032083679 0.0005019244 -0.00040202693 -0.0002301715 0.0024776415
-0.0026649768 0.0013159671 0.0006627659 0.00041579636 3.0586965e-05 -0.0022881865 -0.0010602893 0.00015827194
0.0014362216 -0.0013754999 -0.0006295709 0.0003161401 0.0020876473 -0.00046376805 0.003048942 -0.00218714
0.00070366164 0.00037245502 0.0013255607 0.00017587378 -0.0020872967 -0.001828712 0.0007252926 -0.00017956184
0.0019196278 0.0016375427 0.0014974672 -0.0014164209 -0.0017110973 -0.0011431117 -0.0033515166 0.0008899413
0.0010195636 -0.00073328917 0.00047020425 0.0024778524 0.00013467307 -0.0011407571 0.00029070058 -0.0019716048

base.cnn.cnn.7.weight f4 [64, 64]
00000000: c5bd 86be a92c 7ebe 8c08 abbd 9cf2 7d3e
00000010: e650 c8bc 0b2e 9b3e 3728 89be 7c8b 093e
00000020: bcf0 16be 59e3 01bd ddde 1cbd a383 30be
00000030: 8195 08be 1d2f 87be 6edf e4bd 5967 8f3e
00000040: 9061 8cbe 6188 c3bd 0134 dd3d 75bc 56bd
00000050: d20b c13c 8a6c 8a3d 0f83 82be 1dd8 2abe
00000060: 581e 833e 8c14 383e 3cfb 4cbe 8d9a 913e
00000070: 04d8 953e f614 15be b024 4dbe 5cfa 813d
00000080: 12b1 8fbe 69b9 703e 451e 89be 6737 2ebe
00000090: e5e7 a73b 225f 5abe da52 1bbd 18f7 8f3e
000000a0: 2f33 14be b9d6 53be be8b 833d 130c 7fbe
000000b0: 9f2e 103e ac73 943e d1cb 9e3d 2ac8 82be
000000c0: 9fda e7bd 72fe 833e ee3d 40be f0d7 843e
000000d0: 7ebf 5b3e 7de9 89be fbfb 46bc c0b0 823d
000000e0: aaef fbbd f74c 883e ef7d 3abe a382 9b3e
000000f0: 68bb c7bd 3999 e1ba 6ae9 22be 8acb 8cbe
00000100: 2f20 05bc 406d 1bbe 5bbe e7bd b055 50bd
00000110: 81fe a33d 8f6f 89be ba7f 6ebe 9306 3b3d
00000120: c69b 96be e234 103e 2ae0 843d f4b0 903e
00000130: 8e57 013e ccac a13d 30a9 8a3e e7d7 913e
00000140: 6834 71be b481 99bd e19e cd3d c37f 90be
00000150: 4ddb a7bc 4c32 8f3d cab2 6cbe 455a a33d
00000160: e9a4 55be 80c4 263e 6853 8e3e 6782 0a3e
00000170: f21b 6dbd 971f 503e b5d3 c5bd ac26 4ebc
00000180: b83e 52be 0dd7 5bbe c5d8 87bc 714a 983d
00000190: 2bc6 99bd aed0 a53b 8092 3e3e 8aae 8f3e
000001a0: c8e9 7cbe 2785 373e 1836 22be ca91 dcbd
000001b0: dbe2 3f3e 6fd8 143e aee8 8b3d 3ad8 88be
000001c0: 1c24 80be 3b30 293e 5ac3 cc3d d55a 633e
000001d0: f01b 69be 81b4 41bc af29 99bd 2d40 5fbd
000001e0: 3dae f1bc fd6b 703e 6beb 0e3e 54b7 0fbd
000001f0: ad2f 0e3e 8a45 9bbe 9f9c 09bd 0fca 15be
00000200: a0c2 6dbe 0ac5 95bd 68a0 59be 2ef0 343e
00000210: 353f 9a3d 7f30 7dbe a0c0 e13d 828f 7c3e
00000220: 645e 0bbe ef4a 33be ae0e 703d f093 8d3e
00000230: b826 9abd 8c45 a2bd 88c3 203e 74e8 0fbd
00000240: 534a 30be 3f50 dd3d 5d3c c53c 02fb 6fbe
00000250: 60dc 103e 478d 5f3e db04 b8bb 9cc3 1c3e
00000260: 4d5b 273e 1603 0ebd 8015 c7bd a034 5a3e
00000270: 19c4 b53d 7d97 cfbc ab5e 81be adf0 1c3e
00000280: 768f 943d 6db3 40be 76ff f13d 805c 1fbc
00000290: 7545 fabd bb52 93bd 6839 5c3e b3f0 1cbe
000002a0: 0f99 793e 835b a5bd 0a67 22be c300 1fbe
000002b0: 1e1b c5bc 0fff 8cbc aaba 133e b699 0a3e
000002c0: 2913 7d3d e342 06be 8269 9a3e 73aa 1a3d
000002d0: 9c08 43be 9733 aa3d 9c38 24be ddda 053e
000002e0: 8b13 49be 7ed0 c5bd cee5 553e 5e5f 72be
000002f0: 2bac b13d b164 e7bd b819 53bd b49e dbbd
00000300: 9de2 583d 0492 8bbe c056 65be de4a 1cbe
00000310: 47aa 98bd 1b03 e2bd fce1 e63d 4f74 913e
00000320: 3a95 0c3e 457b 46be b64f 9bbe 2766 123e
00000330: 7fb5 aebb a59b 85bd 99e5 8b3a b7d0 81be
00000340: 914e 773e c1e7 bbbd c947 93be 90d3 233d
00000350: f8bb 7a3d b218 09be bc3d 28be b001 663e
00000360: 6217 1d3d cf11 6bbe 2c8d 1cbe 5cf0 7cbe
00000370: e356 6bbd 1454 873e bc13 813b baa4 94be
00000380: 95e3 773e 7b32 82be a0fc 99be 5e49 863e
00000390: 1f9e a6bd 7ac2 e7bd d54b c6bd 86df b73d
000003a0: 747d bfbd ad60 ab3d d9fd 8cbe 102c 1d3e
000003b0: 17f1 ea3d 2869 a13d 288e 8ebe 6a0d 6b3d
000003c0: 0b13 7c3e c3db b03d 08bd e0bc b397 44be
000003d0: 883b f13d f891 23be a45a 1fbe 763d 5bbe
000003e0: 7bab 80be eb7c 82be 40e0 b33c afe1 243e
000003f0: 275d 10be b14e 2b3e de62 323e 4fa6 383e
-0.26316658 -0.24821724 -0.083512396 0.2479958 -0.024452638 0.30308565 -0.26788494 0.13432115
-0.1474027 -0.031710956 -0.038298476 -0.17237715 -0.13338281 -0.26403132 -0.11175428 0.28008536
-0.27418184 -0.095474966 0.108009346 -0.05242582 0.023565207 0.067589834 -0.25490615 -0.16684003
0.25609088 0.17976588 -0.20017713 0.28438225 0.2926637 -0.14558777 -0.20033526 0.063465804
-0.2806478 0.23508228 -0.26780906 -0.17013322 0.0051240795 -0.21325353 -0.03792081 0.28118205
-0.1447265 -0.20687379 0.06423138 -0.2490695 0.14080285 0.289945 0.07753719 -0.25543338
-0.113209955 0.25780064 -0.18773624 0.25945997 0.21459767 -0.2693595 -0.012145038 0.06381369
-0.12301572 0.2662122 -0.18212102 0.30373105 -0.09752542 -0.0017211802 -0.15909353 -0.27499038
-0.008125349 -0.15178394 -0.11315604 -0.050862968 0.08007527 -0.26842925 -0.23290911 0.045660567
-0.2941572 0.14082673 0.064880684 0.28260005 0.12631056 0.078942865 0.27082205 0.28485033
-0.23555148 -0.07495442 0.10040069 -0.28222474 -0.020490313 0.06992015 -0.23115078 0.07976202
-0.2086369 0.16285896 0.2779801 0.13526307 -0.05788798 0.2032455 -0.096595205 -0.012582462
-0.20531738 -0.21468754 -0.016582856 0.074360736 -0.07508501 0.005060277 0.18610573 0.2806285
-0.24698555 0.17921887 -0.15840948 -0.107699946 0.18738882 0.14535688 0.068314895 -0.26727468
-0.2502755 0.16522305 0.09998198 0.22202618 -0.22764564 -0.011822821 -0.07478654 -0.054504562
-0.029502029 0.23478694 0.13956992 -0.035086945 0.13885374 -0.30326492 -0.03359663 -0.1462786
-0.23218775 -0.07312973 -0.21252596 0.17669746 0.07531587 -0.24725531 0.110230684 0.24664119
-0.13610226 -0.17509054 0.05860775 0.2765193 -0.07526916 -0.07923421 0.15699589 -0.035133794
-0.17215852 0.10806321 0.024076635 -0.23435596 0.14146566 0.21831237 -0.005615813 0.15308994
0.16343422 -0.03467091 -0.09720898 0.21309137 0.08875293 -0.02534079 -0.25267538 0.15326186
0.072539255 -0.18818446 0.118163034 -0.009726644 -0.12220279 -0.07193514 0.21506274 -0.15326194
0.24374793 -0.08074095 -0.15859619 -0.15527634 -0.024060782 -0.017211465 0.14426675 0.13535199
0.06178585 -0.13111453 0.3015862 0.03776021 -0.19046253 0.08310621 -0.1603722 0.13071771
-0.19636361 -0.09658907 0.20888445 -0.23669192 0.086754166 -0.11298502 -0.0515382 -0.107236296
0.05295049 -0.2725984 -0.22396374 -0.15262935 -0.07454353 -0.110357486 0.11273572 0.2840905
0.137288 -0.19382961 -0.30334252 0.1429678 -0.0053316946 -0.065238275 0.0010673284 -0.2535455
0.24151064 -0.09175063 -0.28765705 0.039996684 0.061214417 -0.13388327 -0.164298 0.22461581
0.038352378 -0.22956012 -0.15288228 -0.24701065 -0.05745591 0.26431334 0.00393912 -0.29031926
0.2420791 -0.2542914 -0.3007555 0.2622785 -0.08135628 -0.1131639 -0.096824326 0.089781806
-0.093501 0.08368049 -0.2753742 0.1534884 0.114717655 0.07881385 -0.27842832 0.05738584
0.2461664 0.08635666 -0.027433887 -0.19198494 0.11778933 -0.15973651 -0.1556192 -0.21410164
-0.2513083 -0.2548593 0.021957517 0.16101716 -0.14098035 0.16729237 0.17420527 0.18032192

base.cnn.cnn.7.bias f4 [64]
00000000: 4057 18ba 51fa 3a3a a8c5 8a3a caed 2b3a
00000010: 2c03 2bbb 0b7b c73a 6f28 8e38 277a af3a
00000020: 8b83 35ba 3b19 823a 86bf 78ba 427c 29ba
00000030: 0fcc b639 ab73 0c3a 2dc5 a63a b0c7 453a
00000040: 5c40 88b9 9115 f73a 601c c33a 5818 9bba
00000050: f1bf 203a 66b2 ae39 9ca6 4f3a 2eae 2c3b
00000060: 0e22 f43a fbe7 d83a 7f7f 943a 0265 bc3a
00000070: 5f59 c23a 08f4 44bb 5f7b 9dba 0d6f 70ba
00000080: 87ad 8cba a2b4 583a e7f2 5bb9 95bc 4cba
00000090: 1553 7cba f10c 0aba 2ca5 bbba a582 f2ba
000000a0: a21b f23a e743 2fba e63b 68bb 65b0 123b
000000b0: bd28 f3ba cc1a 92b9 29fa 2e3a 116a 3a3a
000000c0: 0f76 b039 b2eb a0b9 312d 393a 04e6 fb3a
000000d0: 024f 073a fe72 d23a b85a 3dba df09 4f3a
000000e0: 9b5d 963a e4e6 edba b5ca af3a 4cc3 b538
000000f0: 280f 94bb 1a47 a8b9 2c5e 59b9 15c0 25ba
-0.0005811341 0.0007132637 0.0010587471 0.00065585657 -0.002609442 0.0015219165 6.778619e-05 0.0013387845
-0.00069242035 0.0009925732 -0.00094889884 -0.0006465354 0.0003486578 0.0005357812 0.0012723558 0.00075447094
-0.00025987893 0.0018851032 0.0014885776 -0.0011832817 0.0006132117 0.00033320783 0.000792125 0.0026348936
0.0018625872 0.0016548628 0.0011329501 0.0014373364 0.001482766 -0.003005268 -0.0012014917 -0.00091718213
-0.0010732868 0.00082666625 -0.00020975956 -0.00078100833 -0.00096254173 -0.00052662106 -0.0014316193 -0.001850207
0.001847137 -0.00066858385 -0.0035436093 0.0022382971 -0.001855157 -0.00027867255 0.000667485 0.0007111142
0.00033657296 -0.00030693185 0.0007063924 0.001921833 0.00051616144 0.0016055999 -0.0007223296 0.0007897894
0.0011471988 -0.0018150476 0.0013411852 8.6671294e-05 -0.0045184083 -0.00032096432 -0.00020729814 -0.0006322873

base.cnn.cnn.8.weight f4 [64]
00000000: a3f0 7e3f 7733 7f3f 4c2a 7f3f 52e1 7e3f
00000010: c30d 7f3f 2683 7f3f 69dd 7f3f fdf2 7e3f
00000020: f5ee 7e3f 6806 7f3f 4b1b 7f3f bcf0 7e3f
00000030: 0444 7f3f 156f 7f3f 2821 803f f97d 7f3f
00000040: df92 7f3f fcbb 7f3f 9310 803f f716 7f3f
00000050: 9c08 7f3f 553a 7f3f 0ee9 7e3f 5c00 803f
00000060: d04d 7f3f 5baa 7f3f 513b 7f3f 9887 7f3f
00000070: 8107 7f3f e7c7 7e3f 69da 7e3f 95a2 7f3f
00000080: 1e41 7f3f 9bb3 7f3f 8c38 7f3f 3fdc 7e3f
00000090: ca40 7f3f 15e6 7e3f 5855 7f3f f410 7f3f
000000a0: 1876 7f3f 71b1 7f3f 5fa8 7e3f 2d68 7f3f
000000b0: 16f8 7e3f 8dff 7e3f c47d 7f3f e4e2 7e3f
000000c0: a5a4 7f3f 9c5d 7f3f f8fb 7e3f e009 7f3f
000000d0: 040b 803f a388 7f3f e116 7f3f 06ec 7f3f
000000e0: 9a79 7f3f 5c2f 7f3f c5bd 7f3f 3973 7f3f
000000f0: 79b6 7e3f 2af7 7e3f 8da3 7f3f 8ee7 7e3f
0.9958593 0.99687904 0.99673915 0.9956256 0.99630374 0.9980949 0.9994722 0.9958952
0.9958337 0.9961915 0.9965102 0.9958608 0.9971316 0.9977887 1.0010118 0.99801594
0.9983348 0.99896216 1.0005058 0.99644417 0.9962251 0.9969838 0.99574363 1.000011
0.9972811 0.99869317 0.99699885 0.99816275 0.99620825 0.99523777 0.9955202 0.99857455
0.99708736 0.9988343 0.9969566 0.9955482 0.99708235 0.9956983 0.997396 0.99635243
0.9978957 0.9988013 0.99475664 0.99768335 0.995973 0.9960869 0.9980128 0.9956496
0.998606 0.9975221 0.99603224 0.99624443 1.0003362 0.99817866 0.99644285 0.9996952
0.99794924 0.9968164 0.9989894 0.9978519 0.9949718 0.9959589 0.99858934 0.99572074

base.cnn.cnn.8.bias f4 [64]
00000000: d44d 8eba a993 483a e502 a13a 9836 2b3a
00000010: e291 31bb 2e6a b23a 7c09 0139 7ea7 5f3a
00000020: 7aab 8aba 08a7 4a3a 37bb 8fba 63fb 24ba
00000030: 7867 9639 9f62 273a 37bc 9a3a b93c 173a
00000040: 88e0 83b7 835e e13a 7c6f a93a 3c70 c2ba
00000050: c6b4 cf38 85ab 75b8 33ce 1f3a 229b 3c3b
00000060: fd25 f33a 2108 b13a 30a8 673a d57b cd3a
00000070: 0786 9a3a 07b7 52bb 17dd b5ba 32cc 48ba
00000080: 373f 98ba 666b 603a 44dc 9fb9 7ffe 5bba
00000090: b523 89ba 46fd 50ba 298c b4ba 9496 f1ba
000000a0: 03ae ff3a 149e 00ba b11c 67bb 1871 173b
000000b0: 7905 02bb 1adf b5b9 6814 203a c1a0 3739
000000c0: f753 ca39 770c e7b9 6898 d039 e3e7 e83a
000000d0: 8b64 223a 3a15 c93a e23c 73ba fbdd 3e3a
000000e0: a32e 703a d06c 04bb b293 ef3a 6787 89b8
000000f0: 08fc 96bb 0049 1aba 581e 5c39 5067 68ba
-0.0010856935 0.00076513976 0.0012284188 0.00065312674 -0.002709501 0.0013611966 0.00012305932 0.0008531733
-0.0010579668 0.0007730578 -0.0010965829 -0.0006293563 0.0002868732 0.000638524 0.001180536 0.0005769241
-1.5720972e-05 0.0017194304 0.0012926902 -0.0014834474 9.904201e-05 -5.8572292e-05 0.0006096095 0.002877899
0.001855075 0.0013506451 0.00088370126 0.0015677164 0.0011789211 -0.003215255 -0.0013875094 -0.0007659822
-0.0011615519 0.00085609255 -0.00030490954 -0.000839211 -0.0010462912 -0.0007972311 -0.0013774681 -0.0018431717
0.0019506816 -0.0004906368 -0.0035264904 0.002310818 -0.0019839688 -0.00034689234 0.00061065564 0.00017512125
0.00038591 -0.0004406904 0.00039786403 0.0017769303 0.00061947916 0.0015341409 -0.00092787866 0.00072810025
0.0009162223 -0.002020646 0.001827827 -6.55789e-05 -0.004607681 -0.00058855116 0.00020992139 -0.00088654924

rnn.rnn.weight_ih_l0 f4 [192, 64]
00000000: c953 e83c f035 f4bd 2b9e 183e 2bcc 053e
00000010: 2264 56bd 6664 c63c 4164 e33d 2c59 92bd
00000020: 34a1 483d 4e9c c73d 5206 c03d f592 283d
00000030: 1eae e03d 0989 e3bd 1af4 0dbe b9d4 afbd
00000040: 2cda 0a3e ebaf 053d 5c5c 0fbe 913d 9a3d
00000050: b591 d73d b0aa 73bd 4ced 0cbe 0c11 943d
00000060: 9221 15be c0ec f23c 5fd6 183c e668 e73c
00000070: 49c2 61bc aab3 8cbc bff4 e4bd 1ec0 67bc
00000080: f800 9e3d d114 31bd de0d e13c 4f2e e4bc
00000090: abb0 6c3d c861 8e3d ffdd 0cbe f9c0 c2bc
000000a0: e1f5 46bd 36b8 c93d c69c 15be 060f 583c
000000b0: bc72 4a3c 6ca4 e8ba 8b21 06bc 4cef a9bc
000000c0: 7b7b 75bc 1987 36bd d8c0 a73d 8052 bfbc
000000d0: 57e9 be3d 03cd 103e d2cc a3bd 453a 14be
000000e0: 2710 81bc ce25 7dbd b1fd 813d 921d a63d
000000f0: 0dbc 83bd 74b1 003e 39a1 12be 9986 5d3d
00000100: 3c82 d3bc 1301 dc3d 86ea 5cbd b00b a1bd
00000110: c079 bf3d bbab dd3c e428 11bd 1262 14be
00000120: 0e6e 153e c021 2abb f463 97bc b8b7 883c
00000130: 8f71 133e 5327 0c3e 68f3 013d 246a 983d
00000140: 4c97 f03d 5182 1dbd 01c1 d4bd e6c7 563d
00000150: c3cd 7abd 210a da3d 7499 fabd 5317 fcbc
00000160: 7a5a d7bd 2a05 fd3b 590f c8bd f6d3 b6bd
00000170: a867 fe3d 9609 7abd f63f 0f3e 4486 a03d
00000180: 84f9 12bd 0847 a6bc eb90 0a3e a8e1 0ebe
00000190: 99de 083e 214f bfbd 3763 3d3d 94a0 b8bd
000001a0: 688a 543d cb4f f33d d5bf 9e3d 10af efbd
000001b0: dcb7 9e3d 7270 a8bb ad2c b8bb 3e1b 03be
000001c0: 4991 9b3d 98a8 843d b078 7bbd 2ded 303d
000001d0: a1a3 403d 6f67 123e 34ff 2bbd b86f ef3d
000001e0: 5c12 883c f5f9 8a3c 57e2 98bd 0454 673d
000001f0: 50df 153e c853 c3bc f576 96bd 59d0 f03d
00000200: 13ec cebd 6167 d0bd 01b4 1d3d 9f39 44bd
00000210: 9c25 94bc 375e efbc 6092 1abe b5fb c2bd
00000220: 43ce c2bd bc62 94bc 39e2 f33b 056a 0ebe
00000230: 1ec4 cabd de5d da3d e950 39bd f872 fcbd
00000240: e3db 303d 9468 673d 6fa6 903d 81ff c5bd
00000250: a762 f9bd 9bdb bb3d 3d10 af3d bf61 54bd
00000260: cd6c 0a3e e787 103d 9157 3abd 1a38 74bd
00000270: 909c d23c 5ec7 5fbd 52ee 163e 496b 18bd
00000280: 5ff8 a03b 9ac4 80bc 1aa9 8f3b 7bad 263d
00000290: 4bd0 d0bd 8b55 de3d d947 bdbd 4195 05be
000002a0: a84c c3bd 953c 0bbd 92d6 623d 1865 f9bd
000002b0: 312a 703c d889 30bd 2352 033e 9dfc ebbc
000002c0: ae84 bbbd 0287 f73c d2ed f83d 8af7 d63b
000002d0: 1c08 6dbd 5f11 f33d 85ca 0d3e 329e 73bd
000002e0: 8dc0 933c 4f1e 58bc 3154 bb3d c003 ecbd
000002f0: 8926 ebbd 1af9 1b3c 0865 f23d 12ae 16be
00000300: 942f 17bd 2637 05bc d7ef 22bd 2e75 d8bd
00000310: df10 a5bd 51dc a5bd baa6 003e 5553 cabd
00000320: 4781 633d c646 4ebc 1bdd 0abe f3de ec3d
00000330: 68ec d0bc 4105 51bd 6015 693d 3e9b 123e
00000340: e390 01be 9b56 c73d bfd3 173d 353b 963d
00000350: ad03 cdbd 9100 15be a5b6 f93d a02a eb3d
00000360: f7f4 fdbc 6656 bd3d ff99 9d3d 7ffc 0a3e
00000370: e900 673d 85f5 983d a626 f6bd 7bfd 27bd
00000380: 8253 3d3d 6836 253d 6063 86bd 2422 d03d
00000390: 62bd 52bd 08f9 0d3e 3506 a43c edae d93c
000003a0: bbcb 733d 7574 023e 46d3 2dbd 3941 de3d
000003b0: 4c88 e13d 0763 08be 9c42 243d d5b5 943d
000003c0: 39a6 123e cec8 05be 2601 2b3d 614a d93d
000003d0: e20d 9e3d cdc6 bc3d 76bc 96bd f83a 023e
000003e0: f3aa 173e da74 0f3e 6d2a 49bc d8bb 19be
000003f0: 3d36 d73d 6bcc 91bd 3cf5 12be 2adf 14ba
0.028360264 -0.1192435 0.14904086 0.13066165 -0.052341588 0.024217796 0.11103106 -0.071459144
0.04898186 0.0974661 0.093762055 0.041155774 0.1097071 -0.11110122 -0.13862649 -0.085854955
0.13559788 0.03263847 -0.14000076 0.07531274 0.10525838 -0.059488952 -0.13762397 0.07229814
-0.14563587 0.029653907 0.009328454 0.028248262 -0.013779231 -0.017175514 -0.11179494 -0.014144925
0.077150285 -0.043232743 0.027472433 -0.027854113 0.05778567 0.06952244 -0.1375656 -0.023773657
-0.048574332 0.098495886 -0.14610586 0.013187176 0.012356456 -0.0017749197 -0.008186708 -0.020743988
-0.014983053 -0.044562433 0.08191079 -0.023354769 0.0932185 0.14140706 -0.07998051 -0.14475353
-0.015754772 -0.06180363 0.06347216 0.08111109 -0.06432352 0.12567693 -0.14319314 0.05408344
-0.025818937 0.107423924 -0.053934596 -0.07863557 0.09349394 0.027059427 -0.035439387 -0.14490536
0.14592764 -0.0025960058 -0.018480279 0.016689166 0.14398788 0.13686876 0.03172627 0.0744212
0.117476076 -0.038454358 -0.10388375 0.05243673 -0.061231386 0.10646463 -0.122363 -0.03077284
-0.10515304 0.007721563 -0.09768552 -0.08927147 0.124221146 -0.061044298 0.13989243 0.07838109
-0.035882488 -0.020297542 0.13531844 -0.13953269 0.13366164 -0.093412645 0.046237197 -0.09015003
0.051889807 0.11880454 0.07751433 -0.117033124 0.07749912 -0.0051403577 -0.00562056 -0.12803361
0.0759607 0.06477469 -0.061394393 0.04319494 0.04703105 0.1429727 -0.041991428 0.116912305
0.016610317 0.016964892 -0.07465046 0.056476608 0.14635968 -0.023843661 -0.07346908 0.11758489
-0.10103621 -0.10175968 0.038501743 -0.047906514 -0.01808434 -0.02921973 -0.150949 -0.095206656
-0.095119976 -0.018113486 0.0074427393 -0.1390763 -0.09900688 0.10662435 -0.045243178 -0.12326616
0.04317845 0.056496218 0.07062995 -0.09667874 -0.121770196 0.09172746 0.08548019 -0.05185103
0.13518067 0.035285857 -0.045493666 -0.059623815 0.02570942 -0.05463349 0.1473935 -0.03721169
0.0049124206 -0.015718747 0.004384172 0.040692788 -0.10195979 0.1085616 -0.092422195 -0.13045217
-0.095361054 -0.033993322 0.05538041 -0.12177485 0.014658497 -0.043100208 0.12824301 -0.028806979
-0.09156166 0.030215744 0.121547356 0.0065602707 -0.05786906 0.11868548 0.13846786 -0.05947704
0.018036151 -0.01319082 0.091469176 -0.11524153 -0.114819594 0.00951984 0.118356764 -0.1471484
-0.03691061 -0.008130824 -0.03977951 -0.10569225 -0.080598585 -0.08098663 0.12563601 -0.098791756
0.05554321 -0.012590116 -0.13560908 0.11565962 -0.025503352 -0.0510304 0.05690515 0.14317033
-0.12652926 0.097333156 0.03706717 0.073355116 -0.10010467 -0.14550997 0.1219304 0.114827394
-0.031000597 0.09244995 0.07695388 0.13572882 0.056397352 0.07468704 -0.1201909 -0.041013222
0.046222217 0.04033509 -0.06561923 0.10162762 -0.05145014 0.13864529 0.020022491 0.026572669
0.059520464 0.12739737 -0.042437814 0.10852284 0.11012325 -0.13319026 0.040102586 0.07261244
0.14321221 -0.13064882 0.041749142 0.1060989 0.07717492 0.09217606 -0.07360165 0.12717807
0.14811306 0.14009419 -0.0122781815 -0.15013063 0.10508392 -0.07119068 -0.14351362 -0.0005679006

rnn.rnn.weight_hh_l0 f4 [192, 64]
00000000: d93f 1cbd 60ca c9bd 043d 893d fff9 1cbd
00000010: 7cfe fbbb 00dc 333d 09b6 983d de8c 81bd
00000020: 7947 d23c 4d0f 0ebe 3416 063e 3fa0 24bd
00000030: 07b6 103d ca96 42bd 6fb6 3a3d 2336 90bd
00000040: 7c57 613c e525 22bc d492 edbd c860 16be
00000050: 9eb5 803c deef a4bd b7c5 a7bd cb39 903d
00000060: d188 b3bc 9fa2 3a3d 21d9 fbbd eced f4bd
00000070: 6622 87bc c17e 0c3e cf99 0e3e e3a8 123e
00000080: 7f5f 0bbc d469 14be 7e50 b23b aae1 91bd
00000090: f3bd 9f3d 4eab 343d 3d1e ffbd e694 f8bd
000000a0: a515 2e3d 5197 10be ab6e c33d 9cb1 013d
000000b0: 59c2 503d ca0d 0ebe ee67 403d 09f5 51bb
000000c0: 58e7 be3b 8629 3bbd ae1a 68bd a8f5 9abd
000000d0: fcbc a53d 1c12 09be 9ac8 863d bb1b aabd
000000e0: 6871 413b 4f88 c1bd 7c1d b63d 058e d5bd
000000f0: c750 cebc 969a fabd c77c 95bd 7bab 08bd
00000100: 5811 c63c 9f05 d63d 3ca8 41bc 3811 793d
00000110: 77aa a0bd b292 083e d023 58bd d2a3 883d
00000120: d958 013e e5f6 113e 1e11 1abd de90 05be
00000130: ce5b 793d 9b0a b33c 8337 a9bd 4e05 013e
00000140: 34f0 a8bd 5d0f 6a3d 5d81 e03c fb42 513d
00000150: 0240 08be f021 d0bd 9506 813b a092 533d
00000160: eb2f 1bbd 168b b1bd af3c cabd cf72 9dbd
00000170: c7e5 0dbd 7e14 033e 01b8 81bd ab27 903c
00000180: b028 633d 7d50 e03c 455d e83c de58 333b
00000190: 1e4a 0bbe d2f7 8cbd bc3b ccbd 70ba 253d
000001a0: 84fe b93d 09a9 8d3c 4c6e 0c3e 4f22 02be
000001b0: f2d0 f6bd d893 b1bd 2d84 65bd b665 6bbd
000001c0: c443 ed3d 660b 05bc 3e96 dc3d 61c0 bd3c
000001d0: 02bc 963d 83f3 f3bd 46ba d93d 48ac cdbd
000001e0: 3f48 063d 4ca9 14bd 467b 0abe 8ef0 12bd
000001f0: 76d3 e6bd eb34 56bd 5988 123d 3b4f 8a3d
00000200: 64bc 8bbd 5cb8 203d 0241 103e c6b3 2fbd
00000210: de41 5b3d 6992 aebd 4b6c a9bb 06d0 71bd
00000220: 92fc ed3d 9efc d7bd 8bf5 df3c 9e0f 773c
00000230: 743b fe3d 7ec0 6cbd 86a3 f1bd 4de5 f7bc
00000240: 796f 053e 3f11 00be 8351 073e f002 3bbd
00000250: d9a4 2f3d 85be 843c 5c65 ebbc d453 283d
00000260: 19ab d7ba 58f4 19bd 3750 6fbd ff5d 503c
00000270: 2f56 7f3d 8ce1 ea3d 6b33 a83d 0670 a03d
00000280: 923a 8cbd 7cca 93bc 8b41 04be f8b4 ec3c
00000290: 9387 c9bd e167 9abd 1144 a0bd 3bed 2cbd
000002a0: 828d ef3d f176 d63c ec16 e93d d582 fcbc
000002b0: f14a 7dbd 9a5f 95bc c6ff 54bd 7dc6 d23d
000002c0: 67a0 fd3d ed12 043e aac6 02be 0121 d23d
000002d0: 6d78 913d 4c53 353d 98bc ffbd 206b 12be
000002e0: ebe5 803c 822d e63d 3df3 623c 74fb 163e
000002f0: e12f 293d 6d68 183e 232b eabd f76f 8d3d
00000300: ea13 f13d 3b70 babc 3ee7 00be c2b1 053e
00000310: 312d 973c 7d88 1a3d fb12 a43d 2c1a d4bd
00000320: 6535 bdbc c9cb 0cbe c500 b43c 3e15 acbd
00000330: d29f 523c e978 04bd eb59 1b3e 83b2 213c
00000340: f958 693d fc0f 16be 8a6a ddbd 52a4 d6bd
00000350: d0c4 e23c 47bd 12bd 79c9 48bd 27e5 2cbc
00000360: 6aa4 d43d 4159 c33c 7d45 c4bd bd88 57bd
00000370: db85 16be 509a 88bc f867 cebd 9718 21bc
00000380: add3 96bc 006a 6cbd fdbb 763d d0b7 cb3a
00000390: 6188 bd3d d87d ef3d 74ee 96bd 3d68 99bd
000003a0: 5f19 8cbd f3d5 023e a0e1 033e f917 063d
000003b0: 56c7 603d 7510 0abe 00c4 c2bd 1a99 fdbc
000003c0: a030 eb3d 7852 143e e1a7 d9bc 091c 2bbd
000003d0: 0042 793d 1c5e 173e 558d a7bd cd09 133e
000003e0: 881f 44bc 53f0 8fbd 5f91 03be b202 123e
000003f0: 4d77 66bd 6d27 923c 8528 1b3c b8c1 6bbd
-0.038146827 -0.09853053 0.06701091 -0.038324352 -0.007690249 0.04391098 0.074565955 -0.063256964
0.025668846 -0.13873024 0.13094407 -0.040191885 0.035329845 -0.047507085 0.04558414 -0.07041576
0.013753768 -0.00989673 -0.11600271 -0.14685357 0.015711602 -0.080535635 -0.08192008 0.07042273
-0.021915825 0.045565244 -0.122972734 -0.119594425 -0.016495895 0.13720228 0.13925861 0.14322238
-0.008506655 -0.14493495 0.0054417243 -0.0712312 0.07799902 0.04410868 -0.12456939 -0.12137775
0.04250111 -0.14120223 0.095425926 0.031663522 0.050966594 -0.13872448 0.046974115 -0.0032036921
0.005825918 -0.045693897 -0.05666607 -0.075663865 0.080926865 -0.13385814 0.065812305 -0.083060704
0.0029517058 -0.09449827 0.088923424 -0.10427479 -0.025185002 -0.12236516 -0.0729919 -0.03336666
0.024178192 0.10450291 -0.011819895 0.060807437 -0.078450136 0.1333721 -0.05276853 0.06671871
0.12631549 0.14254339 -0.03761398 -0.13043544 0.060878567 0.021855643 -0.08262541 0.1259968
-0.0824894 0.057143558 0.027405435 0.05108927 -0.13305667 -0.10162723 0.003937552 0.051653504
-0.037887495 -0.08669107 -0.09874856 -0.076879136 -0.03464296 0.12800786 -0.06333924 0.01759704
0.055458724 0.02738213 0.028364787 0.0027366201 -0.13602492 -0.068832055 -0.09972331 0.040461004
0.09081748 0.017292516 0.1371395 -0.127084 -0.12051572 -0.08670777 -0.056034256 -0.057470046
0.11585191 -0.008120393 0.10770844 0.023163022 0.073600784 -0.119116805 0.10631232 -0.10042626
0.032783743 -0.036294267 -0.13523588 -0.035873942 -0.11270802 -0.05229656 0.035774563 0.06753393
-0.06823042 0.03923832 0.14087299 -0.042896055 0.053529613 -0.08524019 -0.00517038 -0.059036277
0.116204396 -0.1054623 0.027338764 0.015079407 0.124136835 -0.057800762 -0.11798768 -0.030260706
0.13030805 -0.12506579 0.13214688 -0.0456571 0.04288182 0.016204128 -0.028734855 0.04109557
-0.0016454189 -0.03758654 -0.05842611 0.012717723 0.06233805 0.11468801 0.08212932 0.07833867
-0.06847109 -0.018040888 -0.12915628 0.028894886 -0.09840312 -0.075393446 -0.07825483 -0.042218428
0.11696912 0.026179763 0.11381325 -0.030824104 -0.061839048 -0.018234063 -0.052001737 0.10291765
0.1238411 0.12897845 -0.12771097 0.10260201 0.071030475 0.04426889 -0.12487143 -0.14298677
0.015734633 0.11239149 0.013851938 0.14744359 0.041305427 0.14883585 -0.11434009 0.06906121
0.117713764 -0.022758594 -0.12588212 0.1305609 0.018454166 0.03772782 0.08011433 -0.103565544
-0.02309675 -0.13749613 0.021973023 -0.08402489 0.012855487 -0.03234187 0.1517102 0.009869221
0.056969617 -0.14654535 -0.10811336 -0.1048056 0.027681738 -0.03582504 -0.049020264 -0.010552681
0.10382922 0.02384627 -0.09583566 -0.05262064 -0.146995 -0.016675144 -0.10078424 -0.009832523
-0.018411482 -0.057718277 0.060237873 0.0015542451 0.09254528 0.11693925 -0.073697 -0.07490585
-0.06840777 0.12776928 0.12879038 0.032737706 0.0548776 -0.1348284 -0.0951004 -0.030956794
0.11483884 0.14484584 -0.026569309 -0.041774783 0.060853958 0.14781994 -0.08181254 0.14359207
-0.011970408 -0.0702826 -0.12848423 0.1425884 -0.056266118 0.017841065 0.00947011 -0.05755779

rnn.rnn.bias_ih_l0 f4 [192]
00000000: 691e 1039 11b1 e038 0bf5 c6b8 73ae 1a39
00000010: 4413 39b9 ec25 8cb9 47bd 0239 42f9 a4b9
00000020: 245a 6539 c33f 8a39 f74a 2739 9663 b239
00000030: 4b75 6338 e5a4 8539 7c66 1939 30d6 bf37
00000040: 6aa0 8b38 77b4 cf37 577f aeb8 04a2 6938
00000050: ec60 e838 eccf 4138 7013 3f39 0e9d aab8
00000060: 05ba 9cb8 4145 7f38 4e4a e238 09ce 4b39
00000070: 9467 8438 8491 13b9 49e6 3fb8 f2dc 73b9
00000080: 81ca 7fb8 7363 8939 9f6a deb8 f230 8637
00000090: 2690 85b9 a6d6 c6b9 e1a2 0ab9 60b0 503a
000000a0: a936 d7b8 e70c 3cb6 1805 4139 2aed 3eb8
000000b0: fd6e d338 7da7 2b37 8d33 b3b7 b1e0 8538
000000c0: 1224 b1b8 41f7 10b9 a785 7c39 758c 01b8
000000d0: 8a7d 0b37 f2c1 e939 fc8d fab9 4c65 84b9
000000e0: 1887 d1b9 fdd5 6cb9 3410 f738 aa1a 53b9
000000f0: e081 abb8 8684 85b8 4d31 ffb8 053f b938
00000100: 2869 86ba 31a7 363b 128f 9837 729a a43a
00000110: b787 d53a 8065 4738 85b7 8dba 7a00 d83a
00000120: 4311 42bb afe1 98b9 d452 ceba 095d 663a
00000130: 2182 6f39 ebb8 a5ba 1bb6 a639 e01a 2d3a
00000140: 645c a3b9 9d63 8f38 398b 8eb8 9d40 ec39
00000150: 9772 0d3a 88cd 333a dc03 fb39 6b17 8fb8
00000160: 846c a23a 410f 2bbb 7c31 8ab8 d75c 9238
00000170: f32d 8cba b111 d33a 2b92 263b 17c4 463a
00000180: 94c8 af3a 345c 3eb9 3eb5 a339 2345 8839
00000190: a38f c13a 3939 523a 877c 233a 170b 5d3a
000001a0: e606 ceba 0487 f6ba d729 873a 0349 beba
000001b0: a56a be39 39bf 2eba 038c 023b 98dc 5aba
000001c0: a438 bdba a1f7 49ba 5502 b1ba 989f c0ba
000001d0: 393e aa3a bb45 8eba 1219 d6b9 411d b4ba
000001e0: 3c64 22b9 fd76 9cba aca2 c638 fe20 bbba
000001f0: cbb7 6835 9e40 06bb fba7 36b8 7ef2 b7b9
00000200: bf45 81ba 68bd 703b 16f3 d6b9 658c 583b
00000210: 4766 86ba 3de9 f3ba 752d e5ba 7951 67bb
00000220: 81ce e8ba 2ab0 b13a e171 7b3a cc46 49bb
00000230: 996b 0f38 9d65 223b edb6 95b9 6581 903a
00000240: 6731 9b3a 963a 0fba 9181 2ebb e755 373b
00000250: 0454 85b9 e097 1b3b 2d8e c93a 805e aab9
00000260: ae3b 3139 8d23 fcba 7035 8b3a c40c d639
00000270: 0a3a b5b9 5899 583b 7b5d 22bb 68a0 523b
00000280: 521b 553a 9ef1 0a3b 9fc3 79bb 5381 833a
00000290: 03e1 b93a 1696 093b 0efb b4ba efd0 4dbb
000002a0: 2051 bb3a 0c44 56b9 1902 38ba ede4 2dba
000002b0: 377a edba 7e75 89b8 ca21 2c3b c74d 873a
000002c0: af91 14bb 521b ff39 5bc9 363b e978 793a
000002d0: 4ba0 71b8 5c53 1e3a 008a 2fba 9281 d53a
000002e0: 0e4d 0bbb 274c 0ebb 965f e3b7 e046 2f3a
000002f0: f30a 2ebb 9207 8138 babc f83a c676 f7b9
0.00013744239 0.000107141335 -9.4870185e-05 0.00014751572 -0.00017650152 -0.00026731135 0.00012468277 -0.0003146623
0.00021872722 0.00026368917 0.00015954288 0.00034025003 5.4230255e-05 0.00025490593 0.00014629395 2.2868713e-05
6.657916e-05 2.4760358e-05 -8.3206854e-05 5.5702418e-05 0.00011080675 4.6208428e-05 0.0001822242 -8.1354854e-05
-7.4733085e-05 6.0861235e-05 0.0001079036 0.00019436343 6.3135434e-05 -0.00014073221 -4.575242e-05 -0.00023256594
-6.0985334e-05 0.00026204772 -0.00010605645 1.5996837e-05 -0.00025475136 -0.00037925428 -0.00013221383 0.0007960852
-0.0001026218 -2.8021693e-06 0.00018407812 -4.5520406e-05 0.00010081937 1.0231391e-05 -2.1362468e-05 6.383786e-05
-8.446736e-05 -0.0001382502 0.00024082382 -3.0886808e-05 8.314275e-06 0.00044585724 -0.00047789502 -0.00025252474
-0.0003996424 -0.0002258643 0.00011780896 -0.00020132461 -8.1781065e-05 -6.3666186e-05 -0.000121685305 8.833226e-05
-0.0010254728 0.002787065 1.8186434e-05 0.0012558235 0.0016291057 4.7539826e-05 -0.0010812139 0.0016479634
-0.002961234 -0.00029159847 -0.0015741237 0.0008787667 0.00022841293 -0.0012643611 0.00031797666 0.0006603431
-0.0003115862 6.837326e-05 -6.79702e-05 0.00045061568 0.00053957984 0.00068589346 0.00047877326 -6.823133e-05
0.0012391959 -0.0026101621 -6.58957e-05 6.979115e-05 -0.0010694846 0.0016103295 0.0025416713 0.000758232
0.0013411217 -0.0001815416 0.0003122482 0.00025991452 0.0014767539 0.0008019391 0.00062365126 0.00084321335
-0.0015718609 -0.0018808548 0.0010312152 -0.0014517609 0.0003631908 -0.00066660676 0.001991988 -0.0008348911
-0.0014436436 -0.0007704441 -0.0013504723 -0.0014696 0.0012988514 -0.0010854522 -0.0004083594 -0.0013741628
-0.00015486864 -0.0011937317 9.471676e-05 -0.00142768 8.669419e-07 -0.0020485292 -4.3548625e-05 -0.0003508515
-0.0009862705 0.0036733989 -0.00040998374 0.0033042666 -0.001025387 -0.0018608939 -0.0017484861 -0.0035296364
-0.0017761738 0.0013556529 0.00095918594 -0.0030712364 3.4194065e-05 0.0024779805 -0.00028555785 0.0011024891
0.0011840285 -0.0005463747 -0.002662752 0.0027974786 -0.00025430333 0.0023741648 0.0015377455 -0.00032495335
0.00016902268 -0.0019236669 0.0010620784 0.00040826772 -0.00034566253 0.0033050384 -0.0024774957 0.0032139067
0.0008129376 0.0021201144 -0.0038110984 0.0010033048 0.0014181439 0.0020994 -0.001380773 -0.0031405052
0.0014291145 -0.0002043398 -0.00070193555 -0.0006633539 -0.0018118088 -6.554554e-05 0.0026265257 0.0010322862
-0.0022669842 0.00048657745 0.0027891013 0.0009516613 -5.7608162e-05 0.0006039643 -0.0006696284 0.0016289225
-0.0021255645 -0.002171287 -2.710502e-05 0.00066862814 -0.002655682 6.1526094e-05 0.0018977143 -0.00047200004
