MARL/MAPPO-ATTENTIOAN/onpolicy/scripts/results/Meltingpot/collaborative_cooking__circuit_0/territory__rooms/mappo/check/run101/models/actor_agent0.pt (torch, 795666 bytes, 22 tensors)

base.cnn.cnn.0.weight f4 [32, 3, 3, 3]
-0.09069121 0.16129982 -0.045884445 0.008604141 -0.18053442 -0.0070953965 -0.053441897 -0.1258773
0.15289596 -0.15631083 -0.027888956 -0.012730395 -0.17492199 0.119356744 -0.060439136 0.088000186
0.10797875 0.1737006 0.049994517 0.14823966 0.18046431 0.039609354 -0.03827545 -0.05293818
0.03027236 0.07157485 -0.18331282 0.14502361 0.032175533 -0.18046091 0.062300313 0.12396834
0.07358146 0.16003045 0.004291458 -0.1623409 -0.00020330091 0.14289056 -0.09243278 0.083215475
0.04584705 -0.030521097 0.0014922982 0.08368558 -0.13256913 0.123218186 0.13205865 0.11090731
0.19514622 -0.0077857515 -0.13727854 0.008875292 -0.056033026 0.07017794 0.16482484 -0.106768765
0.0077907196 0.18923798 -0.15569463 -0.032170672 0.18982624 0.13760686 0.058315646 -0.08354268
-0.0183707 -0.17415017 -0.18375385 -0.18260397 0.18818587 0.15453856 0.07906782 -0.047217187
0.16777256 -0.051089436 0.13582541 -0.007715526 -0.0921242 -0.053479604 -0.04184665 -0.17700405
0.06007019 -0.061056934 0.08859109 0.12263116 -0.031925324 0.092859134 0.03814707 0.12932242
-0.1275601 -0.018710965 -0.06642135 0.16939618 -0.17686963 -0.11113645 0.020633927 0.17191836
0.13022459 -0.18423147 -0.13854228 0.18835425 0.026641155 -0.16901773 -0.06308447 0.08396071
-0.042435423 -0.15152614 -0.12187818 -0.102281235 -0.007922996 0.075477004 0.092006125 -0.09527128
-0.03275986 -0.15057065 0.1476853 0.19464806 0.18986982 0.078902505 -0.043042626 -0.0066311494
0.06937338 -0.16933823 0.011795064 -0.15875407 -0.19515812 -0.0065165986 -0.06352846 -0.12436339
0.032584473 0.007892041 0.029641725 -0.10938527 -0.19146042 0.0043027364 -0.07996246 -0.064475626
0.14491321 0.031114627 0.08742804 -0.05463781 -0.15498826 0.039133392 -0.12911631 0.023095911
-0.15098727 0.14845966 -0.1345298 0.16788596 0.13774964 0.14739765 0.11846089 0.04524795
-0.009962625 -0.002892483 -0.07713442 -0.18074596 0.17658544 0.010078778 0.09167029 0.007447198
0.05663092 -0.12077302 -0.15211335 0.14865752 0.07482025 0.09633201 -0.19330709 0.0135901235
-0.18234892 -0.023125466 -0.011085742 -0.13652167 -0.19169636 0.0024546473 0.17568673 0.17632367
-0.117605254 -0.034737103 -0.16304919 -0.15261714 -0.053839467 0.18849635 -0.04985307 0.012218333
0.18379042 0.034453843 0.15793006 0.13088597 0.18329397 0.033892628 -0.1573259 -0.16831127
-0.09975757 0.16170934 0.110915095 0.057021257 -0.1470868 -0.143707 0.15979561 -0.020513797
-0.19505586 -0.023557143 -0.046920948 0.001581808 0.081995875 0.07665781 -0.15020362 -0.0010141517
-0.09719094 0.13172637 0.0980572 0.10789087 0.17641461 0.096532084 -0.19404921 0.04866733
-0.1333559 0.026635164 0.0027318553 0.19237016 -0.13278934 -0.19165517 -0.05312826 0.032047138
0.14264685 0.1592376 0.15063456 0.062142983 -0.055404752 -0.040821165 -0.1068818 0.03729702
-0.13578883 0.06712231 0.12570599 0.16644685 -0.19099857 0.1600558 -0.12143066 -0.016481759
0.17907076 0.104610346 -0.06282928 0.11385568 -0.1911109 0.15235369 0.18795256 -0.009472761
0.030586533 -0.046070404 -0.12458131 -0.08949294 -0.013790044 -0.16091922 -0.1583401 0.020023068
00000000: 50bc b9bd c82b 253e 54f1 3bbd 62f8 0c3c
00000010: 04de 38be 8080 e8bb e4e5 5abd fbe5 00be
00000020: c290 1c3e f20f 20be 6177 e4bc 2693 50bc
00000030: c01e 33be 4f71 f43d 078f 77bd 7139 b43d
00000040: f623 dd3d 92de 313e 0dc7 4c3d 23cc 173e
00000050: a3cb 383e 6b3d 223d b8c6 1cbd b4d5 58bd
00000060: befd f73c d695 923d 5bb6 3bbe 1281 143e
00000070: 7eca 033d bfca 38be 9d2e 7f3d 1de3 fd3d
00000080: e0b1 963d 06df 233e 5c9f 8c3b b13c 26be
00000090: 2c2d 55b9 e751 123e 664d bdbd e06c aa3d
000000a0: 1eca 3b3d 6107 fabc 3899 c33a 5863 ab3d
000000b0: 34c0 07be d159 fc3d 623a 073e 5f23 e33d
000000c0: 69d4 473e 9e1f ffbb bf92 0cbe ac69 113c
000000d0: e382 65bd 74b9 8f3d d8c7 283e 95a9 dabd
000000e0: 4b49 ff3b 9ac7 413e 6a6e 1fbe 65c5 03bd
000000f0: cf61 423e d0e8 0c3e 63dc 6e3d 6d18 abbd
00000100: 267e 96bc 6c54 32be f829 3cbe 89fc 3abe
00000110: ccb3 403e 5b3f 1e3e 4fee a13d cf66 41bd
00000120: 92cc 2b3e 2843 51bd d115 0b3e 86d2 fcbb
00000130: 9dab bcbd 6e0d 5bbd 6567 2bbd 8d40 35be
00000140: 290c 763d d616 7abd 3f6f b53d 0c26 fb3d
00000150: 21c4 02bd ee2c be3d 1a40 1c3d 196d 043e
00000160: 1d9f 02be bd47 99bc eb07 88bd 3176 2d3e
00000170: 501d 35be 829b e3bd 7b08 a93c 5e0b 303e
00000180: 9859 053e 2da7 3cbe 07de 0dbe f0df 403e
00000190: 8d3e da3c fc12 2dbe 6e32 81bd 98f3 ab3d
000001a0: c4d0 2dbd ab29 1bbe 449b f9bd d378 d1bd
000001b0: 74cf 01bc b093 9a3d b56d bc3d 971d c3bd
000001c0: 342f 06bd 312f 1abe d13a 173e d251 473e
000001d0: 3c6d 423e a397 a13d 774d 30bd 1d4a d9bb
000001e0: a113 8e3d 0067 2dbe 1640 413c 6d90 22be
000001f0: 88d7 47be 3189 d5bb 361b 82bd 3cb2 febd
00000200: 4c77 053d 9e4d 013c 34d3 f23c 6205 e0bd
00000210: 330e 44be f8fd 8c3b 5cc3 a3bd cc0b 84bd
00000220: 2164 143e 1ae4 fe3c 790d b33d e5cb 5fbd
00000230: 3eb5 1ebe 564a 203d 1137 04be a333 bd3c
00000240: 689c 1abe cf05 183e 2ec2 09be 4cea 2b3e
00000250: 3e0e 0d3e 69ef 163e a09b f23d ea55 393d
00000260: 473a 23bc d08f 3dbb a7f8 9dbd 7815 39be
00000270: d0d2 343e 7521 253c a2bd bb3d a007 f43b
00000280: d3f5 673d d857 f7bd 9ac3 1bbe ad39 183e
00000290: 5c3b 993d b849 c53d 4bf2 45be 1ca9 5e3c
000002a0: adb9 3abe 9e71 bdbc f9a0 35bc 56cc 0bbe
000002b0: 0d4c 44be 26de 203b 39e7 333e 318e 343e
000002c0: 06db f0bd 7e48 0ebd 5ef6 26be ab47 1cbe
000002d0: c686 5cbd 3005 413e bc32 4cbd 672f 483c
000002e0: 8e33 3c3e 791f 0d3d 6bb8 213e f906 063e
000002f0: 6ab1 3b3e ffd2 0a3d 0a1a 21be ca59 2cbe
00000300: b24d ccbd 2297 253e 7427 e33d 1f8f 693d
00000310: ec9d 16be ee27 13be 76a1 233e 8d0c a8bc
00000320: b9bc 47be e9fa c0bc 2e30 40bd ab54 cf3a
00000330: 74ed a73d c5fe 9c3d face 19be 49ed 84ba
00000340: 0b0c c7bd 47e3 063e 37d2 c83d e3f5 dc3d
00000350: 08a6 343e 9db2 c53d d6b4 46be 6557 473d
00000360: 738e 08be fd31 da3c ed08 333b affc 443e
00000370: eef9 07be 4141 44be 059d 59bd dc43 033d
00000380: 0412 123e 2e0f 233e f23f 1a3e a489 7e3d
00000390: 18f0 62bd 1834 27bd d8e4 dabd c3c4 183d
000003a0: 3a0c 0bbe 6c77 893d 12b9 003e 0b71 2a3e
000003b0: 2195 43be abe5 233e a3b0 f8bd c104 87bc
000003c0: 535e 373e f33d d63d a3ac 80bd 2b2d e93d
000003d0: 93b2 43be 9b02 1c3e a376 403e a433 1bbc
000003e0: 9c90 fa3c 52b4 3cbd 7c24 ffbd 1348 b7bd
000003f0: a3ef 61bc 02c8 24be e823 22be 6b07 a43c

base.cnn.cnn.0.bias f4 [32]
5.833259e-09 9.478775e-09 -2.0073927e-08 -1.3594457e-07 -8.678091e-09 6.408037e-09 -7.703164e-09 7.595985e-09
-9.936558e-09 -6.715885e-08 -5.256734e-09 -1.2416069e-08 5.0735743e-08 8.732258e-09 2.3192593e-08 -1.0387795e-08
1.3347971e-08 -1.3004081e-08 -5.1338056e-08 8.727682e-09 9.3000914e-08 3.5814136e-08 -1.193712e-08 -8.893606e-09
4.3747006e-09 -1.0532121e-08 -3.6796695e-08 -4.0918113e-09 8.802556e-08 3.7225934e-08 -2.2673236e-08 6.469056e-08
00000000: e46d c831 18d8 2232 086f acb2 29f8 11b4
00000010: a616 15b2 b12d dc31 e056 04b2 7f7f 0232
00000020: 72b5 2ab2 f838 90b3 b99e b4b1 734e 55b2
00000030: 8ae8 5933 e004 1632 0d39 c732 0176 32b2
00000040: ff50 6532 8e68 5fb2 ca7e 5cb3 c0f0 1532
00000050: cbb7 c733 0fd2 1933 0214 4db2 7eca 18b2
00000060: 4650 9631 c2f0 34b2 650a 1eb3 f497 8cb1
00000070: 9008 bd33 59e2 1f33 f9c2 c2b2 03ec 8a33

base.cnn.cnn.1.weight f4 [32]
1.0011338 0.9998237 0.99857444 0.99854267 1.0009311 0.9985984 0.99845535 1.001277
1.0002927 0.99851406 0.9993737 0.9997977 0.99859345 0.99998295 1.0003589 0.99869853
0.99875563 1.0012046 0.9995993 1.0013951 0.9993853 0.9983842 0.99899375 0.9987925
0.99867535 0.9984014 0.9995882 0.99870026 0.99870425 1.0009824 1.0007579 0.99944156
00000000: 2725 803f 72f4 7f3f 93a2 7f3f 7ea0 7f3f
00000010: 831e 803f 25a4 7f3f c59a 7f3f d829 803f
00000020: 9709 803f 9e9e 7f3f f4d6 7f3f bef2 7f3f
00000030: d2a3 7f3f e2fe 7f3f c30b 803f b5aa 7f3f
00000040: 73ae 7f3f 7927 803f bde5 7f3f b72d 803f
00000050: b7d7 7f3f 1b96 7f3f 0ebe 7f3f deb0 7f3f
00000060: 30a9 7f3f 3c97 7f3f 03e5 7f3f d2aa 7f3f
00000070: 15ab 7f3f 3120 803f d618 803f 67db 7f3f

base.cnn.cnn.1.bias f4 [32]
0.0011848812 0.0008703906 -0.00034622362 -0.00071829295 0.0015129133 -0.0009981587 0.00047948444 0.0015780705
0.00059857295 -0.0011701346 -0.0005879826 -0.00036780856 -0.0012419816 0.00024543286 0.0008835101 0.00016827726
-4.839684e-05 0.0011784326 -0.00040432054 0.00052422186 -0.0012231782 -0.0016394063 -0.00085011986 -0.0011317069
-0.0010201085 -0.0012829434 -0.00014840477 -0.00021836784 0.0006988189 0.0013205141 0.0009819188 0.00016369647
00000000: 044e 9b3a ed2a 643a 5985 b5b9 d34b 3cba
00000010: f24c c63a a6d4 82ba 5063 fb39 42d7 ce3a
00000020: 8de9 1c3a 345f 99ba d822 1aba 6ed6 c0b9
00000030: fdc9 a2ba 71ad 8039 5c9b 673a 9573 3039
00000040: b6fd 4ab8 a375 9a3a fcfa d3b9 ef6b 093a
00000050: 0d53 a0ba 59e1 d6ba 94da 5eba c855 94ba
00000060: 29b5 85ba 7028 a8ba 1a9d 1bb9 acf9 64b9
00000070: f130 373a 1a15 ad3a bab3 803a f0a5 2b39

base.cnn.cnn.1.running_mean f4 [32]
0.0076770047 0.06764304 0.01457962 -0.020791851 -0.036372922 0.029468628 0.0039843684 -0.012680798
0.029106257 -0.048063915 0.026791323 0.033688806 -0.029306773 0.07555836 0.011742289 -0.002181952
-0.060339406 0.101428136 -0.081482306 0.035192635 -0.012411893 -0.07583151 0.016571062 0.014930417
-0.040723532 0.07461767 0.040715575 0.02102529 -0.009451021 -0.08027315 0.06255705 -0.0327924
00000000: 628f fb3b 6f88 8a3d 5cdf 6e3c ac53 aabc
00000010: c6fb 14bd 3168 f13c 4e8f 823b 1fc3 4fbc
00000020: 3f70 ee3c abde 44bd 7a79 db3c 46fd 093d
00000030: c214 f0bc 57be 9a3d bb62 403c 14ff 0ebb
00000040: 7426 77bd 8eb9 cf3d 32e0 a6bd 2726 103d
00000050: 415b 4bbc 8d4d 9bbd 09c0 873c b59e 743c
00000060: b8cd 26bd 26d1 983d 60c5 263d 3b3d ac3c
00000070: 75d8 1abc 4066 a4bd e91d 803d 5351 06bd

base.cnn.cnn.1.running_var f4 [32]
0.0020205476 0.010192376 0.0030839671 0.0036099718 0.0033633627 0.004127956 0.0025234965 0.0032434182
0.0043431297 0.006031088 0.004016482 0.0031981838 0.0022179675 0.009805317 0.001769158 0.0019868235
0.0063215396 0.0155774765 0.011157084 0.004182059 0.0024805036 0.011204592 0.0018755116 0.0025051225
0.0041335463 0.009107296 0.0040851827 0.0036297808 0.0018643509 0.0103553925 0.008418264 0.0032373595
00000000: 2a6b 043b ecfd 263c 621c 4a3b 4795 6c3b
00000010: dd6b 5c3b ce43 873b 3f61 253b 878f 543b
00000020: d050 8e3b 6fa0 c53b b19c 833b 9f98 513b
00000030: 525b 113b 7ba6 203c 18e3 e73a 5e35 023b
00000040: eb24 cf3b ac38 7f3c 34cc 363c a709 893b
00000050: f28f 223b 7793 373c bad3 f53a fb2c 243b
00000060: b372 873b c536 153c ffdc 853b 9ee1 6d3b
00000070: 3c5d f43a aaa9 293c c2ec 093c e129 543b

base.cnn.cnn.4.weight f4 [64, 2592]
-0.055301953 0.020675287 -0.026261844 0.027957851 0.0023461792 -0.053072568 -0.05024173 -0.015623961
-0.046786953 0.043790583 -0.06670944 -0.043454252 0.02976406 0.015217089 -0.04259241 0.059878066
-0.008568608 0.011354009 0.056000303 0.02524312 0.001230409 -3.403037e-05 0.039483655 0.018714316
0.04602791 -0.04636721 -0.038784407 0.059029058 0.018947534 -0.06472069 0.03316726 -0.015342209
0.034823414 0.056791335 0.047390956 0.027875967 -0.060114354 -0.033650596 0.026360383 -0.02658211
0.028926034 -0.021454947 0.06613794 0.06771311 0.041782066 -0.01948546 0.02879532 -0.03837573
0.010973183 0.0023244803 -0.020307304 0.020246172 -0.047309957 -0.06622165 -0.020743772 0.06011798
-0.038485844 0.015113669 -0.047303528 -0.035529412 -0.060791068 -0.06293435 0.04204836 -0.06567831
0.05850369 0.028351746 -0.06489336 -0.027440995 0.05692168 -0.03041258 -0.034338195 0.05543239
0.06369794 -0.003536276 0.015858032 -0.04922233 0.035629105 -0.014506821 0.009262866 -0.023852358
0.024777936 -0.05152499 -0.035741225 0.03576179 -0.0409692 0.009665611 0.019090492 -0.008237875
-0.02892822 -0.04223167 -0.016564256 0.058745258 0.024387814 0.06447964 -0.04277195 0.027230738
-0.057029217 -0.051034953 0.026188688 0.0013612623 -0.0492438 -0.042535733 0.024726396 0.03726404
0.029707914 0.056101568 0.0072233058 -0.014216084 0.04677326 0.0050177365 -0.003512879 0.0374568
0.0062012146 0.023521295 0.037320033 -0.010349418 0.019230315 -0.056650363 -0.021224998 0.003057709
-0.044340834 0.012387945 0.06456943 0.02254966 -0.011563768 0.06268707 0.055694383 -0.04589251
-0.0269803 0.014061787 0.019766062 0.041038044 0.006451822 0.008179923 -0.02828398 0.0018493906
0.04456444 -0.012124898 0.022285651 -0.042010967 -0.06022416 -0.04320384 -0.0076214974 -0.06548086
-0.01138722 0.051596116 0.034895383 -0.042565092 -0.050833195 -0.0063434173 -0.06637887 0.06611168
0.0043501337 0.016924122 0.0366967 4.6069446e-05 -0.055641722 0.038527064 0.059958443 0.019026373
0.028697707 0.03295156 -0.006700225 -0.0067218565 -0.0038014129 0.030087195 -0.022677392 -0.013828215
0.055013902 0.0100837005 -0.046004992 -0.04174344 -0.019060712 0.011632696 -0.022085221 0.05103631
0.017061304 -0.039055552 -0.038539965 0.033494644 0.03604366 0.05811742 -0.050919678 -0.054076098
-0.054917473 -0.06190465 -0.02967084 0.05830182 -0.012999779 -0.02635142 -0.015563212 0.0071873525
-0.02913132 -0.04445403 -0.0650413 -0.02833791 0.05022966 0.030587083 -0.03908176 0.05131543
-0.04368656 0.053776123 0.016003527 -0.043269202 0.061624426 -0.035876572 0.028069511 -0.056144558
-0.013753059 0.018947283 0.03681007 -0.030522814 0.03392765 0.06550637 0.050492387 0.061115693
0.025421828 -0.033158556 -0.02975232 -0.005176017 -0.022876251 0.054231018 0.018315762 0.060008664
-0.03367522 -0.02627359 -0.040465664 0.037206966 0.031906493 -0.0037129028 0.055827063 -0.05550572
0.008439152 -0.03159185 -0.058702845 0.024605392 -0.04243278 -0.036755163 -0.0029919688 -0.007904468
0.005942069 0.023350757 0.041519906 0.030705258 0.06083194 -0.013158863 0.03985169 -0.02198101
-0.04233943 -0.048886806 0.038077734 0.021021372 0.029741328 0.034950566 -0.03702665 0.044283472
00000000: 4d84 62bd 385f a93c 1423 d7bc dd07 e53c
00000010: 5bc2 193b 9f62 59bd 46ca 4dbd a4fb 7fbc
00000020: ada3 3fbd c15d 333d f59e 88bd 16fd 31bd
00000030: c2d3 f33c 1951 793c 6175 2ebd b442 753d
00000040: 5963 0cbc 2a06 3a3c 9360 653d a9ca ce3c
00000050: ad45 a13a d5bb 0eb8 9db9 213d c44e 993c
00000060: c387 3c3d 8beb 3dbd 66dc 1ebd 74c8 713d
00000070: dc37 9b3c 488c 84bd 65da 073d e35d 7bbc
00000080: ffa2 0e3d 089e 683d 051d 423d 245c e43c
00000090: 783a 76bd 35d5 09bd bbf1 d73c bac2 d9bc
000000a0: 4af6 ec3c 49c2 afbc 5473 873d 2cad 8a3d
000000b0: ac23 2b3d f99f 9fbc 2ae4 eb3c df2f 1dbd
000000c0: dec8 333c 4f56 183b 815b a6bc 4ddb a53c
000000d0: 16c8 41bd 379f 87bd d8ee a9bc 453e 763d
000000e0: 55a3 1dbd 539f 773c 58c1 41bd 4a87 11bd
000000f0: 0e00 79bd b9e3 80bd e73a 2c3d 5a82 86bd
00000100: 91a1 6f3d ec41 e83c cfe6 84bd f0cb e0bc
00000110: b526 693d ce23 f9bc 35a6 0cbd 130d 633d
00000120: 1174 823d dec0 67bb b4e8 813c 5b9d 49bd
00000130: d3ef 113d 04ae 6dbc 47c3 173c 0566 c3bc
00000140: 19fb ca3c de0b 53bd 6465 12bd f47a 123d
00000150: 52cf 27bd 835c 1e3c aa63 9c3c 27f8 06bc
00000160: e0fa ecbc 1efb 2cbd c3b1 87bc de9e 703d
00000170: f4c8 c73c e70d 843d a431 2fbd ff12 df3c
00000180: 7897 69bd 070a 51bd a989 d63c 626c b23a
00000190: deb3 49bd f339 2ebd 038f ca3c 2ea2 183d
000001a0: 035e f33c c2ca 653d 7bb1 ec3b 94ea 68bc
000001b0: 5195 3f3d d36b a43b 5438 66bb 4d6c 193d
000001c0: 8f33 cb3b bbaf c03c e4dc 183d 9b90 29bc
000001d0: e588 9d3c 360a 68bd 0ce0 adbc d863 483b
000001e0: bc9e 35bd cff6 4a3c fa3c 843d 11ba b83c
000001f0: f575 3dbc 1462 803d cb1f 643d c9f9 3bbd
00000200: ca05 ddbc 6963 663c 70ec a13c 8217 283d
00000210: ce69 d33b 1505 063c ceb3 e7bc 4067 f23a
00000220: 3489 363d 82a7 46bc 6690 b63c b113 2cbd
00000230: 9cad 76bd 82f6 30bd c1bd f9bb d41a 86bd
00000240: 7691 3abc 7356 533d 76ee 0e3d bc58 2ebd
00000250: 7836 50bd 71dc cfbb a5f1 87bd 8f65 873d
00000260: 918b 8e3b 75a4 8a3c 474f 163d b13a 4138
00000270: 93e8 63bd 8ece 1d3d fc96 753d 32dd 9b3c
00000280: 7417 eb3c 37f8 063d 908d dbbb 0543 dcbb
00000290: 2021 79bb 6c79 f63c f0c5 b9bc bd8f 62bc
000002a0: 4256 613d 1b36 253c bb6f 3cbd 2bfb 2abd
000002b0: 3625 9cbc 1097 3e3c 11ec b4bc 730b 513d
000002c0: 26c4 8b3c b7f8 1fbd 15dc 1dbd ae31 093d
000002d0: 84a2 133d 880c 6e3d 2791 50bd e67e 5dbd
000002e0: 25f1 60bd bb8f 7dbd 4310 f3bc e4cd 6e3d
000002f0: 06fd 54bc efde d7bc d8fc 7ebc e283 eb3b
00000300: cea4 eebc 6e15 36bd 6034 85bd e824 e8bc
00000310: 9ebd 4d3d c391 fa3c 3214 20bd 2130 523d
00000320: aef0 32bd 5a44 5c3d d419 833c 0c3b 31bd
00000330: e569 7c3d 50f3 12bd 08f2 e53c d6f7 65bd
00000340: 8354 61bc 5537 9b3c 28c6 163d fb0a fabc
00000350: b8f7 0a3d 3428 863d 1bd1 4e3d 7354 7a3d
00000360: 7041 d03c 44d1 07bd 23bb f3bc 949b a9bb
00000370: fa66 bbbc 5821 5e3d f00a 963c a5cb 753d
00000380: 07ef 09bd b63b d7bc 53bf 25bd 5566 183d
00000390: 62b0 023d 2c54 73bb ebaa 643d f759 63bd
000003a0: 5e44 0a3c 7566 01bd 6572 70bd 3f91 c93c
000003b0: ffcd 2dbd 958c 16bd e814 44bb be81 01bc
000003c0: b0b5 c23b 164a bf3c c710 2a3d 9889 fb3c
000003d0: ea2a 793d 4698 57bc 873b 233d 8511 b4bc
000003e0: 1c6c 2dbd 883d 48bd 66f7 1b3d 0335 ac3c
000003f0: 16a4 f33c 5328 0f3d 42a9 17bd 9662 353d

base.cnn.cnn.4.bias f4 [64]
-0.0003464573 0.0012814297 0.00083330827 7.650121e-05 0.00048808166 -0.00041935718 0.0010969281 -0.00021062775
-0.0013032071 0.00056482793 0.0004499717 -0.0013360671 -0.0002718427 -0.00041821026 0.00031608017 0.0005739875
-0.0003435179 0.0006395802 -0.00017856895 0.0007460638 -0.00014190552 0.00084343925 0.000993868 0.00046094414
0.0001142029 0.0007811551 -0.00020965391 -0.00026340637 0.00072457286 0.0006463828 -0.00051906664 0.0007486578
-7.067106e-05 -0.0009828992 -0.0013002217 0.0009694828 0.0014515127 -0.0004396404 1.3694431e-05 0.0004091823
0.0012547097 0.00085065037 -0.0014390254 -0.0005550735 0.0006254938 -0.00011566446 -0.0002503076 -0.0013429944
-0.0003564355 -0.00088273326 -0.00012979406 6.949268e-05 0.00015351706 0.00011716977 -0.00022468572 0.0004794503
-0.0013614378 4.406238e-05 -0.00017316062 -0.00019838124 0.0004755482 0.0004198402 1.4868552e-05 -0.0002533983
00000000: b6a4 b5b9 a5f5 a73a 5f72 5a3a 466f a038
00000010: 36e5 ff39 2bdd dbb9 cdc6 8f3a f5db 5cb9
00000020: 60d0 aaba f610 143a 2eea eb39 f91e afba
00000030: 1c86 8eb9 3b43 dbb9 90b7 a539 a677 163a
00000040: 311a b4b9 80a9 273a 3d3e 3bb9 7e93 433a
00000050: 79cc 14b9 401a 5d3a ad44 823a e0aa f139
00000060: 3780 ef38 6ec6 4c3a 8bd6 5bb9 ce19 8ab9
00000070: 43f1 3d3a 0472 293a f911 08ba 9341 443a
00000080: 3d35 94b8 a0d4 80ba 336c aaba e424 7e3a
00000090: af40 be3a 897f e6b9 22c1 6537 8587 d639
000000a0: 1275 a43a 2efe 5e3a ae9d bcba 5a82 11ba
000000b0: 2ef8 233a e290 f2b8 b83b 83b9 6a07 b0ba
000000c0: f7df bab9 3a67 67ba 5419 08b9 99bc 9138
000000d0: 6cf9 2039 0bb9 f538 9d99 6bb9 bb5e fb39
000000e0: 4672 b2ba 9fcf 3838 7392 35b9 8f04 50b9
000000f0: 0053 f939 ff1d dc39 f273 7937 8bda 84b9

base.cnn.cnn.5.weight f4 [64]
0.99898064 1.0009012 0.99992746 0.99888045 0.9991324 0.9986345 1.0009992 1.0002515
0.99862534 1.0002892 0.9995851 0.9983863 0.99936354 0.9985858 0.99970675 1.000206
0.9988126 0.99894476 0.9989734 0.9998407 0.9987416 1.0000294 0.999103 0.9994184
0.9990183 0.9995464 0.9989187 0.99921155 0.99991554 0.9998121 0.9986416 0.9993296
0.9993695 0.99882215 0.9987086 0.9996426 1.0014619 0.9984861 0.9988631 0.9987321
1.0012715 1.0005314 0.998326 0.9987033 0.99936724 0.99900156 0.9989898 0.99865526
0.9987035 0.9987451 0.9987895 0.9986766 0.99897003 0.99884075 0.99989665 0.9995274
0.9987028 0.9989545 0.9988441 0.99962705 0.999575 0.99967206 0.9988972 0.99871415
00000000: 32bd 7f3f 881d 803f 3ffb 7f3f a1b6 7f3f
00000010: 24c7 7f3f 83a6 7f3f be20 803f 3e08 803f
00000020: e9a5 7f3f 7a09 803f cfe4 7f3f 3f96 7f3f
00000030: 4ad6 7f3f 52a3 7f3f c8ec 7f3f c006 803f
00000040: 2fb2 7f3f d8ba 7f3f b9bc 7f3f 8ff5 7f3f
00000050: 88ad 7f3f f700 803f 37c5 7f3f e2d9 7f3f
00000060: aabf 7f3f 46e2 7f3f 23b9 7f3f 54cc 7f3f
00000070: 77fa 7f3f b0f3 7f3f faa6 7f3f 11d4 7f3f
00000080: aed6 7f3f cfb2 7f3f 5eab 7f3f 94e8 7f3f
00000090: e72f 803f c99c 7f3f 7eb5 7f3f e8ac 7f3f
000000a0: aa29 803f 6a11 803f 4b92 7f3f 05ab 7f3f
000000b0: 88d6 7f3f 91be 7f3f ccbd 7f3f dfa7 7f3f
000000c0: 08ab 7f3f c2ad 7f3f abb0 7f3f 45a9 7f3f
000000d0: 80bc 7f3f 07b4 7f3f 3af9 7f3f 07e1 7f3f
000000e0: fdaa 7f3f 7bbb 7f3f 3fb4 7f3f 8fe7 7f3f
000000f0: 26e4 7f3f 82ea 7f3f bab7 7f3f bbab 7f3f

base.cnn.cnn.5.bias f4 [64]
-0.00018058324 0.0010135251 0.0004798204 0.00015774861 0.00031400507 -0.0005760762 0.0012489617 -0.00025730324
-0.0013082365 0.0008253283 0.0005326534 -0.001373163 -0.00065543747 -0.00086577 0.00027452532 0.00031907458
-0.00040016335 0.00080133905 0.00028467114 0.0006528184 -0.0005229621 0.0009744769 0.0006831384 0.00011844605
-9.4236064e-05 0.00086425355 -0.0005970177 -0.0005693942 0.0005537569 0.00033142694 -0.0009992783 0.00069836894
-3.732624e-05 -0.00074179133 -0.0011890489 0.00041462592 0.0013939984 -0.0010901858 -0.0007223079 9.8087374e-05
0.000932871 0.0007250823 -0.0016070805 -0.0006395024 0.0006300648 -0.0004782734 -0.00055553135 -0.0009419312
-0.00074065314 -0.0010648582 -0.00082028215 0.00081149413 -0.00026626026 -0.00026137676 1.8036286e-05 0.00029348797
-0.0012321254 -0.0004122827 -0.00030456236 0.0003640564 0.00030406093 0.0002688734 -0.00018487353 -0.0005805601
00000000: f25a 3db9 42d8 843a 6790 fb39 5269 2539
00000010: 0ca1 a439 d203 17ba 33b4 a33a a8e6 86b9
00000020: 2279 abba d85a 583a c4a1 0b3a b4fb b3ba
00000030: aad1 2bba d7f4 62ba 2aee 8f39 7749 a739
00000040: 04cd d1b9 f410 523a ea3f 9539 e721 2b3a
00000050: 6417 09ba 0a74 7f3a a414 333a 3d66 f838
00000060: 9aa0 c5b8 138f 623a 2e81 1cba 6643 15ba
00000070: ff29 113a 5fc3 ad39 37fa 82ba bf12 373a
00000080: bf8e 1cb8 c674 42ba dcd9 9bba 2662 d939
00000090: d3b6 b63a 91e4 8eba 4359 3dba 42b4 cd38
000000a0: ea8b 743a 7313 3e3a aca4 d2ba 48a4 27ba
000000b0: ef2a 253a c5c0 fab9 14a1 11ba efeb 76ba
000000c0: 6428 42ba b692 8bba 3408 57ba 73ba 543a
000000d0: d998 8bb9 6509 89b9 a14c 9737 4adf 9939
000000e0: 457f a1ba a627 d8b9 abad 9fb9 d3de be39
000000f0: 5e6a 9f39 94f7 8c39 9cda 41b9 bb30 18ba

base.cnn.cnn.7.weight f4 [64, 64]
-0.16074866 0.08745812 0.23374866 -0.042884134 -0.2750843 0.020980489 0.20355381 -0.27620772
0.12312121 -0.17695518 0.30428693 -0.28636274 -0.2826478 -0.07553856 0.09763851 -0.13651864
0.23007718 -0.038360525 0.3063111 0.11748646 -0.17013916 0.20519736 -0.023138251 0.21375099
0.09526215 0.24020408 0.17126584 -0.0079823965 0.22260131 -0.0987219 -0.19359711 0.16680141
-0.052260224 0.008720874 -0.07932672 -0.08546019 -0.06884039 0.2081537 -0.16820413 0.2814307
0.090906665 -0.049596574 0.2714415 -0.19806507 -0.19946969 0.031874586 -0.14080529 0.02810795
0.094851196 0.1888455 0.1949971 -0.12319351 0.0045020105 0.0665097 0.0006894267 -0.1105094
0.21314074 0.015749836 -0.28645554 -0.1876609 0.21574275 -0.123873286 -0.08809798 0.17498736
0.2745066 0.14640447 0.2878785 -0.16698511 -0.13427816 -0.13481198 0.1833066 0.24176435
0.25428623 -0.109948136 -0.29002902 0.05677981 0.1406707 -0.14354034 -0.10652179 -0.087420605
0.2848154 -0.14945683 0.2375246 0.0012391023 -0.022948606 -0.07156746 -0.30234364 0.16073653
0.05533451 0.20291047 -0.09864627 0.27308074 0.25392303 0.105017416 -0.29987642 0.27527478
0.22294818 -0.13600208 0.17437983 -0.28680837 0.295502 -0.29183018 -0.14100161 -0.27261457
-0.20854901 0.075893134 -0.2853569 0.19558203 0.27270564 -0.17161606 -0.24866107 0.014430196
0.19048442 -0.15102917 0.16942127 -0.22433172 0.10842699 0.30391428 0.11338844 0.16697074
-0.14651257 0.10148316 0.06569571 -0.059449095 -0.0015111458 0.11751227 -0.058011997 -0.17552032
-0.16719845 -0.20267658 0.06114853 -0.29290262 -0.2968846 -0.12377698 -0.09169945 -0.29971197
-0.29021043 -0.050921556 0.13265258 0.20243882 0.24055567 0.23720235 -0.0685805 0.0036247112
-0.17121466 -0.16644323 -0.17116474 0.0979784 0.12734573 -0.12866868 0.14488961 0.12646098
0.118231736 -0.0944372 -0.019030929 0.13692188 0.26773936 -0.19375786 0.26724207 0.16366298
-0.17978196 -0.12931497 -0.23505647 0.0033372368 -0.26673365 -0.24406704 -0.12847012 -0.17604603
-0.1503619 0.009274184 -0.17113997 0.2486124 0.21633054 -0.12739249 -0.024497662 0.12925592
-0.28296584 0.25224495 0.25031114 0.08114135 0.0061785253 0.02507085 0.0115485 -0.26911888
-0.20541881 -0.15992954 0.23584473 0.19926883 -0.15482043 -0.21955201 -0.11521877 -0.28932106
0.008151333 -0.04894873 -0.15364407 -0.25918993 -0.1359811 -0.16820675 -0.05877296 0.15851331
0.25633898 0.25377294 0.29052585 0.024806125 -0.28954154 -0.2973944 -0.17826003 -0.08784225
0.13098875 -0.04180528 -0.21012841 -0.098991305 -0.20922725 -0.2915798 0.12907915 0.23017189
0.07432832 -0.2041163 0.1561894 -0.11069434 0.28576335 0.09064788 -0.2299929 -0.15757576
-0.10947654 -0.27318287 -0.12632439 -0.20711932 0.09164215 0.19356285 0.110656776 0.041559707
-0.014910493 0.08710854 -0.020168526 -0.1317211 0.108413875 0.1359516 -0.04107825 0.0031736367
0.0032216543 0.12197128 0.14968352 -0.2724279 -0.096919626 -0.21347766 0.113363676 -0.060719356
-0.03899626 0.16566515 -0.07044333 -0.07681828 -0.13423544 -0.3056446 0.035140064 -0.28138945
00000000: 4c9b 24be 3e1d b33d cf5b 6f3e 46a7 2fbd
00000010: d9d7 8cbe 46df ab3c 6970 503e 196b 8dbe
00000020: f926 fc3d bd33 35be 7fcb 9b3e 239e 92be
00000030: 36b7 90be f6b3 9abd b3f6 c73d 8bcb 0bbe
00000040: 5a99 6b3e ed1f 1dbd cfd4 9c3e be9c f03d
00000050: f638 2ebe 421f 523e 6e8c bdbc 8ae1 5a3e
00000060: cd18 c33d 0ff8 753e 5060 2f3e 99c8 02bc
00000070: 99f1 633e b52e cabd 523e 46be fdcd 2a3e
00000080: d10e 56bd ffe1 0e3c 0c76 a2bd c105 afbd
00000090: 31fc 8cbd 3e26 553e b43d 2cbe af17 903e
000000a0: 462d ba3d c725 4bbd 61fa 8a3e 92d1 4abe
000000b0: c841 4cbe ed8e 023d 432f 10be a542 e63c
000000c0: 5841 c23d b760 413e 52ad 473e e14c fcbd
000000d0: 9a85 933b 3d36 883d a5ba 343a c152 e2bd
000000e0: 9141 5a3e cd05 813c 4daa 92be 2e2a 40be
000000f0: abeb 5c3e 47b1 fdbd b76c b4bd e32f 333e
00000100: 218c 8c3e 0eeb 153e d064 933e 25fe 2abe
00000110: 3780 09be 270c 0abe bab4 3b3e 1391 773e
00000120: ce31 823e 7d2c e1bd af7e 94be f291 683d
00000130: fb0b 103e 3dfc 12be 1928 dabd 9309 b3bd
00000140: 53d3 913e 360b 19be a639 733e 6069 a23a
00000150: b7fe bbbc f691 92bd c9cc 9abe 1e98 243e
00000160: 70a6 623d c3c7 4f3e 0e07 cabd 3dd1 8b3e
00000170: 3302 823e 5f13 d73d 6789 99be d1f0 8c3e
00000180: 874c 643e 2144 0bbe a090 323e 8cd8 92be
00000190: 0a4c 973e c46a 95be ba62 10be 2394 8bbe
000001a0: df8d 55be dc6d 9b3d 4d1a 92be a846 483e
000001b0: 13a0 8b3e 1fbc 2fbe 02a1 7ebe a16c 6c3c
000001c0: 590e 433e 64a7 1abe c57c 2d3e 37b7 65be
000001d0: f80e de3d a79a 9b3e 3338 e83d 61fa 2a3e
000001e0: 6407 16be 67d6 cf3d 798b 863d e580 73bd
000001f0: a411 c6ba 46aa f03d fd9d 6dbd 99bb 33be
00000200: 1236 2bbe 738a 4fbe e276 7a3d 55f7 95be
00000210: 4201 98be c97e fdbd eccc bbbd d973 99be
00000220: 7696 94be 1f93 50bd 14d6 073e 1f4c 4f3e
00000230: 3a54 763e 2ce5 723e ef73 8cbd 908c 6d3b
00000240: e552 2fbe 1870 2abe cf45 2fbe e6a8 c83d
00000250: eb66 023e b9c1 03be f15d 143e fd7e 013e
00000260: 7b23 f23d 4a68 c1bd c0e6 9bbc 4035 0c3e
00000270: 2215 893e 7668 46be f4d3 883e 4597 273e
00000280: c318 38be 256b 04be a5b2 70be 8bb5 5a3b
00000290: 5091 88be b6ec 79be ac8d 03be 6945 34be
000002a0: 78f8 19be bff2 173c 513f 2fbe 4094 7e3e
000002b0: c185 5d3e 2d73 02be 52af c8bc aa5b 043e
000002c0: e6e0 90be 4026 813e c828 803e 702d a63d
000002d0: 3a75 ca3b 6261 cd3c eb35 3d3c f3c9 89be
000002e0: 4f59 52be 92c4 23be 4881 713e 210d 4c3e
000002f0: 3f89 1ebe 3ed2 60be d2f7 ebbd e421 94be
00000300: 2b8d 053c 777e 48bd df54 1dbe 8bb4 84be
00000310: a13e 0bbe 643e 2cbe eabb 70bd 5051 223e
00000320: dd3e 833e 87ee 813e cebf 943e 3736 cb3c
00000330: ca3e 94be 1444 98be cc89 36be a3e6 b3bd
00000340: ea21 063e 033c 2bbd e72b 57be f4bb cabd
00000350: ab3f 56be f349 95be 532d 043e 2eb2 6b3e
00000360: 7239 983d dd03 51be 1df0 1f3e b7b3 e2bd
00000370: 934f 923e 99a5 b93d 4283 6bbe 8a5b 21be
00000380: 3c35 e0bd a0de 8bbe 2e5b 01be 1617 54be
00000390: e1ae bb3d 5735 463e 05a0 e23d 833a 2a3d
000003a0: 244b 74bc f665 b23d 7738 a5bc e5e1 06be
000003b0: 1808 de3d e536 0b3e ab41 28bd cafc 4f3b
000003c0: 6422 533b 14cc f93d a346 193e ab7b 8bbe
000003d0: cc7d c6bd e399 5abe 372b e83d dcb4 78bd
000003e0: 8bba 1fbd 20a4 293e 9844 90bd e752 9dbd
000003f0: 0475 09be 737d 9cbe 07ef 0f3d 4712 90be

base.cnn.cnn.7.bias f4 [64]
0.001232293 -0.0009923666 5.3010917e-05 8.255164e-05 0.00034223776 -0.000604203 -0.0010421952 0.00058566575
-0.00056531554 -0.00022172612 -0.0005906783 0.0013129016 0.0011203462 -0.0010869288 0.00069266354 0.0011661024
-0.0016378884 -0.0008728341 -0.00035947023 -0.0007761019 -0.0008026497 -0.00060497876 -0.0015308571 0.00095708517
-9.052767e-05 -0.00053067354 0.0007141506 -0.00030561627 2.0728703e-05 0.0016378579 0.0011988159 0.0012686062
0.00093699526 0.00053176197 0.0015851317 -0.0010272335 -0.00023163241 0.0014080079 -0.0006523853 -0.0007014343
0.0011020183 -0.00011884168 0.00023580196 -0.00065653765 0.00018657696 0.00026655884 -0.00030179508 -6.861191e-05
0.00020119785 0.0010328094 0.0007099044 -0.00016483925 2.7978485e-05 -0.0005397498 0.00034725867 -0.0004705365
8.645084e-05 -0.001623859 -0.00035642614 0.0010623366 -0.0016397454 0.00031360803 -0.00013020863 -0.00036138628
00000000: e484 a13a 4c12 82ba 0a58 5e38 931f ad38
00000010: 606e b339 6163 1eba 459a 88ba 5d87 193a
00000020: af31 14ba 277f 68b9 c0d7 1aba ab15 ac3a
00000030: 95d8 923a 4777 8eba dd93 353a e7d7 983a
00000040: 6aae d6ba e8ce 64ba 4777 bcb9 5173 4bba
00000050: e968 52ba 7097 1eba 0aa7 c8ba e6e4 7a3a
00000060: acd9 bdb8 e61c 0bba d635 3b3a 1f3b a0b9
00000070: 8de2 ad37 64ad d63a 9621 9d3a 5c47 a63a
00000080: b0a0 753a f165 0b3a 32c4 cf3a 3da4 86ba
00000090: 5ae2 72b9 e88c b83a d604 2bba 76e0 37ba
000000a0: 9971 903a a43a f9b8 9b41 7739 7f1b 2cba
000000b0: dfa3 4339 ecc0 8b39 403a 9eb9 bde3 8fb8
000000c0: a3f8 5239 555f 873a e118 3a3a b3d8 2cb9
000000d0: 57b3 ea37 ff7d 0dba 4510 b639 57b2 f6b9
000000e0: f14c b538 abd7 d4ba b5de bab9 1a3e 8b3a
000000f0: baec d6ba c26b a439 9d88 08b9 7278 bdb9

base.cnn.cnn.8.weight f4 [64]
1.0005126 0.99863905 0.99893934 0.9989406 0.9997855 0.9987634 0.9986343 0.99929726
0.99864435 0.99896383 0.99881023 1.0011991 0.9997903 0.9993061 0.9992291 1.0003442
0.99842423 0.99876946 0.9989234 0.99893916 0.9989205 0.998904 0.99868727 0.9993615
0.9989534 0.9986879 0.99981177 0.9988235 0.9989526 1.0001945 0.99923176 1.0007741
0.99939865 0.99967 1.0012677 0.9993821 0.9988071 1.0006509 0.99871165 0.9987203
0.99980086 0.9988797 0.998927 0.9990028 0.99924886 0.99984545 0.99863046 0.9989434
0.9995539 1.0006326 0.9995151 0.9988531 0.99871314 0.9990581 0.9990134 0.99905354
0.99940807 0.99849373 0.99898785 1.0000197 0.99835426 0.99996084 0.998653 0.9988858
00000000: cc10 803f cfa6 7f3f 7dba 7f3f 92ba 7f3f
00000010: f1f1 7f3f f5ae 7f3f 7fa6 7f3f f2d1 7f3f
00000020: 28a7 7f3f 18bc 7f3f 07b2 7f3f 4b27 803f
00000030: 42f2 7f3f 86d2 7f3f 7acd 7f3f 470b 803f
00000040: bb98 7f3f 5baf 7f3f 72b9 7f3f 7aba 7f3f
00000050: 41b9 7f3f 2cb8 7f3f f8a9 7f3f 28d6 7f3f
00000060: 69bb 7f3f 03aa 7f3f aaf3 7f3f e6b2 7f3f
00000070: 5cbb 7f3f 6006 803f a7cd 7f3f 5e19 803f
00000080: 97d8 7f3f 60ea 7f3f 8a29 803f 81d7 7f3f
00000090: d2b1 7f3f 5415 803f 91ab 7f3f 22ac 7f3f
000000a0: f3f2 7f3f 94b6 7f3f aeb9 7f3f a6be 7f3f
000000b0: c6ce 7f3f dff5 7f3f 3fa6 7f3f c1ba 7f3f
000000c0: c4e2 7f3f bb14 803f 39e0 7f3f d6b4 7f3f
000000d0: aaab 7f3f 46c2 7f3f 58bf 7f3f f9c1 7f3f
000000e0: 35d9 7f3f 499d 7f3f abbd 7f3f a500 803f
000000f0: 2594 7f3f 6ffd 7f3f b9a7 7f3f fbb6 7f3f

base.cnn.cnn.8.bias f4 [64]
0.0012187577 -0.0010685781 -4.0862567e-05 8.207396e-05 4.408736e-05 -0.0007317283 -0.0010270096 0.0004703018
-0.0007024396 -0.00024631358 -0.0005472868 0.0012365853 0.0011618929 -0.0011133625 0.0007556695 0.0011754307
-0.001617356 -0.0008091179 -0.00031595686 -0.00078711443 -0.0009530635 -0.0006103222 -0.0015181173 0.00086364103
-0.0001032359 -0.00054839597 0.0005753645 -0.000305245 2.1208032e-05 0.0016062398 0.0011434404 0.0011709876
0.0008782092 0.0004632403 0.0015866429 -0.00073277956 -0.00026069337 0.0014560936 -0.00071062846 -0.0004985298
0.0011112422 -0.00012568278 0.00020435343 -0.0006551627 0.00015497996 0.00022877644 -0.0003861322 -6.921158e-05
3.5194324e-05 0.0007701862 0.0003962545 -0.00028639316 -0.0002601286 -0.0006166117 0.00015355792 -0.00051491783
4.024334e-06 -0.0016383623 -0.00042590144 0.0010432989 -0.0016586931 0.00024975455 -0.00020392037 -0.0004726333
00000000: b9be 9f3a 880f 8cba d963 2bb8 1f1f ac38
00000010: 71ea 3838 74d1 3fba b99c 86ba d792 f639
00000020: ec23 38ba a623 81b9 cc77 0fba eb14 a23a
00000030: a84a 983a 3fee 91ba 1f18 463a e910 9a3a
00000040: 76fd d3ba fc1a 54ba 03a7 a5b9 5b56 4eba
00000050: 02d7 79ba 08fe 1fba 90fb c6ba f865 623a
00000060: 5a80 d8b8 3bc2 0fba 0fd4 163a 4a09 a0b9
00000070: e7e7 b137 7788 d23a 7edf 953a d37b 993a
00000080: 9f37 663a 10df f239 e7f6 cf3a 0118 40ba
00000090: acad 88b9 65da be3a 7849 3aba c5af 02ba
000000a0: 1aa7 913a b7c9 03b9 b547 5639 39bf 2bba
000000b0: 1e82 2239 b5e3 6f39 c971 cab9 af25 91b8
000000c0: 9e9d 1338 52e6 493a 61c0 cf39 0a27 96b9
000000d0: df61 88b9 1ca4 21ba 6404 2139 8dfb 06ba
000000e0: c408 8736 51be d6ba 864b dfb9 4dbf 883a
000000f0: 8168 d9ba 7df1 8239 75d3 55b9 c5cb f7b9

rnn.rnn.weight_ih_l0 f4 [192, 64]
-0.01300655 -0.019341607 -0.13249168 -0.11129613 0.003523518 -0.009376805 -0.0612973 0.07704454
-0.042827915 0.12870707 0.03040666 0.09210407 -0.097221516 -0.027626088 0.07646781 -0.120203316
-0.005950528 0.12703015 -0.017253317 0.08682294 -0.08546313 0.10428595 -0.12502792 -0.07980244
0.076827034 0.09375606 0.06483639 0.12662509 -0.034506887 0.011170141 0.038316764 -0.058992874
-0.12892585 -0.018263243 -0.057943087 0.10567684 -0.056482755 -0.036848467 0.08299581 -0.06464662
0.06465268 -0.07200489 0.09118375 -0.08020996 -0.12789516 -0.10595137 -0.012223378 0.06746322
0.06373232 -0.09695417 0.11114976 0.041939165 -0.12677741 0.032728277 0.03279822 -0.009715263
-0.13771832 -0.07520794 0.11823492 0.111706436 -0.12874624 0.13370165 0.063886404 -0.040497925
0.016081093 0.123400554 -0.10607603 -0.05715599 -0.076028004 -0.062052086 0.08761622 -0.09521021
0.038467593 -0.0120576015 0.0941954 0.072776 -0.070708774 0.13232552 0.13478276 0.068176106
-0.060304735 -0.054769 0.1332734 0.031725537 0.12770851 0.06668805 -0.06130123 0.024861787
0.0514614 -0.13482253 -0.049934853 0.040113416 0.07377511 0.1377182 -0.08433194 -0.14731103
0.11181624 0.14443631 0.033826854 0.014396228 0.038237147 0.060778063 0.13527678 -0.14082634
-0.07471873 0.017220793 0.07461297 -0.13888463 -0.14378284 0.010239411 0.05839279 0.14929758
-0.105220966 -0.14867303 0.14207748 -0.06902507 0.0903644 -0.111164816 -0.1477433 0.008928495
0.018223599 0.008729061 -0.10735468 -0.07393612 -0.107681744 -0.11134712 0.1317051 0.097458966
0.09858572 -0.055783287 0.0235703 0.13027996 -0.012154936 -0.080239415 -0.054820266 -0.14520292
0.035173442 0.060822837 0.09498672 -0.052904524 0.047609054 0.10705907 -0.12207726 -0.13636558
-0.06265979 -0.061934784 -0.02446464 -0.14524361 0.113449655 -0.051188473 0.034939732 -0.0997365
0.019318795 0.03865978 -0.07721844 0.13293438 -0.10616458 0.07775859 0.14485145 -0.05896903
-0.10076459 0.11192181 0.13269623 -0.008173807 0.040921133 0.007103356 -0.098790966 0.11113686
-0.008311738 -0.085886806 0.092798606 -0.080582775 0.0091576865 0.037803013 -0.018370483 0.06099727
0.021490183 -0.07395795 0.049954098 0.01956017 0.073339395 -0.012465943 -0.068029225 0.020293145
-0.15170202 -0.15228677 -0.12185281 -0.05667503 -0.050893683 0.067102246 -0.1512872 -0.027093314
0.075286366 0.11834068 0.15099387 0.0024195723 0.10986722 -0.08712705 0.06584396 0.079393774
-0.056440026 0.023928065 0.06908464 0.12170034 0.022236343 0.085740946 -0.14095451 -0.021599716
0.046604015 -0.12913656 0.049178448 0.04924997 0.13602114 0.066404246 -0.1439039 -0.00019353692
0.101434 -0.123666115 0.020686846 0.13117036 -0.013376404 0.027529847 0.093289465 0.030674888
-0.07013126 -0.054539423 -0.09696562 0.12339814 -0.14156039 -0.039279595 0.033891365 -0.07732527
-0.055068523 0.07966177 0.09275518 0.014481237 -0.064776644 -0.13588236 0.12893046 0.021766538
-0.08837709 0.076395996 -0.091010764 -0.025232993 -0.13819918 0.13556124 0.07149238 -0.06828739
0.097255126 -0.113351755 0.07050533 -0.06149752 0.12957446 -0.06516625 0.10296099 -0.09226813
00000000: 6d19 55bc 4a72 9ebc e6ab 07be 3aef e3bd
00000010: d3ea 663b 2ca1 19bc e112 7bbd 87c9 9d3d
00000020: 536c 2fbd c9cb 033e 6317 f93c 0fa1 bc3d
00000030: 131c c7bd 1b50 e2bc 289b 9c3d 282d f6bd
00000040: a6fc c2bb 3114 023e d456 8dbc 3ad0 b13d
00000050: 4b07 afbd df93 d53d 5207 00be 766f a3bd
00000060: 7e57 9d3d 2d03 c03d f1c8 843d 02aa 013e
00000070: 1857 0dbd f802 373c 0af2 1c3d 83a2 71bd
00000080: 2305 04be cc9c 95bc bb55 6dbd 196d d83d
00000090: 765a 67bd 6bee 16bd b5f9 a93d 7265 84bd
000000a0: a068 843d 4d77 93bd 8cbe ba3d 1f45 a4bd
000000b0: f3f6 02be 08fd d8bd 9044 48bc 282a 8a3d
000000c0: 1786 823d e88f c6bd 7ca2 e33d 67c8 2b3d
000000d0: f0d1 01be 160e 063d 6d57 063d c42c 1fbc
000000e0: 0806 0dbe 9f06 9abd 2625 f23d 58c6 e43d
000000f0: 0ed6 03be 16e9 083e e0d6 823d 27e1 25bd
00000100: 7fbc 833c 6eb9 fc3d 643e d9bd 661c 6abd
00000110: 92b4 9bbd 542a 7ebd 2270 b33d 92fd c2bd
00000120: 3290 1d3d 3f8d 45bc 85e9 c03d 950b 953d
00000130: c3cf 90bd 5780 073e 7e04 0a3e ea9f 8b3d
00000140: 1902 77bd 7555 60bd d278 083e a3f2 013d
00000150: 05c6 023e bf93 883d 0017 7bbd f2aa cb3c
00000160: 30c9 523d eb0e 0abe 7d88 4cbd f74d 243d
00000170: 6817 973d 0006 0d3e 39b6 acbd b4d8 16be
00000180: eaff e43d 1de7 133e 078e 0a3d 28de 6b3c
00000190: 8e9e 1c3d 6bf2 783d ff85 0a3e c834 10be
000001a0: 2206 99bd 9f12 8d3c afce 983d c637 0ebe
000001b0: cf3b 13be 34c3 273c 472d 6f3d 77e1 183e
000001c0: 177e d7bd be3d 18be c27c 113e 045d 8dbd
000001d0: f810 b93d 61aa e3bd 054a 17be d348 123c
000001e0: a849 953c 5604 0f3c c5dc dbbd d26b 97bd
000001f0: 3f88 dcbd f509 e4bd b4dd 063e 9198 c73d
00000200: 4fe7 c93d 047d 64bd 8016 c13c 1c68 053e
00000210: 7f25 47bc 9054 a4bd 378b 60bd 13b0 14be
00000220: 0712 103d 5e21 793d 6688 c23d 6ab2 58bd
00000230: b601 433d c941 db3d a403 fabd 6ba3 0bbe
00000240: c753 80bd 54af 7dbd 126a c8bc beba 14be
00000250: 4b58 e83d 01ab 51bd f71c 0f3d a642 ccbd
00000260: 7342 9e3c b859 1e3d b424 9ebd f31f 083e
00000270: d16c d9bd e53f 9f3d f053 143e 8289 71bd
00000280: aa5d cebd 4337 e53d 85e1 073e 6eeb 05bc
00000290: eb9c 273d 45c3 e83b eb52 cabd b99b e33d
000002a0: f52d 08bc 6ce5 afbd 320d be3d 9508 a5bd
000002b0: 1f0a 163c 55d7 1a3d b27d 96bc 46d8 793d
000002c0: 2e0c b03c 4477 97bd ab9c 4c3d a63c a03c
000002d0: f732 963d f43d 4cbc e852 8bbd cf3d a63c
000002e0: c657 1bbe 10f1 1bbe f78d f9bd 1424 68bd
000002f0: e575 50bd e76c 893d 08eb 1abe ccf2 ddbc
00000300: bd2f 9a3d 995c f23d 239e 1a3e b091 1e3b
00000310: 1102 e13d ab6f b2bd 33d9 863d 3499 a23d
00000320: a82d 67bd ca04 c43c 3f7c 8d3d 073e f93d
00000330: fe28 b63c f398 af3d 6156 10be e3f1 b0bc
00000340: dae3 3e3d 603c 04be 576f 493d 56ba 493d
00000350: 2049 0b3e f3fe 873d 8b5b 13be 2cf0 4ab9
00000360: a1bc cf3d a944 fdbd 7677 a93c 8651 063e
00000370: b428 5bbc 4686 e13c 8c0e bf3d e749 fb3c
00000380: faa0 8fbd bb64 5fbd e995 c6bd 2ab8 fc3d
00000390: 35f5 10be a4e3 20bd acd1 0a3d b65c 9ebd
000003a0: 888f 61bd b625 a33d 6ef6 bd3d b642 6d3c
000003b0: 9ea9 84bd bf24 0bbe 5906 043e bd4f b23c
000003c0: 0cff b4bd 8175 9c3d da63 babd 6cb5 cebc
000003d0: 1684 0dbe 91d0 0a3e 996a 923d 42da 8bbd
000003e0: b22d c73d f724 e8bd 1965 903d d3e4 7bbd
000003f0: 2baf 043e e275 85bd 36dd d23d 13f7 bcbd

rnn.rnn.weight_hh_l0 f4 [192, 64]
-0.036181014 -0.1266601 -0.10949281 0.07963562 -0.036622923 0.13518633 0.059920426 0.03929471
-0.1460416 0.06741308 -0.13583383 -0.034019135 -0.037853688 0.06510923 -0.024657294 0.12985693
-0.05162245 0.03495252 0.0036763186 0.108159214 -0.040106434 -0.12939116 -0.086959414 0.103304274
-0.07371018 -0.11230595 -0.011961058 -0.042743113 -0.14753456 0.025116213 -0.11902729 -0.062430616
-0.14185686 -0.033343803 0.14680384 0.15215072 -0.05361333 0.104615666 0.09862896 -0.03350808
0.061801244 0.1138735 -0.13020322 0.14182995 0.065898106 -0.15093724 -0.080190286 -0.045938924
-0.018561596 -0.0045236344 0.048830643 -0.14116402 -0.07603025 0.12915404 0.0024125588 0.054696452
0.06677134 -0.08333341 -0.011512955 -0.013243875 0.05021697 0.11212142 0.072348855 0.05399117
0.057524614 -0.12003924 -0.14985141 0.0039909785 -0.05693589 -0.12115856 0.06629576 -0.11304213
0.015491071 -0.021762658 -0.13956344 0.012398097 0.14339162 -0.040567562 0.00018929737 -0.12909661
-0.016952451 0.13176036 0.091242306 -0.12461299 0.014062251 0.023508027 -0.0722542 -0.13529882
0.014371033 -0.05468237 0.058493346 -0.082159184 0.041607052 -0.05336663 -0.12946612 0.13216698
0.09581267 0.1052488 0.02531748 0.12924945 0.08721331 0.088011965 0.14103128 -0.07715252
0.043026425 0.011813072 0.11846519 0.08763539 0.1455407 -0.07971828 -0.015339098 0.059987657
0.11555185 0.04486435 -0.018472055 0.07708868 -0.10234096 -0.087613344 0.06958854 0.077242605
-0.12671378 0.0576293 -0.062097114 0.004180023 0.05586564 0.05006843 0.12008901 -0.032927517
0.006857466 -0.14445965 -0.047444675 -0.15261382 -0.101254895 0.116976865 0.025493678 0.09883255
-0.06466026 -0.085419655 0.1002574 -0.006302391 0.0014024441 -0.12443625 0.07121421 -0.14676687
0.080098465 -0.089333035 -0.0064618774 0.060674284 -0.0054322476 -0.024954546 -0.118710876 0.07610717
-0.007483872 0.12696557 -0.015138443 0.07504637 -0.1215764 -0.15122205 -0.011921671 0.079606265
0.07311359 0.13974339 0.010815067 0.033536393 0.06402162 -0.01986038 0.05849875 -0.016030377
-0.0018239466 -0.08174573 0.118428424 -0.13233572 0.004736658 -0.10164918 -0.112923816 -0.073034965
0.017079312 -0.12316566 0.13369676 0.071189985 -0.13802262 0.079630405 0.09280738 -0.080838375
-0.0893811 -0.08219313 0.031350687 0.015933257 -0.024524853 0.030550778 -0.068415314 0.0028122754
0.096928984 -0.046496637 -0.11307521 0.033300072 0.03436568 -0.1293369 0.14352487 0.097294696
-0.0020513139 -0.14166656 -0.084433965 0.052619465 0.14263666 -0.07088801 0.06797584 0.08066454
0.14346085 0.08398275 0.14041844 0.050537292 -0.084221825 0.031713612 -0.015707089 0.0024486976
-0.05495706 0.102105066 -0.14543363 -0.11445526 -0.010551611 0.12320726 0.052904174 -0.012469209
-0.03248989 0.036507938 -0.11805398 0.14183868 0.052546296 0.073501915 0.03244959 0.046848122
-0.0031905016 0.04062017 0.0037284514 0.005026339 -0.036846336 -0.09169647 0.09394168 -0.13904485
-0.025890054 -0.058985863 0.032828443 0.07604274 -0.115432 -0.043303996 0.12808505 -0.13535658
0.04448701 0.020428905 0.020092197 -0.0008440469 0.031737644 0.007870201 -0.051235683 0.13083127
00000000: 8b32 14bd 2fb3 01be c43d e0bd 0018 a33d
00000010: eb01 16bd 496e 0a3e 1f6f 753d 7df3 203d
00000020: ee8b 15be de0f 8a3d 0618 0bbe a657 0bbd
00000030: 780c 1bbd fd57 853d 18fe c9bc 37f9 043e
00000040: 1072 53bd 602a 0f3d 64ee 703b 9482 dd3d
00000050: a546 24bd 1e7f 04be c717 b2bd 3191 d33d
00000060: 5df5 96bd a900 e6bd 50f8 43bc 6713 2fbd
00000070: 4d13 17be 84c0 cd3c 94c4 f3bd 3fb7 7fbd
00000080: ed42 11be 8393 08bd bf53 163e 66cd 1b3e
00000090: a799 5bbd bd40 d63d fbfd c93d c53f 09bd
000000a0: 4d23 7d3d 8236 e93d fe53 05be df3b 113e
000000b0: 96f5 863d 4b8f 1abe ce3a a4bd 742a 3cbd
000000c0: 7d0e 98bc ff3a 94bb a402 483d 4d8d 10be
000000d0: bfb5 9bbd f540 043e 051c 1e3b 6309 603d
000000e0: 6abf 883d b5aa aabd d5a0 3cbc d6fc 58bc
000000f0: 4fb0 4d3d ea9f e53d a32b 943d d825 5d3d
00000100: ee9e 6b3d 22d7 f5bd a672 19be c1c6 823b
00000110: 9c35 69bd fb21 f8bd 12c6 873d a282 e7bd
00000120: 43ce 7d3c 9a47 b2bc b8e9 0ebe 6321 4b3c
00000130: 41d5 123e 2c2a 26bd 207e 4639 e731 04be
00000140: dedf 8abc 30ec 063e 3fdd ba3d 1835 ffbd
00000150: 5b65 663c e893 c03c 03fa 93bd c68b 0abe
00000160: 7b74 6b3c 9ffa 5fbd b896 6f3d 1343 a8bd
00000170: 286c 2a3d f896 5abd c492 04be c856 073e
00000180: 6f39 c43d af8c d73d 9b66 cf3c f859 043e
00000190: e49c b23d 9e3f b43d 816a 103e 2402 9ebd
000001a0: 7a3c 303d 9d8b 413c e19d f23d 2f7a b33d
000001b0: 9f08 153e 5643 a3bd d750 7bbc 9eb5 753d
000001c0: 73a6 ec3d aec3 373d b552 97bc abe0 9d3d
000001d0: 2398 d1bd a06e b3bd 7084 8e3d 5f31 9e3d
000001e0: 42c1 01be b30c 6c3d 8b59 7ebd 93f8 883b
000001f0: 5fd3 643d 8e14 4d3d 3af1 f53d 01df 06bd
00000200: 98b4 e03b 3bed 13be 5955 42bd cc46 1cbe
00000210: ba5e cfbd 9191 ef3d 1ed8 d03c b868 ca3d
00000220: 996c 84bd 80f0 aebd c053 cd3d 4a84 cebb
00000230: 37d2 b73a 6fd8 febd c1d8 913d 0e4a 16be
00000240: aa0a a43d 3df4 b6bd 28be d3bb 9985 783d
00000250: ff00 b2bb 7a6d ccbc b01e f3bd 13de 9b3d
00000260: 453b f5bb 4303 023e 3b07 78bc e9b1 993d
00000270: 0cfd f8bd f4d9 1abe 1d53 43bc 9c08 a33d
00000280: 94bc 953d e418 0f3e ae31 313c 755d 093d
00000290: c41d 833d 3cb2 a2bc 639c 6f3d 2352 83bc
000002a0: 7e11 efba 4e6a a7bd 9a8a f23d 0483 07be
000002b0: f835 9b3b 722d d0bd 9a44 e7bd 5b93 95bd
000002c0: eae9 8b3c 473e fcbd cee7 083e 0ecc 913d
000002d0: cd55 0dbe 4415 a33d cc11 be3d 978e a5bd
000002e0: 700d b7bd df54 a8bd 9469 003d 7686 823c
000002f0: 58e8 c8bc a045 fa3c 541d 8cbd 274e 383b
00000300: b482 c63d 4273 3ebd fa93 e7bd a865 083d
00000310: 07c3 0c3d e470 04be 2ff8 123e 7142 c73d
00000320: 566f 06bb 0a11 11be b7eb acbd 8287 573d
00000330: 580f 123e bc2d 91bd eb36 8b3d 7333 a53d
00000340: 67e7 123e 26ff ab3d dac9 0f3e 3100 4f3d
00000350: 7e7c acbd 22e6 013d 27ac 80bc 547a 203b
00000360: a71a 61bd 761c d13d 8eec 14be 8567 eabd
00000370: aae0 2cbc 1754 fc3d 0cb2 583d a74b 4cbc
00000380: 1e14 05bd 5989 153d 49c6 f1bd 293e 113e
00000390: c93a 573d 2c88 963d dce9 043d d1e3 3f3d
000003a0: bc17 51bb 5661 263d 0959 743b fdb3 a43b
000003b0: 2fec 16bd 5ccb bbbd 7f64 c03d c661 0ebe
000003c0: 6117 d4bc 299b 71bd 1e77 063d 4cbc 9b3d
000003d0: 9d67 ecbd 885f 31bd ba28 033e ea9a 0abe
000003e0: 0338 363d 855a a73c 6498 a43c 0743 5dba
000003f0: 55ff 013d 04f2 003c 82dc 51bd a2f8 053e

rnn.rnn.bias_ih_l0 f4 [192]
7.474994e-05 -5.743692e-05 3.551007e-05 -0.00017168123 -5.7369067e-05 4.3462922e-05 0.0001069667 -0.00014038829
-7.805039e-05 -0.00018632614 -0.00010009448 -2.8230454e-05 -8.722583e-05 -2.5388488e-05 0.00035541478 5.3292533e-05
-7.0682155e-08 -7.38448e-05 -3.447622e-06 8.393024e-05 -0.00027758628 -1.0462858e-05 -4.622142e-05 2.785377e-05
-5.9039608e-06 -0.00022060452 -2.7557644e-05 -8.1616505e-05 1.3990621e-05 2.0357931e-05 -0.0003243715 2.6274781e-06
7.0065085e-05 -0.00020334688 4.5057226e-05 -8.3042825e-05 0.00029583875 -4.014069e-05 9.785238e-06 4.5956625e-05
-5.63709e-05 2.2667915e-05 1.5804853e-05 0.00020795902 -0.00013062963 1.4576788e-05 -8.7622335e-05 1.2710989e-05
-3.839736e-05 -0.00013724643 7.0591122e-06 -6.786347e-06 -0.00013344488 -6.115162e-06 -0.00015310361 9.079921e-06
-0.00023400599 -5.1582407e-05 1.0695254e-05 0.00028367084 2.568844e-05 9.7644195e-05 -0.00010372101 9.449147e-06
-0.00048195748 -0.00013443807 -0.0009797347 0.000107445456 0.00029501863 -0.00049285666 0.0008717487 -1.3190567e-05
0.00046429073 -0.00012591308 -0.000108392254 -0.00092143496 -0.00069261837 0.00019549747 -0.00013387502 6.5445995e-05
-0.0011108496 0.0010114014 0.00010752335 2.2862005e-06 0.00086896354 0.0011243828 0.0010147736 -0.0010348313
-0.00019732094 0.00043680557 4.7410333e-05 0.00049196417 -0.00013426029 8.107075e-05 -0.0002158606 0.00035193554
0.00048951985 0.00070324977 -0.0005684409 0.0007985693 0.00039197813 0.00039044704 -0.00063515845 -0.00048618886
-0.00028092822 0.001030919 0.00045180612 -0.0011608598 -0.0011815063 -0.0012583308 1.6235286e-05 -0.0007777178
0.00021155675 -0.00023140218 -0.0006301111 -0.0002502878 -0.0004433538 -0.00013554265 0.0006319881 0.00042376277
-6.6828725e-05 -0.00041555712 0.00030707644 -0.0009730959 0.001094852 0.00049528986 0.0002437118 0.0005576324
-0.001870706 -0.00049006543 0.0013275517 -0.0017035018 0.0010855095 -0.0003714327 0.0013160793 0.0012109673
0.0016069957 -0.0016691599 0.0014277055 -0.0014680543 -0.0014725251 -0.0014633861 -0.0016996134 -0.0006158491
0.0015418201 0.0015942267 0.0014212442 0.0013539356 0.0017826436 0.0011621402 -0.001685936 0.0008129358
0.00040495227 0.0009240614 0.0015109782 0.0013432103 0.0011530974 0.0007286275 -0.0016944454 0.0017238393
0.0017305772 -0.0018300434 0.0010754428 -0.001241305 0.0015897992 -0.0015563131 -0.0016744155 0.0014107738
-0.0013060836 0.0015351549 -0.0013767784 0.0006271363 0.0017760146 -0.0011487894 -0.001631941 -0.00025327664
0.0011097874 -0.00088114035 0.0010876458 -0.0015449116 -0.0016483438 0.0002191276 -0.001301199 0.0009273165
0.0014530089 0.0015953714 -0.0009051541 -0.0013882836 -0.0017276333 0.0017876045 -0.0016290162 -0.00029471642
00000000: 12c3 9c38 6ce8 70b8 a6f0 1438 5405 34b9
00000010: 919f 70b8 f54b 3638 4f53 e038 3235 13b9
00000020: fcae a3b8 8b60 43b9 d1e9 d1b8 70d0 ecb7
00000030: 03ed b6b8 5df9 d4b7 f756 ba39 6c86 5f38
00000040: edc9 97b3 20dd 9ab8 b25d 67b6 b403 b038
00000050: 0089 91b9 a289 2fb7 dfdd 41b8 84a7 e937
00000060: a31a c6b6 1352 67b9 972b e7b7 8729 abb8
00000070: 42b9 6a37 53c6 aa37 6810 aab9 bb53 3036
00000080: e8ef 9238 8339 55b9 d4fb 3c38 4727 aeb8
00000090: ce1a 9b39 bd5c 28b8 472b 2437 8dc1 4038
000000a0: cb6f 6cb8 fa26 be37 aa94 8437 930f 5a39
000000b0: a0f9 08b9 d48e 7437 e2c1 b7b8 4841 5537
000000c0: da0c 21b8 cfe9 0fb9 50dd ec36 47b6 e3b6
000000d0: 56ed 0bb9 d730 cdb6 708a 20b9 f755 1837
000000e0: 815f 75b9 305a 58b8 c46f 3337 a8b9 9439
000000f0: 817d d737 54c6 cc38 cb84 d9b8 c787 1e37
00000100: 3daf fcb9 f2f7 0cb9 716a 80ba 5754 e138
00000110: bbac 9a39 0d33 01ba 1186 643a 0e4d 5db7
00000120: 0c6c f339 8907 04b9 a650 e3b8 748c 71ba
00000130: d590 35ba 74fe 4c39 cd60 0cb9 0d40 8938
00000140: ed99 91ba 0091 843a 297e e138 a06c 1936
00000150: 28cb 633a 0760 933a 2702 853a 2da3 87ba
00000160: f0e7 4eb9 0d03 e539 75da 4638 28f7 003a
00000170: 39c8 0cb9 8704 aa38 a358 62b9 fd83 b839
00000180: 1f53 003a 4b5a 383a 6c03 15ba 1457 513a
00000190: 6a82 cd39 eab4 cc39 c380 26ba 2ae7 feb9
000001a0: 8c49 93b9 e71f 873a 64e0 ec39 fe27 98ba
000001b0: c6dc 9aba 93ee a4ba 0331 8837 c2df 4bba
000001c0: 55d5 5d39 8da4 72b9 0a2e 25ba 0f39 83b9
000001d0: f171 e8b9 7420 0eb9 01ac 253a 7a2c de39
000001e0: 6626 8cb8 22df d9b9 1aff a039 5c17 7fba
000001f0: 2381 8f3a 57d6 013a e38c 7f39 142e 123a
00000200: 7a32 f5ba bc77 00ba 3e01 ae3a 0948 dfba
00000210: a847 8e3a dabc c2b9 4b80 ac3a 52b9 9e3a
00000220: d4a1 d23a b6c7 daba d921 bb3a ba6b c0ba
00000230: be01 c1ba 17cf bfba 90c5 deba ef70 21ba
00000240: e616 ca3a 5ff5 d03a 0b49 ba3a 8a76 b13a
00000250: 98a7 e93a f452 983a a0fa dcba 331b 553a
00000260: c64f d439 b63c 723a 040c c63a a90e b03a
00000270: 8723 973a 5d01 3f3a 2718 deba 73f2 e13a
00000280: 89d4 e23a 11de efba dff5 8c3a 49b3 a2ba
00000290: cf60 d03a 34fd cbba 1078 dbba b7e9 b83a
000002a0: e530 abba 4037 c93a 0475 b4ba 6866 243a
000002b0: 29c9 e83a fa92 96ba dae6 d5ba 37ca 84b9
000002c0: 4976 913a 54fc 66ba 568f 8e3a a27e caba
000002d0: 3d0d d8ba 9ec5 6539 fe8c aaba 2817 733a
000002e0: e372 be3a c81b d13a dd47 6dba 11f7 b5ba
000002f0: c171 e2ba 0e4e ea3a b784 d5ba 2b84 9ab9
