MARL/MAPPO-ATTENTIOAN/onpolicy/scripts/results/Meltingpot/collaborative_cooking__circuit_0/territory__rooms/mappo/check/run101/models/actor_agent5.pt (torch, 795666 bytes, 22 tensors)

base.cnn.cnn.0.weight f4 [32, 3, 3, 3]
0	0x3de3fb5a	0.11131926
1	0x3e30cc4d	0.17265435
2	0xbb379f29	-0.002801845
3	0xbdc7281d	-0.09724448
4	0x3e450eeb	0.19243972
5	0x3dfc7005	0.123260535
6	0xbd91c516	-0.07117669
7	0xbe1842e1	-0.14869262
8	0x3de3e958	0.11128491
9	0x3e249363	0.16071849
10	0xbd84ff5a	-0.06494017
11	0xbe045a80	-0.12925148
12	0xbc24a954	-0.010050137
13	0xbdad61c4	-0.08465913
14	0xbde086a1	-0.109631784
15	0xbd24891a	-0.040169813
16	0x3dd5d031	0.104401
17	0xbd5cd295	-0.053911764
18	0xbb1724c4	-0.0023062686
19	0xbe056e32	-0.13030317
20	0x3d461e99	0.048369024
21	0x3d79c38a	0.060977496
22	0xbd5b2f08	-0.05351165
23	0xbdaf5c52	-0.085625306
24	0x3d61891d	0.055062402
25	0x3ceaad2a	0.028647024
26	0xbe396def	-0.18108343
27	0x3cd474aa	0.025934536
28	0xbe39abbb	-0.18131916
29	0x3c9f29a2	0.019429032
30	0x3da69de4	0.08135584
31	0xbd047c85	-0.032345314
32	0xbe468027	-0.19384824
33	0x3c880ce4	0.01660771
34	0x3dad5aa1	0.08464552
35	0x3dbf158e	0.09330283
36	0xbdf9a1df	-0.121890776
37	0xbd557845	-0.05211665
38	0x3e23e3db	0.16004889
39	0xbc1eec78	-0.009699933
40	0x3de982eb	0.11401924
41	0xbdd25de1	-0.10271812
42	0x3dec4f0f	0.11538517
43	0xbd79de95	-0.061003286
44	0x3dca1d6f	0.09868895
45	0xbdc9a887	-0.09846597
46	0xbe03af80	-0.12859917
47	0x3d340daa	0.043958344
48	0x3e3d699a	0.18497315
49	0xbc7766a0	-0.015100151
50	0xbdd95dff	-0.106136315
51	0x3d32e0bb	0.04367135
52	0x3e0e462e	0.13893959
53	0x3d554626	0.052068852
54	0xbdb08e9a	-0.08620949
55	0xbe22d308	-0.15900815
56	0x3d3d255b	0.046178203
57	0x3e37a04d	0.17932244
58	0x3e098096	0.13427958
59	0x3e0adb1b	0.13560145
60	0xbdd51f26	-0.10406332
61	0xbd04c14c	-0.032410905
62	0xbe10fa8a	-0.14158073
63	0xbe3c5be4	-0.18394428
64	0x3e26cab4	0.16288263
65	0x3c6a626c	0.014305692
66	0x3d69a511	0.057042185
67	0x3dd3f281	0.10348988
68	0x3e1e3350	0.15449262
69	0xbd877a94	-0.06615177
70	0x3d9ec4c5	0.077523746
71	0xbd225c66	-0.0396389
72	0x3ded9794	0.11601177
73	0xbcf70994	-0.030155934
74	0xbe2dcf9d	-0.1697373
75	0x3dbeab44	0.0931001
76	0x3e1b5148	0.15167725
77	0xbce02e60	-0.027365863
78	0xbe0b7bc1	-0.13621427
79	0x3d3e8c0f	0.04652029
80	0xbd610d61	-0.0549444
81	0xbe38d7df	-0.18051098
82	0xbe3d702a	-0.18499818
83	0xbdb1cac0	-0.086812496
84	0xbd8b0ca5	-0.06789521
85	0x3d51992a	0.05117146
86	0xbe3562f3	-0.17713527
87	0xbe2c1965	-0.16806562
88	0x3db480a0	0.08813596
89	0x3e0b244b	0.13588063
90	0xbd622e4b	-0.05521993
91	0xbe2b8957	-0.1675161
92	0xbdfad6cc	-0.122480005
93	0xbdf77419	-0.12082691
94	0xbcb5d1e1	-0.022194805
95	0xbd06060a	-0.032720603
96	0x3e313b7d	0.17307849
97	0xbe232a19	-0.15934028
98	0xbe01a496	-0.12660441
99	0x3e421da1	0.18956615
100	0xbd1aeee7	-0.03782549
101	0x3e2334d6	0.15938124
102	0xbe0ca0d4	-0.13733226
103	0x3e2c45f2	0.16823557
104	0x3ded9235	0.116001524
105	0x3ad521c9	0.0016260679
106	0xbd1e4dd0	-0.038648427
107	0x3e007ec6	0.1254836
108	0x3dace789	0.08442599
109	0x3d1b36ad	0.03789394
110	0x3e10f25f	0.14154957
111	0xbe431ec5	-0.19054706
112	0xbda5e8b4	-0.08101025
113	0x3d277fe8	0.040893465
114	0x3dd05600	0.10172653
115	0x3e08a61d	0.13344617
116	0xbe090e18	-0.13384283
117	0xbdb2e231	-0.08734549
118	0x3d28a9cc	0.041177556
119	0x3d4fba4b	0.050714772
120	0x3dbc3aa4	0.09190872
121	0x3dfc2e0d	0.12313471
122	0xbc09b0cf	-0.008403971
123	0xbe258330	-0.16163325
124	0x3dff6cb5	0.12471906
125	0x3dde8d84	0.10866836
126	0x3e31074c	0.1728794
127	0xbd8647a0	-0.0655663
128	0xbe2e87bb	-0.17043965
129	0xbc8ffda8	-0.017577007
130	0xbdee6e37	-0.116421156
131	0x3e035d34	0.12828523
132	0xbe3bed48	-0.18352234
133	0xbe2725ed	-0.16323061
134	0x3d8d4368	0.06897622
135	0x3df23808	0.11827093
136	0xbc990d06	-0.018682968
137	0x3e1616f2	0.1465719
138	0x3e10dfd7	0.14147888
139	0xbd4466c3	-0.047949564
140	0x3d6868a7	0.05674043
141	0x3d892514	0.06696525
142	0x3e418d9f	0.1890168
143	0x3de877de	0.11350988
144	0x3c99b7ee	0.018764462
145	0xbcd04b90	-0.025426656
146	0xbe182492	-0.148577
147	0x3d535d67	0.051602747
148	0xb725a298	-9.872623e-06
149	0xbe317e6c	-0.17333382
150	0xbe24f818	-0.16110265
151	0x3db2b40a	0.08725746
152	0x3e363da5	0.17796953
153	0x3cb10b9b	0.02161198
154	0x3e2894a6	0.16462955
155	0x3d9e7f21	0.07739092
156	0xbe2c97d3	-0.16854791
157	0x3dc7eba7	0.09761744
158	0x3db072ce	0.08615647
159	0x3e38234e	0.17982218
160	0x3d1e7bb8	0.038692206
161	0xbaffecd9	-0.0019525542
162	0x3bea9cc9	0.0071598035
163	0x3c4295fe	0.011876581
164	0xbe0f0644	-0.13967234
165	0x3de6719e	0.112521395
166	0xbb0a294d	-0.0021081746
167	0xbe1c4427	-0.15260373
168	0xbdc17f84	-0.0944815
169	0xbdc63fc5	-0.09680132
170	0x3e1dceb7	0.15410887
171	0x3dcd0dd7	0.10012405
172	0x3db00b9c	0.08595964
173	0x3e217f0c	0.15771121
174	0x3da5ca72	0.08095254
175	0xbae09d9f	-0.0017136818
176	0xbd3ca86e	-0.046059065
177	0xbd33e44c	-0.043918893
178	0xbd280c66	-0.04102745
179	0xbe2b9d2b	-0.16759174
180	0xbe13a43a	-0.14418116
181	0xbd84a649	-0.06477029
182	0xbd1587d3	-0.036506485
183	0xbe09c051	-0.13452269
184	0xbe3917ed	-0.18075533
185	0xbd00a5fc	-0.031408295
186	0x3da7cc0d	0.081932165
187	0xbde095dc	-0.109660834
188	0x3db49942	0.08818294
189	0xbc0cc19e	-0.008591084
190	0x3d68fe8d	0.056883384
191	0x3cc13fe1	0.02359003
192	0x3dec6cac	0.11544165
193	0xbe1878fe	-0.14889905
194	0x3d469044	0.048477426
195	0x3d1418c4	0.03615643
196	0xbbbfe6bb	-0.0058563626
197	0xbe3b3651	-0.18282439
198	0xbd9f47e6	-0.077773854
199	0xbcb598ad	-0.022167528
200	0x3df2ee09	0.11861808
201	0xbe09e069	-0.13464512
202	0xbdc86fe4	-0.097869664
203	0xbc446d38	-0.01198893
204	0xbe2f03b3	-0.17091255
205	0xbd3301e0	-0.04370296
206	0x3dc7ca2f	0.0975536
207	0xbdbbb2d2	-0.09164967
208	0x3dc8e4c8	0.098092616
209	0xbdab3d60	-0.08361316
210	0xbe3b92b5	-0.18317683
211	0xbe2bfd0b	-0.16795747
212	0x3d5436f9	0.05181024
213	0xbe40f10b	-0.1884195
214	0xbb1debe9	-0.0024096912
215	0x3c24f249	0.010067531
216	0x3e37fc38	0.17967308
217	0x3e256a5e	0.16153857
218	0xbb4cc4f5	-0.0031245325
219	0x3d8ff2d9	0.070287414
220	0x3cb6a26f	0.022294251
221	0x3dc86983	0.0978575
222	0xbdd5fd20	-0.104486704
223	0x3d363403	0.044483196
224	0x3d6c7337	0.057727065
225	0xbd2143c3	-0.039371263
226	0xbd643643	-0.05571581
227	0xbe25331a	-0.16132775
228	0xbd05b4d8	-0.03264317
229	0x3ce87814	0.02837757
230	0xbd275a0b	-0.040857356
231	0x3d1ec035	0.03875752
232	0x3c55b33b	0.01304322
233	0xbddafea2	-0.106930986
234	0x3e02a4c6	0.12758169
235	0x3e04d29a	0.12970963
236	0x3b5a6866	0.0033326386
237	0x3d558374	0.052127317
238	0x3acbf86f	0.001556171
239	0xbd5f974b	-0.054587644
240	0xbd6124e7	-0.054966833
241	0xbdd136a7	-0.10215502
242	0xbc7affdc	-0.015319791
243	0xbe2af4ec	-0.16694993
244	0x3d9439ad	0.07237563
245	0xbcaef8cf	-0.021358876
246	0x3e41c318	0.18922079
247	0xbe287ae5	-0.1645313
248	0x3e3faa47	0.187173
249	0xbe337f63	-0.17529063
250	0x3c7efbb2	0.0155629385
251	0x3c6e7b76	0.014555803
252	0x3d5766f4	0.052588418
253	0x3de91250	0.11380446
254	0xbdb5523d	-0.08853576
255	0x3dc597ee	0.09648119

base.cnn.cnn.0.bias f4 [32]
0	0x32a0adfb	1.8705569e-08
1	0x330e2cac	3.310258e-08
2	0x30bac718	1.3589867e-09
3	0xb249adae	-1.173923e-08
4	0x31c91b6a	5.8529865e-09
5	0x319034ab	4.1969392e-09
6	0xb300a9ef	-2.9956876e-08
7	0x322c21c2	1.0019393e-08
8	0xb2147814	-8.642036e-09
9	0x3180d780	3.74979e-09
10	0xb2d9aad8	-2.5339816e-08
11	0xb1c0d207	-5.611813e-09
12	0x32aed563	2.0353303e-08
13	0x31fac1a2	7.297971e-09
14	0x3146cbc0	2.892861e-09
15	0x3270ebde	1.4023469e-08
16	0xb1846917	-3.853653e-09
17	0x327f25c2	1.4851539e-08
18	0x33201f14	3.728117e-08
19	0xb11606bc	-2.18317e-09
20	0x32fb2cee	2.9240677e-08
21	0x3167de43	3.3741265e-09
22	0xb1a7391a	-4.8668314e-09
23	0x31acd82f	5.030436e-09
24	0xb2716d9e	-1.405297e-08
25	0xb2c94b7c	-2.3433806e-08
26	0xb32f5b86	-4.0828603e-08
27	0xb221787f	-9.398831e-09
28	0xb295efd4	-1.7454944e-08
29	0xb20654e2	-7.819127e-09
30	0x30ae3f25	1.2678113e-09
31	0xb27ce529	-1.47204355e-08

base.cnn.cnn.1.weight f4 [32]
0	0x3f7f93b0	0.9983473
1	0x3f7fddf3	0.9994804
2	0x3f7fba66	0.99893796
3	0x3f7ff647	0.99985164
4	0x3f7ffc69	0.9999452
5	0x3f8007ed	1.0002419
6	0x3f802065	1.0009886
7	0x3f7fb611	0.99887186
8	0x3f8002f8	1.0000906
9	0x3f7fb5f3	0.9988701
10	0x3f7fe39e	0.9995669
11	0x3f7fd2c6	0.9993099
12	0x3f7feef7	0.99974006
13	0x3f802855	1.0012308
14	0x3f7ffcce	0.99995124
15	0x3f7fd4d9	0.99934155
16	0x3f800487	1.0001382
17	0x3f7fa5c7	0.9986233
18	0x3f800d34	1.0004029
19	0x3f7fdc6b	0.99945706
20	0x3f8003b7	1.0001134
21	0x3f7fa6ed	0.99864084
22	0x3f7fc96d	0.99916726
23	0x3f7fec43	0.9996988
24	0x3f800518	1.0001554
25	0x3f7f9d37	0.99849266
26	0x3f7fef56	0.9997457
27	0x3f7ff2d9	0.9997993
28	0x3f7faeb5	0.99875957
29	0x3f7fb4b3	0.998851
30	0x3f7fcab7	0.99918693
31	0x3f800fd0	1.0004826

base.cnn.cnn.1.bias f4 [32]
0	0xba944961	-0.0011313373
1	0xb8a9b4d4	-8.09223e-05
2	0xba2d30f4	-0.0006606721
3	0x39a760bf	0.00031924804
4	0x3a56e6d9	0.0008197851
5	0x39df6b2f	0.00042613733
6	0x399f22b9	0.00030352714
7	0xba108a5d	-0.0005513782
8	0x3a2be15a	0.00065567123
9	0x39748ed3	0.0002332286
10	0xba6c76d5	-0.0009020393
11	0x3a3e3fe4	0.0007257445
12	0xb866e87e	-5.50528e-05
13	0x3a3e7c58	0.00072664535
14	0x38afde7f	8.3860934e-05
15	0x395de19e	0.00021160251
16	0x3a2a595f	0.00064983027
17	0xba9b670f	-0.0011856275
18	0x38c0be13	9.1906775e-05
19	0x3942e4b0	0.00018586474
20	0x37d78727	2.5692932e-05
21	0xbaa6f278	-0.0012737056
22	0xba3323ff	-0.0006833672
23	0x3aac6edc	0.0013155597
24	0x3aafbc20	0.0013407506
25	0xba295408	-0.000645936
26	0x3a872b68	0.0010312619
27	0x395fc76c	0.00021341228
28	0x36d63e19	6.384926e-06
29	0xbaa7bb45	-0.00127969
30	0x39d2f03a	0.00040233304
31	0x3aad0545	0.0013200423

base.cnn.cnn.1.running_mean f4 [32]
0	0x3b4c74cb	0.0031197544
1	0x3cc16d44	0.023611672
2	0x3d1ace85	0.03779461
3	0xbe0aa503	-0.1353951
4	0x3ca701f9	0.020386683
5	0x3e3e345d	0.18574663
6	0xbdbffcb0	-0.09374368
7	0xbe1851b3	-0.14874916
8	0x3d661101	0.05616856
9	0xbce2a2b6	-0.027665477
10	0xbd620295	-0.055178244
11	0x3e43f0d0	0.19134831
12	0x3ce40d4e	0.027838375
13	0x3d994b27	0.07485037
14	0xbd2c0db9	-0.042005274
15	0x3dbe4342	0.09290172
16	0x3df98475	0.12183467
17	0xbd4dee80	-0.05027628
18	0xbddcaf68	-0.107756436
19	0xbd78b606	-0.060720466
20	0xbc4e0ba9	-0.012576022
21	0xbdb943ae	-0.09046112
22	0xbd99c04e	-0.07507382
23	0x3c5fef36	0.013667872
24	0xbdcdc9ee	-0.10048281
25	0xbdd241d7	-0.10266464
26	0xbdbcf554	-0.0922648
27	0xbdc00834	-0.093765646
28	0x3d82ad1e	0.06380676
29	0x3c5ab041	0.013347686
30	0xbd33055c	-0.043706283
31	0xbde4270f	-0.11140262

base.cnn.cnn.1.running_var f4 [32]
0	0x3b61a01a	0.0034427703
1	0x3be33503	0.0069338097
2	0x3c084ce7	0.008319116
3	0x3c2067a5	0.009790336
4	0x3b843935	0.00403514
5	0x3bfcda35	0.007716442
6	0x3b9971a5	0.004682737
7	0x3c0aa2c4	0.008461658
8	0x3b812510	0.003941186
9	0x3b995c49	0.0046801907
10	0x3bab8691	0.0052345474
11	0x3c46328a	0.01209701
12	0x3b8b5aca	0.0042527663
13	0x3b9d6a91	0.0048039635
14	0x3c0b3ee7	0.008498884
15	0x3bd7ef32	0.0065897936
16	0x3bd50b2a	0.006501575
17	0x3b9fb13a	0.004873422
18	0x3bf15cb4	0.0073657874
19	0x3ba66e1f	0.0050790454
20	0x3bf2a419	0.007404816
21	0x3bd5b5c8	0.006521914
22	0x3be26ee8	0.0069101937
23	0x3bd30ed0	0.006440975
24	0x3bc0e63c	0.005886821
25	0x3bded246	0.006799969
26	0x3bc01e3c	0.005862979
27	0x3be8931e	0.007097616
28	0x3ba4aaec	0.0050252583
29	0x3b90698b	0.004407113
30	0x3bf2a763	0.007405208
31	0x3c5a151d	0.013310698

base.cnn.cnn.4.weight f4 [64, 2592]
0	0xbd237770	-0.039908826
1	0xbd4a5a5c	-0.04940258
2	0x3b64a979	0.0034891053
3	0x3d085469	0.033283625
4	0x3d33f743	0.04393698
5	0xbc5e6e4a	-0.0135761
6	0x3c8e43ee	0.017366376
7	0x3d17d51b	0.037068468
8	0x3d3fd832	0.04683704
9	0xbd819769	-0.06327707
10	0xbd21a32f	-0.039462265
11	0xbc64b788	-0.013959773
12	0x3d846d43	0.064661525
13	0x3cf75748	0.030192986
14	0xbd22bc1b	-0.039730173
15	0xbd1ddcab	-0.038540523
16	0xbd0931cb	-0.033494752
17	0xbca4ffa8	-0.020141438
18	0xb9d30774	-0.0004025061
19	0x3cfadda4	0.030623265
20	0xbd81767a	-0.06321426
21	0xbbd6ff50	-0.0065611973
22	0x3d6cbb7d	0.05779599
23	0x3d49ae7b	0.049238663
24	0x3ccc26f9	0.024920927
25	0x3d1cf1b6	0.03831645
26	0x3d3266b5	0.04355498
27	0xbb454fb7	-0.0030107328
28	0xbcf29134	-0.029610254
29	0xbd810022	-0.062988535
30	0xbd3a42bf	-0.04547381
31	0xbcdcd44c	-0.0269567
32	0xbcbb5a85	-0.022870312
33	0xbd5f8c72	-0.0545773
34	0x3afd8c89	0.0019344251
35	0xbd30adc5	-0.04313447
36	0xbd4e16d0	-0.050314724
37	0x3d2b3a9c	0.04180394
38	0xbcdf10a9	-0.027229624
39	0xbb003b1d	-0.0019566484
40	0x3bb02a81	0.0053761606
41	0xbd73111f	-0.0593425
42	0x3d812868	0.06306535
43	0x3d4a8f19	0.049452875
44	0xbc08139d	-0.008305457
45	0xbcd0f734	-0.0255085
46	0x3c69c1f3	0.0142674325
47	0xbc80d580	-0.015726805
48	0x3d1b44b1	0.037907306
49	0xbd4fa353	-0.050692867
50	0x3d7323eb	0.059360426
51	0xbc96e9e0	-0.018422067
52	0x3d81b368	0.06333047
53	0x3ca133eb	0.019678077
54	0x3d77249f	0.06033766
55	0xbc64c6b5	-0.013963391
56	0xbc8577b9	-0.01629244
57	0x3d0f9e04	0.035062805
58	0x3d852a26	0.0650218
59	0xbd34c049	-0.04412869
60	0x3c92b705	0.017909536
61	0xbd375c52	-0.044765778
62	0xbc8b64df	-0.017015873
63	0xbd68752f	-0.05675238
64	0x3c3659ac	0.011129778
65	0x3ce18d3c	0.027533166
66	0xbd56b163	-0.052415263
67	0xbc2cff9a	-0.010558987
68	0xbd19af76	-0.03752085
69	0x3cfef0aa	0.031120617
70	0x3cf83560	0.030298889
71	0xbc95a810	-0.018268615
72	0xbcdb278c	-0.026752256
73	0x3cce6331	0.025193783
74	0x3d088e42	0.033338793
75	0xbd6d7156	-0.057969414
76	0xbd6feb4a	-0.058574
77	0xbd4daea2	-0.05021537
78	0x3d636fcd	0.055526543
79	0x3cd03829	0.025417404
80	0x3d80b0b5	0.06283704
81	0xbd48f499	-0.04906139
82	0x3c1b18c3	0.009466353
83	0xbd159fa7	-0.03652921
84	0x3d39ddbc	0.045377478
85	0xbc3ae152	-0.01140626
86	0x3d7fb7fc	0.06243132
87	0xbc90dbc0	-0.01768291
88	0xbd5ea830	-0.054359615
89	0x3d4373a4	0.047717705
90	0xbc18b3dc	-0.009320226
91	0xbd401a1a	-0.046899892
92	0x3c82e182	0.015976671
93	0xbc2012ce	-0.009770108
94	0xbd07be00	-0.033140182
95	0x3d6675fa	0.056264855
96	0xbd383fbb	-0.044982653
97	0xbc87ab28	-0.016561106
98	0x3b3e5508	0.0029042382
99	0x3cbe9247	0.02326311
100	0x3d225011	0.03962714
101	0x3b2e6efb	0.0026616442
102	0xbb4cbbe5	-0.0031239924
103	0xbcb0efb7	-0.02159868
104	0x3d8061c7	0.062686495
105	0x3ccb0b5d	0.024785692
106	0xbc63e2ab	-0.013909022
107	0xbd607d0f	-0.054806765
108	0xbd6f11ae	-0.05836647
109	0x3c701291	0.014652864
110	0xbc3a030c	-0.0113532655
111	0xbc41ff92	-0.011840718
112	0xbc8bfe47	-0.017089022
113	0xbd48ddec	-0.049039766
114	0xbcbfe69b	-0.023425391
115	0x3bb1ffb0	0.0054320917
116	0x3d85e089	0.06536967
117	0xbd3306a3	-0.0437075
118	0xbca2fe76	-0.019896727
119	0xbcf81170	-0.030281752
120	0x3c8869a7	0.016651941
121	0x3d65dce2	0.056118853
122	0xbc904947	-0.017613066
123	0x3c53a174	0.012916911
124	0xbb042351	-0.0020162652
125	0x3cf281b4	0.029602863
126	0xbc653b86	-0.013991242
127	0xbc181349	-0.009281942
128	0xbca7db8b	-0.020490428
129	0xbc2998ef	-0.010351404
130	0xbd16ce18	-0.03681764
131	0xbcb7bc66	-0.022428703
132	0x3d5e191f	0.054223176
133	0x3d017f18	0.031615347
134	0x3c5f651b	0.013634945
135	0xbd592ebf	-0.053023096
136	0x3d33e471	0.04391903
137	0xbd82f521	-0.06394411
138	0xbd511be8	-0.051052004
139	0xbd36145d	-0.044453014
140	0xbca753ad	-0.020425642
141	0x3b2bf8a0	0.0026240721
142	0x3d3a991f	0.045556184
143	0xbd2c0770	-0.04199928
144	0xbc871f9a	-0.016494561
145	0x3c311153	0.010807353
146	0x3d1a034a	0.037600793
147	0x3d82f08b	0.06393536
148	0x3d7908e2	0.060799487
149	0x3b035669	0.0020040518
150	0x3d4330b3	0.047653865
151	0xbd4036fd	-0.04692744
152	0xbcd9bda7	-0.026579691
153	0x3c13228d	0.0089804055
154	0x3d7f6944	0.06235625
155	0x3d06e6e6	0.032935046
156	0xbba629b0	-0.0050708875
157	0xbd2fda99	-0.04293308
158	0xbcdbade4	-0.026816316
159	0xba3dc855	-0.00072396296
160	0x3cf6476e	0.030063357
161	0x3d3b2239	0.045686934
162	0xbcc34b76	-0.023839694
163	0xbc3f012c	-0.011657994
164	0xbc9ade4c	-0.018904828
165	0xbd2e96bd	-0.042624224
166	0xbbac2bee	-0.0052542603
167	0x3d16a5c8	0.036779195
168	0x3d07f24a	0.03319005
169	0xbd4797bf	-0.0487287
170	0xbc958ae3	-0.018254703
171	0x3d63c9e7	0.05561247
172	0x3d2c0210	0.041994154
173	0xbd867aea	-0.06566413
174	0xbc34a9ab	-0.01102678
175	0xbd2b5706	-0.04183104
176	0xbc939dc5	-0.018019566
177	0x3c9bb8c0	0.019008994
178	0x3cf43967	0.029812528
179	0xbc9844eb	-0.01858755
180	0xbc400810	-0.011720672
181	0x3d0c2e65	0.034223933
182	0x3d502908	0.05082038
183	0xbc8c4a7f	-0.017125366
184	0x3d3ce7fa	0.046119668
185	0x3d643cd0	0.055722058
186	0xbd7c27e3	-0.061561476
187	0xbd6e4b06	-0.058177017
188	0xbd1fa211	-0.038972918
189	0x3bdcdcaa	0.0067401724
190	0xbd3df2da	-0.04637418
191	0x3cba5994	0.022747792
192	0xbd418874	-0.047249272
193	0xbcea7b50	-0.028623253
194	0xbd4f0864	-0.05054511
195	0xbbe8fb8a	-0.007110064
196	0xbd5a527f	-0.05330133
197	0xbd02f61c	-0.03197299
198	0xbb499305	-0.0030757796
199	0x3cf2912d	0.02961024
200	0xbd471ebe	-0.048613302
201	0xbd6e079a	-0.05811272
202	0xbd48cfb0	-0.04902619
203	0xbd1a37dd	-0.03765093
204	0x3d692e3c	0.05692886
205	0x3d51228c	0.051058337
206	0x3d229137	0.03968927
207	0xbd2e91ff	-0.0426197
208	0x3c7ec3d7	0.015549622
209	0xbca568bb	-0.020191541
210	0xbc80d550	-0.015726715
211	0xbcaff2ea	-0.021478135
212	0x3d8a2fd6	0.06747405
213	0x3b916a38	0.004437711
214	0xba271054	-0.00063729775
215	0x3cfe1e12	0.031020198
216	0x3d0a4178	0.033753842
217	0x3c000cec	0.007815581
218	0xbd70581c	-0.058677778
219	0x3cf301f0	0.02966401
220	0xbbf8bef1	-0.0075911214
221	0x3ce03d13	0.027372872
222	0xbd14be70	-0.036314428
223	0x3d828f6f	0.06375014
224	0x3c1a8f45	0.009433572
225	0xbd1652d5	-0.03670009
226	0xbd5e9464	-0.054340735
227	0x3d693a06	0.0569401
228	0x3d65726e	0.05601733
229	0xbcf90610	-0.030398399
230	0xbd72f44f	-0.059315022
231	0x3d0610e2	0.032730944
232	0xbd2975f8	-0.04137227
233	0xbd81004a	-0.06298883
234	0x3d1642a0	0.036684632
235	0x3cecb8b2	0.028896663
236	0xbbd68a3f	-0.006547242
237	0x3cc2d823	0.023784703
238	0xbd2b50f0	-0.041825235
239	0x3d61e41d	0.055149186
240	0xbd81c93d	-0.06337211
241	0xbd4f0c83	-0.05054904
242	0xbc9dbe5d	-0.019255811
243	0x3d709695	0.058737356
244	0xbd827ba5	-0.063712396
245	0x3c0cfc88	0.00860513
246	0xbd252b2d	-0.04032438
247	0x3d23b6ff	0.03996944
248	0xbcc6e282	-0.02427793
249	0xbd076ffc	-0.03306578
250	0x3c07903b	0.008274133
251	0xbd830799	-0.063979335
252	0xbd347b4a	-0.04406289
253	0xbd3abcd9	-0.045590255
254	0xbc1f06f7	-0.00970625
255	0xbd0a8df5	-0.033826787

base.cnn.cnn.4.bias f4 [64]
0	0x3a5af672	0.0008352763
1	0xbab0a9f4	-0.0013478384
2	0x3a948a20	0.0011332668
3	0xb931ee0f	-0.00016968719
4	0x39fb6d54	0.00047955906
5	0x3a54d6ab	0.0008119146
6	0x394b9785	0.00019416034
7	0xb9fa4a75	-0.0004773919
8	0xb78f3a27	-1.7074008e-05
9	0x39fcba71	0.00048204095
10	0xba24ef71	-0.0006291783
11	0xbaa04598	-0.0012227772
12	0x39eff0df	0.00045765095
13	0xba0ded3d	-0.00054140744
14	0xb935d039	-0.00017339074
15	0x3abc8818	0.0014383821
16	0xb9873f18	-0.00025796215
17	0x3a1c07fa	0.00059521163
18	0xba1fc8b0	-0.00060952734
19	0xb7bdfb1f	-2.2647493e-05
20	0x37a9a4da	2.0223135e-05
21	0x395f1323	0.00021274066
22	0xb9a3cba4	-0.00031241507
23	0xb8c5f254	-9.438829e-05
24	0x3a6779b7	0.00088300876
25	0x3723ee89	9.771095e-06
26	0x3a00beb8	0.0004911232
27	0xba745666	-0.00093207357
28	0xb9de49a9	-0.0004239802
29	0x3a6f72f1	0.0009134254
30	0xbab0572c	-0.0013453714
31	0x3a56203e	0.00081682566
32	0xb9970ce2	-0.00028810563
33	0x3a1ebc69	0.0006055297
34	0x3a4c80f2	0.0007801197
35	0x3a49e3e1	0.0007701498
36	0xb9b199f9	-0.0003387479
37	0x3a8bbcad	0.0010661088
38	0xba33c719	-0.0006857976
39	0x3a4a74ef	0.0007723113
40	0xb978a27d	-0.00023711655
41	0xb841a04d	-4.6164078e-05
42	0xb8459dd8	-4.7115464e-05
43	0xba55a0d6	-0.00081492716
44	0x3a429a84	0.00074235373
45	0xb9887c79	-0.0002603268
46	0xb9c1b715	-0.00036948235
47	0xb7f72231	-2.9460616e-05
48	0x3a76b5a6	0.0009411223
49	0x39791f9a	0.00023758263
50	0x3a093547	0.0005234074
51	0xba81de1d	-0.0009908114
52	0x3a537fdd	0.00080680643
53	0xb8f1c0ba	-0.000115276736
54	0xb9ddf002	-0.00042331225
55	0x394edbd4	0.00019727583
56	0xba9b54f0	-0.0011850875
57	0x3a3cbd64	0.0007199852
58	0xba4e2919	-0.00078644004
59	0xbaa10279	-0.0012284062
60	0x3a4ed847	0.0007890504
61	0xba2b8996	-0.0006543634
62	0xba00a5ab	-0.0004907499
63	0x3a971cd1	0.0011528974

base.cnn.cnn.5.weight f4 [64]
0	0x3f7ff775	0.99986964
1	0x3f7fac16	0.9987196
2	0x3f8014d2	1.0006354
3	0x3f7fa823	0.9986593
4	0x3f7fb5a0	0.9988651
5	0x3f7fea04	0.99966455
6	0x3f7fccd1	0.999219
7	0x3f7ff2a3	0.9997961
8	0x3f7fa3f4	0.9985955
9	0x3f7fb190	0.99880314
10	0x3f7fbb46	0.9989513
11	0x3f7f9872	0.9984199
12	0x3f7fb191	0.9988032
13	0x3f7fab4b	0.9987075
14	0x3f7fbae2	0.99894536
15	0x3f8021ba	1.0010293
16	0x3f7fcd7e	0.9992293
17	0x3f7fcb48	0.9991956
18	0x3f7fb9fa	0.9989315
19	0x3f7fc99c	0.99917006
20	0x3f7fb94c	0.99892116
21	0x3f7fbaf6	0.99894655
22	0x3f7fb30e	0.9988259
23	0x3f7fba56	0.998937
24	0x3f7fdf94	0.9995053
25	0x3f7fb3d2	0.9988376
26	0x3f800b92	1.0003531
27	0x3f7fa5df	0.99862474
28	0x3f7fb34c	0.9988296
29	0x3f7fef56	0.9997457
30	0x3f7fa477	0.9986033
31	0x3f7fc0b5	0.9990342
32	0x3f7fb2b1	0.99882036
33	0x3f800225	1.0000654
34	0x3f800ead	1.0004479
35	0x3f800f23	1.0004619
36	0x3f7fab82	0.99871075
37	0x3f8013d8	1.0006056
38	0x3f7fc762	0.9991361
39	0x3f7fced6	0.9992498
40	0x3f7fd1f7	0.99929756
41	0x3f7fc183	0.9990465
42	0x3f7fb7f2	0.99890053
43	0x3f7fc55d	0.9991053
44	0x3f800772	1.0002272
45	0x3f7fcecf	0.9992494
46	0x3f7fd4e1	0.999342
47	0x3f7fb762	0.99889195
48	0x3f7fef0a	0.9997412
49	0x3f7fb746	0.9988903
50	0x3f800e41	1.000435
51	0x3f7fb202	0.99880993
52	0x3f801b8f	1.000841
53	0x3f7fc2a4	0.99906373
54	0x3f7fcaa4	0.9991858
55	0x3f7fddeb	0.99947995
56	0x3f7fa02b	0.9985377
57	0x3f7ff922	0.9998952
58	0x3f7fa8b5	0.998668
59	0x3f7fa70e	0.9986428
60	0x3f7fc480	0.9990921
61	0x3f7ff903	0.99989337
62	0x3f7fb673	0.9988777
63	0x3f800147	1.000039

base.cnn.cnn.5.bias f4 [64]
0	0x3a75bc28	0.0009374046
1	0xbabc9c0f	-0.0014389771
2	0x3a9d112e	0.0011983269
3	0xb7fc0ed7	-3.0047651e-05
4	0x3825ec9e	3.9559432e-05
5	0x3a25ae32	0.00063202076
6	0xb87c94cb	-6.0220056e-05
7	0xb9f31d2d	-0.0004637031
8	0xb90a88e0	-0.00013211695
9	0x392d64bd	0.00016536094
10	0xba644aed	-0.00087086746
11	0xbab10014	-0.0013504052
12	0x3947bde8	0.00019048864
13	0xba379919	-0.00070037093
14	0xb995698c	-0.00028498133
15	0x3a714a2f	0.00092044746
16	0xba2a4486	-0.0006495196
17	0x3965dfdc	0.00021922536
18	0xba660079	-0.0008773874
19	0xb98b5762	-0.0002657725
20	0xb899eb15	-7.339396e-05
21	0xb8b3f5b4	-8.581151e-05
22	0xb9f7c957	-0.0004726152
23	0xba0adced	-0.0005297203
24	0x3a657003	0.0008752348
25	0xb8e0a883	-0.0001071254
26	0x3a037551	0.0005014735
27	0xbaa4b074	-0.0012564794
28	0xb9bce737	-0.00036030423
29	0x3a4cf5b8	0.00078185974
30	0xbab2e91f	-0.0013649798
31	0x3a45e6bd	0.00075493363
32	0xb92fd6c3	-0.00016769306
33	0x3a2789e7	0.00063910935
34	0x3a1081ef	0.00055125257
35	0x3a292f2e	0.00064538687
36	0xba65faa3	-0.00087730045
37	0x3a4ebf13	0.00078867486
38	0xb9cda5fe	-0.0003922432
39	0x39f5a530	0.00046853116
40	0xb9301805	-0.00016793616
41	0xb9307303	-0.00016827513
42	0xb8788f25	-5.926112e-05
43	0xba97412d	-0.001153981
44	0x3a3e5e72	0.0007261998
45	0xb9c59238	-0.0003768371
46	0xba1b4f87	-0.0005924631
47	0xb91e07e5	-0.00015070995
48	0x3a3a04b3	0.0007096037
49	0x39d43ebe	0.00040482538
50	0x395d19f4	0.0002108587
51	0xba9594b3	-0.0011412114
52	0x3a264fc4	0.00063442835
53	0xb9450e8c	-0.00018792803
54	0xb9f9720b	-0.0004757795
55	0xb9a50555	-0.00031475225
56	0xbab20775	-0.0013582545
57	0x3a078630	0.0005169837
58	0xba923a77	-0.001115634
59	0xbab87dc1	-0.0014075564
60	0x3a428002	0.00074195873
61	0xba41216e	-0.0007367347
62	0xba5934b8	-0.0008285749
63	0x3a959cff	0.0011414586

base.cnn.cnn.7.weight f4 [64, 64]
0	0x3e76411f	0.24048279
1	0x3e0490f9	0.12945928
2	0xbe838f0a	-0.25695068
3	0xbe36bce5	-0.17845495
4	0xbe815f3a	-0.25267965
5	0x3e14fb57	0.14549004
6	0xbd6e84de	-0.05823218
7	0xbe3aa837	-0.18228231
8	0xbdbb0823	-0.09132411
9	0x3e8d9136	0.2764985
10	0xbdb2afce	-0.08724938
11	0x3dba4272	0.09094705
12	0xbe3fa24c	-0.18714255
13	0x3de0ca46	0.109760806
14	0x3d2ffd54	0.042966202
15	0x3ca48f28	0.020087793
16	0xbe1b28d5	-0.15152295
17	0x3dfe7cba	0.124261335
18	0xbd35bcba	-0.044369437
19	0x3c78d663	0.0151878325
20	0x3dd4be45	0.103878535
21	0xbd26247b	-0.040562134
22	0xbd80fdb8	-0.06298393
23	0xbda86752	-0.08222832
24	0xbe8c0d9e	-0.2735414
25	0x3e20bff5	0.15698226
26	0xbe8ec9b1	-0.27888253
27	0xbd827e55	-0.06371752
28	0x3e09def3	0.13463955
29	0x3e1fff97	0.15624844
30	0xbe495d48	-0.1966449
31	0xbd50852b	-0.05090825
32	0xbc5b6278	-0.013390176
33	0xbe70cdb4	-0.2351597
34	0xbde9ad94	-0.114100605
35	0xbe7395fd	-0.23787685
36	0x3bd0ef0c	0.006376153
37	0x3e64113a	0.22272196
38	0xbddd4b29	-0.10805351
39	0x3e9223ce	0.28542942
40	0x3db3cf15	0.08779732
41	0xbe867a26	-0.26265067
42	0xbe4be447	-0.199113
43	0x3e232f5a	0.15936032
44	0xbe33729b	-0.17524187
45	0xbd845f8f	-0.06463539
46	0x3e217e0a	0.15770736
47	0xbe2b9b57	-0.16758476
48	0x3e7bad97	0.24577938
49	0xbe9bbfc7	-0.30419752
50	0xbe425157	-0.18976341
51	0xbe35acda	-0.17741719
52	0xbde292b2	-0.11063136
53	0xbdf472dd	-0.11935971
54	0x3e89113a	0.26770955
55	0xbe9cc424	-0.30618393
56	0xbd809f1f	-0.0628035
57	0xbc7db5e8	-0.015485264
58	0x3e6d42ed	0.23170061
59	0x3e6b8f3d	0.2300386
60	0xbce3c70d	-0.027804876
61	0x3e33a15e	0.17542025
62	0x3e4b7ef5	0.19872649
63	0xbb080e6f	-0.0020760556
64	0xbe95d965	-0.2926742
65	0x3dbd0cc6	0.09230952
66	0x3e6ff1c7	0.23432074
67	0x3c5fbdc2	0.013656082
68	0x3de2e825	0.11079434
69	0xbdc9e3db	-0.09857913
70	0x3e15eb7f	0.14640616
71	0xbe07e9f5	-0.13272841
72	0xbd075fd0	-0.03305036
73	0x3dc5ce57	0.09658497
74	0xbdff7a3f	-0.124744885
75	0x3dd7f671	0.10545052
76	0xbe2ac4ac	-0.16676587
77	0xbd2c4ec5	-0.042067308
78	0x3d9ecb99	0.07753677
79	0x3e5c583c	0.21518034
80	0x3cf33111	0.029686483
81	0xbe8d7327	-0.27626917
82	0x3e234678	0.1594485
83	0xbe471331	-0.19440915
84	0x3e80db56	0.2516734
85	0x3e2f98a4	0.17148072
86	0xbd8bee88	-0.068326056
87	0x3d183e71	0.037168924
88	0xbe7ea700	-0.24868393
89	0xbe0f9198	-0.14020383
90	0x3e54b687	0.20772754
91	0x3e250a58	0.16117227
92	0x3daa4c2a	0.083153084
93	0x3e6f9d82	0.23399928
94	0xbe9a561a	-0.30143815
95	0x3bc1743c	0.005903749
96	0xbe162cfb	-0.14665596
97	0x3e312bc2	0.17301849
98	0xbe8c6a0c	-0.27424657
99	0xbe90a6ec	-0.2825235
100	0xbe51870d	-0.20461674
101	0xbda47b10	-0.08031285
102	0xbd2f825a	-0.042848922
103	0xbe85497e	-0.26032633
104	0x3bb6d2d7	0.0055793333
105	0x3e627c0f	0.22117637
106	0xbe3117a6	-0.17294177
107	0x3d8c0cfb	0.06838413
108	0xbe2c66c1	-0.16836073
109	0xbde44343	-0.11145642
110	0x3c1e84dd	0.009675232
111	0xbd65470a	-0.05597595
112	0x3dd1b5cf	0.10239755
113	0x3e98d2ab	0.29848227
114	0xbdc6a0aa	-0.09698613
115	0x3e68815c	0.22705597
116	0x3d664d3b	0.056225996
117	0x3e1cc24a	0.1530849
118	0xbda2ab04	-0.07942775
119	0xbe67505b	-0.22589247
120	0x3e6ead18	0.23308218
121	0xbe485a37	-0.19565664
122	0xbe1b1bd1	-0.1514733
123	0xbd547fce	-0.051879697
124	0xbe944e72	-0.289661
125	0xbd65840e	-0.05603414
126	0x3ddb91a2	0.10721137
127	0xbcfcc232	-0.030854318
128	0x3e8ac57f	0.27103803
129	0xbe69172e	-0.22762749
130	0xbe74a346	-0.23890409
131	0xbe2ebac3	-0.17063431
132	0x3d80e467	0.06293564
133	0xbe35d40e	-0.17756674
134	0xbd4ef9d9	-0.050531242
135	0xbd5d90ad	-0.05409305
136	0x3dccc0a1	0.099976785
137	0x3d99ea1f	0.07515358
138	0xbd1f5421	-0.03889859
139	0x3cec3f46	0.028838765
140	0xbe453be2	-0.19261125
141	0x3d212bd3	0.039348435
142	0x3dd132fc	0.102148026
143	0xbd11d03a	-0.03559897
144	0x3e172211	0.14759089
145	0xbdce4dcf	-0.100734346
146	0xbde20bb1	-0.11037386
147	0x3d675323	0.05647577
148	0xbe708f82	-0.23492244
149	0x3dcd6be9	0.10030348
150	0xbc54a3e7	-0.0129785305
151	0x3e538081	0.20654489
152	0x3e30940c	0.17243975
153	0xbe8371dc	-0.25672805
154	0x3e1ce31c	0.1532101
155	0x3e2ec1b5	0.17066081
156	0x3e5370f4	0.20648557
157	0xbe523923	-0.20529608
158	0xbe4f622d	-0.20252295
159	0xbe0ca00c	-0.13732928
160	0x3e631354	0.22175342
161	0x3e8978b0	0.2684989
162	0xbe822258	-0.25416827
163	0x3e2cc508	0.16872036
164	0xbe8d13ab	-0.27554068
165	0xbd827f75	-0.06371967
166	0xbe968c4c	-0.29403913
167	0xbe6af294	-0.22944099
168	0x3e2821a4	0.16419083
169	0x3e309751	0.17245223
170	0xbe899941	-0.26874736
171	0x3d9d52d5	0.076818146
172	0x3d93ef4a	0.07223375
173	0xbe07dc4f	-0.13267635
174	0xbe3c901f	-0.18414353
175	0xbd8d4df3	-0.06899633
176	0x3e106c7d	0.14103885
177	0x3dce9cad	0.10088477
178	0xbdb9f917	-0.09080713
179	0x3e42fc12	0.1904147
180	0x3e3b19a8	0.18271506
181	0xbe29dc79	-0.1658801
182	0xbbedc70d	-0.0072563947
183	0xbe79e6ac	-0.244044
184	0xbd4c3a87	-0.049860504
185	0xbe726060	-0.23669577
186	0x3d939e11	0.07207883
187	0x3bed4e2e	0.0072419858
188	0xbe45f3e2	-0.19331315
189	0x3dd5e5c4	0.10444215
190	0x3e278b84	0.16361815
191	0x3e81f879	0.25384882
192	0xbe652754	-0.22378284
193	0xbe0d6a39	-0.13810052
194	0xbd9e2d57	-0.07723492
195	0x3d189e71	0.037260476
196	0xbd669e1f	-0.05630314
197	0x3dcc9676	0.09989636
198	0x3e1af1d4	0.15131313
199	0xbd4bb4f8	-0.049733132
200	0x3d3c72a7	0.04600778
201	0xbe4a8870	-0.1977861
202	0x3e6407f4	0.22268659
203	0xbe8cdd43	-0.2751256
204	0xbd8ad794	-0.067793995
205	0xbe8c7758	-0.27434802
206	0x3db483ec	0.088142246
207	0x3d9d8a4f	0.07692396
208	0xbd2c786f	-0.042107042
209	0x3e72ab5b	0.2369818
210	0x3e333106	0.1749917
211	0xbe0f9c92	-0.1402457
212	0xbd8ad06c	-0.067780346
213	0xbdb984a6	-0.09058504
214	0xbe1f62a7	-0.15564977
215	0xbe273fc5	-0.1633292
216	0x3e37359a	0.17891541
217	0xbe337559	-0.17525233
218	0xbdb92131	-0.09039534
219	0x3e390aac	0.18070477
220	0x3dcbd234	0.099522024
221	0x3c8a6759	0.016894983
222	0x3e8a4579	0.27006128
223	0x3c45578c	0.012044799
224	0xbdcede68	-0.101010144
225	0x3e84f3f0	0.2596736
226	0x3e854a43	0.2603322
227	0xbdaa5b47	-0.08318191
228	0xbe297ef7	-0.1655234
229	0x3a240dab	0.000625814
230	0x3d9ce87f	0.076615326
231	0x3e87ae0f	0.26499984
232	0x3df2f24a	0.11862619
233	0x3e80ec83	0.25180444
234	0xbe1b6f3c	-0.15179151
235	0xbe0b33a8	-0.13593924
236	0x3e9a3648	0.30119538
237	0x3e5d6027	0.2161871
238	0x3c06279f	0.008188157
239	0xbe70d8fa	-0.2352027
240	0x3e1e55ce	0.1546242
241	0x3e39fddb	0.18163244
242	0xbe81af2e	-0.25328964
243	0x3cd6ec25	0.02623565
244	0xbde918f1	-0.1138171
245	0xbe7912c4	-0.24323565
246	0x3dd81b2e	0.10552059
247	0x3e98844e	0.2978844
248	0x3e6676f2	0.22506312
249	0x3cfee827	0.031116558
250	0xbe23cadf	-0.15995358
251	0x3e96577d	0.29363623
252	0xbe2e4251	-0.17017485
253	0x3dbded37	0.09273761
254	0x3db2572d	0.08708034
255	0xbe5bb20e	-0.21454641

base.cnn.cnn.7.bias f4 [64]
0	0xbab5d85f	-0.0013873688
1	0xba398246	-0.0007076602
2	0x39d6a1ad	0.0004093772
3	0xba92c54c	-0.0011197715
4	0xba447672	-0.00074944564
5	0xba158900	-0.00057043135
6	0xba1b1f08	-0.0005917405
7	0xba060a3f	-0.0005113221
8	0x3aa05516	0.0012232389
9	0xbac2525f	-0.0014825574
10	0xb9e3d518	-0.0004345558
11	0xbaa93fcd	-0.0012912691
12	0x39841c10	0.0002519791
13	0xba220fb0	-0.0006182147
14	0x3a999f5b	0.0011720465
15	0x3a96b5b9	0.0011498249
16	0xba7131e8	-0.0009200857
17	0x39f1677f	0.00046044213
18	0xb986405a	-0.00025606417
19	0x3872cc78	5.7887723e-05
20	0x3a4aef33	0.0007741332
21	0xb89af8c6	-7.38963e-05
22	0xba48262a	-0.00076350814
23	0xba8f6abc	-0.0010941844
24	0x3a05adc9	0.00050994434
25	0x38b3ad50	8.567667e-05
26	0x3a3d53c2	0.0007222259
27	0x3aad10e4	0.0013203886
28	0x3a108970	0.0005513644
29	0xb9a7fac9	-0.00032039572
30	0xb9b75ead	-0.0003497502
31	0xbaa88f50	-0.0012860093
32	0x3abe785e	0.0014531722
33	0x393b32e7	0.00017852672
34	0xba4bd975	-0.0007776239
35	0x393e081f	0.00018122837
36	0xbae1139a	-0.0017171979
37	0x39a9a689	0.0003235827
38	0x396a0bc6	0.00022320365
39	0x3ad5895d	0.0016291548
40	0x3a844a23	0.0010092895
41	0x39be62c6	0.00036313216
42	0x3a5cf3b0	0.0008428646
43	0xba3c2364	-0.00071769045
44	0x3a69e028	0.00089216465
45	0x3a3ade69	0.00071284786
46	0x3aa6430d	0.0012684778
47	0x3a7ab959	0.0009564362
48	0xba72ec39	-0.00092667673
49	0x3a2a7584	0.00065024965
50	0xba23bf85	-0.0006246495
51	0x3aaf5baf	0.0013378764
52	0x38d022d4	9.9247e-05
53	0xba838a80	-0.0010035783
54	0x3a3fb8d9	0.0007313616
55	0xbab47a08	-0.0013769278
56	0x39c5d0f6	0.00037730456
57	0x3906ca89	0.00012854686
58	0xb6f244df	-7.2201797e-06
59	0x3a9ae99e	0.0011818891
60	0xba3080d4	-0.0006733064
61	0x3a118a25	0.0005551896
62	0x3a1468be	0.000566136
63	0x3a7598a3	0.0009368753

base.cnn.cnn.8.weight f4 [64]
0	0x3f7fa666	0.9986328
1	0x3f7fb2e4	0.9988234
2	0x3f7fbf04	0.9990084
3	0x3f7fb71f	0.99888796
4	0x3f7fa453	0.99860114
5	0x3f7fbe3d	0.99899656
6	0x3f7fba52	0.9989368
7	0x3f7fdaa8	0.9994302
8	0x3f800751	1.0002233
9	0x3f7fbf77	0.9990153
10	0x3f7fd614	0.9993603
11	0x3f7faac7	0.9986996
12	0x3f7fbb5c	0.9989526
13	0x3f7fb26c	0.99881625
14	0x3f800aca	1.0003293
15	0x3f801ed0	1.0009403
16	0x3f7fc86e	0.99915206
17	0x3f7ff9b2	0.9999038
18	0x3f7fb341	0.99882895
19	0x3f7fbab8	0.99894285
20	0x3f7ff881	0.9998856
21	0x3f7fbe85	0.99900085
22	0x3f7fbbc3	0.99895877
23	0x3f7fa047	0.9985394
24	0x3f7fb042	0.99878323
25	0x3f7fcd46	0.999226
26	0x3f800a14	1.0003076
27	0x3f8010f4	1.0005174
28	0x3f7fc082	0.9990312
29	0x3f7fb625	0.99887305
30	0x3f7fd2dd	0.99931127
31	0x3f7faf0a	0.99876463
32	0x3f801fea	1.0009739
33	0x3f7fb97f	0.9989242
34	0x3f7fa20d	0.99856645
35	0x3f7fbce6	0.9989761
36	0x3f7f84e1	0.9981213
37	0x3f7fc18f	0.9990472
38	0x3f7fbacd	0.9989441
39	0x3f8038b9	1.001731
40	0x3f7fcad2	0.99918854
41	0x3f7fc530	0.9991026
42	0x3f7fc9bc	0.999172
43	0x3f7fbdad	0.998988
44	0x3f7ff8c1	0.99988943
45	0x3f7fcfc9	0.9992643
46	0x3f7fea52	0.9996692
47	0x3f8010c0	1.0005112
48	0x3f7fb48a	0.99884856
49	0x3f7fcaa7	0.999186
50	0x3f7fc1d3	0.9990513
51	0x3f800f55	1.0004679
52	0x3f7fc75d	0.9991358
53	0x3f7f9fc0	0.99853134
54	0x3f800aa7	1.0003251
55	0x3f7f9fed	0.998534
56	0x3f7fc107	0.9990391
57	0x3f7ff637	0.9998507
58	0x3f7fcfa6	0.9992622
59	0x3f8001d2	1.0000556
60	0x3f7fafe1	0.99877745
61	0x3f8005d6	1.0001781
62	0x3f80041e	1.0001256
63	0x3f800932	1.0002806

base.cnn.cnn.8.bias f4 [64]
0	0xbab5f74a	-0.0013882902
1	0xba2f91e9	-0.00066974625
2	0x39a09a90	0.00030632736
3	0xba91f9bf	-0.0011137052
4	0xba714ed1	-0.0009205165
5	0xb9fe48b8	-0.00048500835
6	0xb9ef576b	-0.00045650764
7	0xba806ece	-0.0009798647
8	0x3a9a389a	0.0011766136
9	0xbabdc84f	-0.0014479252
10	0xba19920d	-0.000585825
11	0xbaafd8f3	-0.0013416096
12	0x393875ba	0.00017591464
13	0xba56ed1b	-0.00081987836
14	0x3a96c13e	0.0011501682
15	0x3a960fde	0.0011448821
16	0xba3fae75	-0.0007312068
17	0x39ff8bd8	0.00048741582
18	0xb9939534	-0.0002814919
19	0x38051397	3.1727915e-05
20	0x3a5b44a1	0.00083644135
21	0xb7bbb987	-2.237853e-05
22	0xba672c9b	-0.00088185974
23	0xba94609c	-0.0011320296
24	0x39e774c5	0.00044146753
25	0x38e62d5b	0.00010975703
26	0x3a485586	0.00076421385
27	0x3ab2ec19	0.0013650685
28	0x3a04ff73	0.0005073465
29	0xb986e4f6	-0.0002572906
30	0xba05e29b	-0.0005107314
31	0xbaa6c9a8	-0.0012724893
32	0x3ac3320c	0.0014892234
33	0x381d76ec	3.754247e-05
34	0xba796aad	-0.0009514492
35	0x374a1397	1.2044699e-05
36	0xbae3cc73	-0.0017379656
37	0x398f61bf	0.00027347912
38	0xb80712f3	-3.2204156e-05
39	0x3ad859c6	0.0016506247
40	0x3a72e4e0	0.00092656724
41	0x3989a49d	0.00026253323
42	0x3a5054a6	0.0007947184
43	0xba4ce86c	-0.0007816616
44	0x3a77b37f	0.0009449049
45	0x3a20a287	0.0006127734
46	0x3aa4f575	0.0012585359
47	0x3a8f94b1	0.0010954348
48	0xba7dd14e	-0.0009682373
49	0x3a1d729e	0.0006006154
50	0xba12036a	-0.0005569967
51	0x3ab10f6c	0.0013508624
52	0x38678799	5.5200977e-05
53	0xba8de3a0	-0.0010825284
54	0x3a2c607b	0.0006575656
55	0xbac1be48	-0.001478144
56	0x398eb45e	0.00027218735
57	0x3745fe3e	1.180131e-05
58	0xb90bd511	-0.00013335446
59	0x3a986f75	0.0011629896
60	0xba3715b4	-0.000698413
61	0x3a29638a	0.0006461671
62	0x3a356fda	0.0006921269
63	0x3a8b109c	0.0010609808

rnn.rnn.weight_ih_l0 f4 [192, 64]
0	0x3d6214d4	0.055195644
1	0x3de5481e	0.11195396
2	0xbccce035	-0.025009254
3	0xbb4c8643	-0.0031207956
4	0x3bc31ca8	0.005954344
5	0x3d2b6d6d	0.041852403
6	0xbda46025	-0.080261506
7	0x3d8cac2e	0.06868778
8	0x3cfe8eda	0.031073976
9	0xbe053da9	-0.13011803
10	0x3bf9fb6b	0.0076288483
11	0xbd0f0e60	-0.03492582
12	0x3e03da86	0.12876329
13	0x3e1486b4	0.1450451
14	0xbd695b9a	-0.056972124
15	0xbd8f1f02	-0.06988336
16	0xbcc68945	-0.024235377
17	0xbddb41d7	-0.10705917
18	0xbe138b9f	-0.1440873
19	0x3c1b9ead	0.0094982805
20	0xbda55faa	-0.08074887
21	0xbda75a5f	-0.08171534
22	0xbd8d85b8	-0.069102705
23	0xbd0eedc7	-0.03489473
24	0x3da04cf0	0.07827175
25	0x3dade13d	0.084902264
26	0x3e02db40	0.1277895
27	0xbdca21e4	-0.098697454
28	0x3d06e11b	0.03292952
29	0x3db4e5e5	0.088329114
30	0xbcbe3743	-0.02321971
31	0x3cfc66c6	0.030810725
32	0xbd9d619c	-0.07684633
33	0xbdf1109d	-0.11770747
34	0xbdbdba99	-0.09264106
35	0x3d4c4209	0.049867664
36	0xbd07d243	-0.033159506
37	0x3da6f1e6	0.08151607
38	0xbdff615c	-0.12469742
39	0xbe17ae15	-0.14812501
40	0xbdc6884b	-0.096939646
41	0xbdf83ff3	-0.12121572
42	0xbd4be5a2	-0.04977954
43	0xbe19cb80	-0.15019035
44	0x3bd8513e	0.0066014817
45	0xbd98663c	-0.07441375
46	0x3df48cfb	0.119409524
47	0x3bc6c20f	0.006065614
48	0xbe19ce66	-0.15020141
49	0xbce1f854	-0.027584232
50	0xbd7fddc7	-0.062467363
51	0x3dae84fe	0.0852146
52	0xbd3ab375	-0.0455813
53	0x3c0fa9f0	0.008768544
54	0xbcf92744	-0.030414231
55	0x3e0b4d67	0.13603745
56	0xbde28842	-0.11061145
57	0xbd935c84	-0.0719538
58	0x3e04963a	0.12947932
59	0xbd52ef58	-0.051497787
60	0xbdc69d2b	-0.09697946
61	0xbd4c589f	-0.049889203
62	0x3d830ac3	0.06398537
63	0xbd874eac	-0.06606802
64	0x3b9752a5	0.0046180063
65	0x3d1279b2	0.03576059
66	0x3e104f10	0.1409266
67	0x3da0a8e4	0.07844713
68	0x3e1646a4	0.14675385
69	0xbde3e413	-0.11127486
70	0x3e0ab369	0.13545002
71	0x3d90237d	0.07038019
72	0x3c835c11	0.016035112
73	0xbdf714c1	-0.12064505
74	0x3cdb63a9	0.02678092
75	0x3dc2eb4c	0.095175356
76	0x3c6921ae	0.014229221
77	0xbe0bb0fb	-0.13641731
78	0x3c051a61	0.008123965
79	0x3e0b3392	0.13593891
80	0x3d8792a6	0.06619768
81	0x39ada66b	0.00033121122
82	0xbdff21a7	-0.124575906
83	0x3e17abba	0.14811602
84	0x3db01ca7	0.08599215
85	0x3d52b8df	0.051445838
86	0xbe099275	-0.13434775
87	0xbdf3b47d	-0.1189966
88	0x3df3374d	0.11875782
89	0x3c989146	0.01862396
90	0xbe16d078	-0.14727962
91	0xbdf408f0	-0.11915767
92	0xbe0278d4	-0.12741405
93	0xbdd7ef9b	-0.10543748
94	0x3e0d7f5c	0.13818115
95	0x3dbc6e43	0.09200718
96	0xbd5437b8	-0.05181095
97	0xbdc1569a	-0.09440346
98	0xbd64e909	-0.055886302
99	0xbdc7df74	-0.09759417
100	0x3e13a62d	0.1441886
101	0x3cfd6282	0.030930761
102	0x3d355112	0.044266768
103	0x3c78567a	0.015157336
104	0x3c301b6a	0.0107487235
105	0xbda40b4b	-0.080099665
106	0xbcb40225	-0.021973679
107	0x3d0ed273	0.03486867
108	0x3d534cc9	0.0515869
109	0xbdcee2a8	-0.10101825
110	0x3e08c0a7	0.13354741
111	0x396d742e	0.00022645362
112	0xbd2c15f4	-0.042013124
113	0x3c80674b	0.015674254
114	0x3d162e49	0.036665235
115	0x3e02a551	0.12758376
116	0xbe07c230	-0.1325767
117	0x3dbf6e88	0.09347254
118	0x3c7d1396	0.015446564
119	0xbddeaa0e	-0.10872279
120	0x3dad5f71	0.0846547
121	0xbc6ac3bb	-0.014328892
122	0x3e14c739	0.14529122
123	0x3d15d608	0.03658107
124	0x3d99adb1	0.07503832
125	0x3c168461	0.009186835
126	0x3d21ee5b	0.039533954
127	0x3cd5ec50	0.02611366
128	0xbd84fd60	-0.0649364
129	0x3d50f5d8	0.051015705
130	0xbd96e61e	-0.0736811
131	0xbe04dce6	-0.12974891
132	0xbdfacb20	-0.12245774
133	0xbdff874f	-0.1247698
134	0xbe171986	-0.1475583
135	0x3c825bb3	0.015912866
136	0x3be07492	0.0068498338
137	0x3d7b7114	0.061387137
138	0x3c803bd6	0.015653532
139	0x3dec488d	0.115372755
140	0x3dbfc45a	0.09363623
141	0x3e0117b3	0.12606697
142	0x3c442fcc	0.011974286
143	0x3e112057	0.14172493
144	0xbd647879	-0.055778954
145	0xbd5095c0	-0.050924063
146	0xbdf1a30b	-0.11798676
147	0xbc4c18c2	-0.012457075
148	0xbe1b6cbc	-0.15178198
149	0xbd3d2ab6	-0.04618331
150	0xbdbb8f57	-0.09158199
151	0xbd4d06ee	-0.050055437
152	0xbd33ad24	-0.04386629
153	0xbc9f25f7	-0.019427283
154	0x3cd80104	0.026367672
155	0x3e10492e	0.14090416
156	0x3de3f978	0.11131567
157	0xbddd2ee2	-0.10799958
158	0xbda7a277	-0.081852846
159	0xbc84d221	-0.016213479
160	0xbca663bc	-0.020311229
161	0xbd94d17c	-0.072665185
162	0xbe058cee	-0.13042042
163	0x3e1939cb	0.14963453
164	0x3dd17d84	0.10229018
165	0x3df83ef8	0.12121385
166	0x3d353ea4	0.044249192
167	0x3d5370d3	0.05162127
168	0x3e0009e0	0.12503767
169	0x399e82b6	0.00030233496
170	0xbdcf2a43	-0.10115483
171	0x3dafc0e1	0.085817106
172	0x3d192a13	0.03739364
173	0x3d71e126	0.05905261
174	0xbc0313b0	-0.008000299
175	0x3c66f26c	0.014095884
176	0xbd7aee70	-0.061262548
177	0xbc156bc5	-0.009119933
178	0xbcb73912	-0.02236608
179	0x3dade202	0.08490373
180	0xbdd5d667	-0.104412846
181	0x3e13f700	0.14449692
182	0x3dff3c9c	0.12462732
183	0xbdd04624	-0.10169628
184	0xbe004a5a	-0.12528363
185	0x3e0b57c9	0.13607706
186	0x3d0bd641	0.034139875
187	0x3c52dbff	0.012869834
188	0x3d22c6f9	0.039740536
189	0xbcad5e07	-0.021163
190	0xbdd02300	-0.10162926
191	0xbd8eb06e	-0.06967245
192	0x3d0f71f9	0.035020802
193	0x3d045fb9	0.03231785
194	0xbd9c8d58	-0.07644147
195	0x3de47f6f	0.111571185
196	0x3d623ee4	0.05523576
197	0x3de6dccd	0.11272583
198	0x3c9b5005	0.018959055
199	0xbcf40194	-0.029785909
200	0xbe0dfea8	-0.13866675
201	0xbd384e98	-0.044996828
202	0x3c0f274a	0.008737395
203	0xbd26599f	-0.040612813
204	0xbbeb6f56	-0.007184903
205	0xbd84b184	-0.06479171
206	0x3d392d12	0.045208998
207	0x3de2ce82	0.110745445
208	0x3dac1e33	0.084041975
209	0x3d5cabdc	0.053874835
210	0x3e1b3a3e	0.15158936
211	0xbd7a2a4e	-0.0610755
212	0xbd0d71f6	-0.03453251
213	0xbe073962	-0.13205484
214	0x3d2d1d33	0.042264175
215	0x3dd01303	0.10159876
216	0x3e1a1014	0.15045196
217	0xbd8f72a6	-0.07004289
218	0x3d39c196	0.045350634
219	0xbdc93b2e	-0.09825741
220	0x3d1eaa68	0.03873673
221	0xbd066400	-0.03281021
222	0xbe19482f	-0.14968942
223	0x3ce4d4d8	0.027933523
224	0x3dd03032	0.101654425
225	0x3cde177c	0.027110808
226	0x3d725080	0.059158802
227	0xbd151f93	-0.036407065
228	0xbd65ed85	-0.05613472
229	0xbe01ec97	-0.12687908
230	0xbd3a4db4	-0.04548426
231	0x3e06a24c	0.13147849
232	0x3d9a1bb9	0.07524819
233	0xbe00c15b	-0.1257376
234	0x3cbf7fc4	0.023376353
235	0x3daf0f90	0.0854789
236	0x3d8bfe8c	0.0683566
237	0xbc99c935	-0.0187727
238	0x3d7d4e7e	0.061842434
239	0x3d5292cd	0.05140953
240	0x3d03c51d	0.032170404
241	0xbc9ffc20	-0.019529402
242	0xbdb97dec	-0.09057221
243	0x3e019b43	0.12656884
244	0x3c7f980b	0.015600215
245	0x3d04b555	0.032399494
246	0xbdd59f13	-0.104307316
247	0xbc96b61b	-0.018397382
248	0xbdbe8b7b	-0.093039475
249	0x3e0d4283	0.13794903
250	0x3d610f96	0.054946505
251	0x3dd13d3f	0.1021676
252	0xbd3e46d3	-0.046454262
253	0x3e05c2bd	0.13062568
254	0xbda68da9	-0.08132488
255	0x39c1fb1c	0.0003699892

rnn.rnn.weight_hh_l0 f4 [192, 64]
0	0x3cc8638e	0.024461534
1	0xbdca0fb0	-0.098662734
2	0x3d6dfa6e	0.058100156
3	0xbdd0e27b	-0.10199448
4	0xbcc610fd	-0.024178023
5	0x3d937fb3	0.07202091
6	0x3dadfd79	0.08495612
7	0x3d619f70	0.055083692
8	0x3de61c7b	0.11235901
9	0xbd267772	-0.040641256
10	0xbb9eeaed	-0.0048497827
11	0xbdc110e6	-0.09427051
12	0x3e0db62f	0.13839029
13	0x3b8ea217	0.0043528187
14	0x3e0cbe6b	0.13744514
15	0x3d900fb4	0.07034245
16	0x3dbe3f9d	0.09289477
17	0x3ce42539	0.02784978
18	0xbe1557b0	-0.14584231
19	0x3d831d8d	0.06402121
20	0xbe152951	-0.14566542
21	0xbdebfcf3	-0.115228556
22	0xbd7373a4	-0.059436455
23	0xbccd80de	-0.025085863
24	0x3d243767	0.0400919
25	0xbd277a4c	-0.040888116
26	0xbd726936	-0.05918237
27	0xbd82ac0a	-0.0638047
28	0xbd7f315b	-0.06230293
29	0x3db4692e	0.08809124
30	0xbe0340fd	-0.1281776
31	0x3d9f463e	0.077770695
32	0x3de789d8	0.113055885
33	0xbd70e776	-0.05881449
34	0x3c54daf4	0.012991656
35	0xbd857a0c	-0.06517419
36	0xbd2c63d2	-0.042087384
37	0xbca0f030	-0.01964578
38	0xbd951e80	-0.07281208
39	0xbdc9bfc7	-0.09851032
40	0x3e136072	0.1439226
41	0xbe0b07b9	-0.13577165
42	0x3c74eb65	0.014948701
43	0x3c5b2433	0.01337533
44	0x3df67132	0.12033309
45	0x3d0c2252	0.034212418
46	0x3c9752ba	0.018472064
47	0xbcf46db9	-0.029837476
48	0x3e0cd62c	0.13753575
49	0xbd87744c	-0.06613979
50	0x3d3491f1	0.044084493
51	0x3dca0b57	0.09865444
52	0x3dd6b7ec	0.10484299
53	0xbd6e09d1	-0.05811483
54	0xbe0e50a6	-0.13897952
55	0x3db24a8c	0.08705625
56	0x3d814563	0.063120626
57	0xbdded698	-0.10880774
58	0x3dba3e1c	0.09093878
59	0x3d82d647	0.063885264
60	0x3e003afa	0.12522498
61	0x3dfdbe83	0.12389853
62	0xbdce4eac	-0.10073599
63	0xbe1bee90	-0.15227723
64	0xbde6997c	-0.112597436
65	0x3d728d5b	0.05921684
66	0xbe050da5	-0.12993486
67	0xbdac5a2b	-0.08415636
68	0xbcc109d7	-0.023564262
69	0x3d0e8c58	0.03480181
70	0x3e02508b	0.12726037
71	0xbdfea52e	-0.12433849
72	0xbd8b9e2d	-0.06817279
73	0x3dee3df7	0.116329126
74	0x3cc952bd	0.024575585
75	0xbdbf3672	-0.093365565
76	0x3d769e6e	0.060209684
77	0x3dd45aa4	0.10368851
78	0x3d2c8f89	0.042129073
79	0xbdcf8bc6	-0.101340815
80	0xbdc03bec	-0.09386429
81	0xbdecd352	-0.11563744
82	0xbde5c8c7	-0.11219936
83	0xbdb10ea4	-0.086453706
84	0x3b89afe6	0.004201877
85	0x3c96232a	0.018327314
86	0xbd9ff2ef	-0.07810008
87	0x3e077431	0.13227917
88	0xbc60b9d4	-0.01371618
89	0xbe0e7e37	-0.13915335
90	0xb9b83656	-0.00035135698
91	0xbd4876ef	-0.04894155
92	0xbb1292bf	-0.00223653
93	0x3d44f44f	0.048084553
94	0xbe1885ac	-0.14894742
95	0xbe19d543	-0.15022759
96	0xbbd388b6	-0.006455506
97	0xbdf6a82d	-0.12043796
98	0x3d1c2159	0.03811774
99	0xbde7a094	-0.11309925
100	0x3cd95656	0.026530426
101	0xb9daa47b	-0.00041702748
102	0x3d849b94	0.06474987
103	0x3d33f6d8	0.04393658
104	0x39ac6ddf	0.00032888257
105	0x3e03a86f	0.12857221
106	0xbcdb6e68	-0.026786044
107	0xbc2a7d29	-0.010405817
108	0x3aac43e0	0.0013142787
109	0xbd7ccf85	-0.061721344
110	0xbde4a7c0	-0.11164808
111	0x3d92f611	0.0717584
112	0x3e0d6119	0.13806571
113	0xbdd3750d	-0.1032506
114	0x3c75d661	0.015004725
115	0xbe125c33	-0.14292984
116	0x3d821109	0.063509054
117	0xbe12d470	-0.14338851
118	0x3e01b3bc	0.1266622
119	0x3c4ce9c2	0.012506904
120	0xbd4a40d9	-0.04937825
121	0x3e0dc151	0.13843276
122	0xbe0bdeb8	-0.13659179
123	0x3dfb0c7b	0.1225824
124	0x3b80b546	0.0039278595
125	0xbddac9f2	-0.10683049
126	0xbdee7816	-0.11643998
127	0xbba229ec	-0.004948845
128	0xbb387108	-0.0028143544
129	0x3deeccc1	0.116601475
130	0xbc27bc23	-0.010237726
131	0xbdd04cdb	-0.10170909
132	0x3d72f44c	0.05931501
133	0x3deb355c	0.11484787
134	0xbd4036c9	-0.046927247
135	0x3e1a427a	0.15064421
136	0x3c993d55	0.018706003
137	0xbde46c58	-0.111534774
138	0x3d5f6368	0.05453816
139	0x3d32f57a	0.043691136
140	0xbd4aef91	-0.049544875
141	0xbe0b9aa2	-0.13633206
142	0x3daa8aa4	0.08327225
143	0xbde34b09	-0.11098296
144	0x3d2b7b5f	0.041865703
145	0xbdbd2f20	-0.09237504
146	0x3d03ea51	0.032205883
147	0x3bc88689	0.0061195535
148	0xbde91079	-0.11380095
149	0xbdc16c33	-0.094444655
150	0xbd5e4df8	-0.054273576
151	0x3d9bf1a0	0.07614446
152	0x3d81dde8	0.063411534
153	0xbcfd0e7f	-0.030890701
154	0x3d91912b	0.07107767
155	0x3d58775c	0.052848205
156	0xbddc791d	-0.10765288
157	0x3d83ec98	0.06441611
158	0xbc88d3b6	-0.016702514
159	0xbe09d959	-0.13461818
160	0xbdc92450	-0.09821379
161	0xbc7c33ac	-0.015393179
162	0xbdf624d0	-0.1201874
163	0x3de257b6	0.11051886
164	0x3d1104fb	0.03540514
165	0xbc66a4fe	-0.014077423
166	0xbd1dc841	-0.038521055
167	0xbd9f5993	-0.07780757
168	0xbd51001e	-0.051025502
169	0xbdae9bac	-0.08525786
170	0x3e19cc0d	0.15019245
171	0x3d8d1be2	0.06890084
172	0xbd9d00eb	-0.07666191
173	0xbe0d04fa	-0.1377143
174	0x3e1629a3	0.1466432
175	0xbdde1227	-0.10843306
176	0xbd5d8e52	-0.054090805
177	0xbcb741b2	-0.022370193
178	0x3daf90f1	0.08572567
179	0xbd88d645	-0.06681494
180	0xbd79d4b4	-0.060993865
181	0xbe018b8f	-0.12650894
182	0x3cdac342	0.026704434
183	0xbbe2ff12	-0.0069273794
184	0xbd66094b	-0.056161206
185	0xbd5aea22	-0.053445943
186	0xbc81e6d6	-0.015857141
187	0xbdc307ac	-0.09522948
188	0x3d079a75	0.033106286
189	0xbd8e3369	-0.069433995
190	0xbcb9970b	-0.02265503
191	0xbd4464ab	-0.047947567
192	0x3ded9b85	0.116019286
193	0x3d633abe	0.055475943
194	0x3e0b26c7	0.13589011
195	0x3d8e99e7	0.06962948
196	0x3db75e92	0.08953585
197	0xbdaefadb	-0.08543941
198	0x3d9d5656	0.07682483
199	0x3de6ab74	0.11263171
200	0x3dcebcf5	0.100946344
201	0xbe03eed3	-0.12884073
202	0x3da004e5	0.078134336
203	0x3e17e3ac	0.14832944
204	0xbe0217fc	-0.12704462
205	0x3d9fc680	0.07801533
206	0xbcca9346	-0.024728429
207	0x3db3eded	0.08785615
208	0x3e0663d4	0.13124019
209	0xbd7cdd1b	-0.0617343
210	0xbdd4e5da	-0.10395403
211	0xbe16bd9a	-0.14720765
212	0x3a19c7a6	0.0005866237
213	0x3d49cc2e	0.049266987
214	0xbc7040a8	-0.014663853
215	0xbe0178d1	-0.12643744
216	0x3d832a22	0.064045206
217	0x3dc475c1	0.09592772
218	0x3d34bf01	0.044127468
219	0x3dea482c	0.11439547
220	0x3e147291	0.14496829
221	0x3d95db89	0.07317264
222	0xbdec241e	-0.11530326
223	0x3de6fcc9	0.11278684
224	0xbcc4a8a9	-0.024006205
225	0xbdcfedf0	-0.10152805
226	0xbd8e08b9	-0.069352575
227	0xbd80115e	-0.062533125
228	0xbd151fed	-0.0364074
229	0xbdfa3b81	-0.12218381
230	0xbe066ab6	-0.13126644
231	0xbe066796	-0.13125452
232	0xbe16875e	-0.14700076
233	0x3d352b19	0.044230554
234	0x3c4ff789	0.012693294
235	0x3db8ec8e	0.09029494
236	0x3dab77a9	0.08372433
237	0xbc4aa875	-0.012369265
238	0x3da74fe0	0.08169532
239	0xbd6f7bd0	-0.058467686
240	0xbcbfcc4f	-0.023412852
241	0xbd82d6dd	-0.06388638
242	0x3d8b4223	0.06799724
243	0x3cca1728	0.024669245
244	0xbd20cb42	-0.03925634
245	0xbcb4f104	-0.022087581
246	0xbcfa1942	-0.030529622
247	0xbe11a7a3	-0.14224105
248	0x3cdf0f22	0.027228896
249	0xbe103c9a	-0.14085618
250	0xbdec94d7	-0.115518264
251	0x3dcc9c05	0.09990696
252	0xbdbf072a	-0.09327538
253	0x3d0a367d	0.03374337
254	0xbd305ee8	-0.04305926
255	0x3dceab25	0.10091237
