MARL/MAPPO-ATTENTIOAN/onpolicy/scripts/results/Meltingpot/collaborative_cooking__circuit_0/territory__rooms/mappo/check/run101/models/actor_agent6.pt (torch, 795666 bytes, 22 tensors)

base.cnn.cnn.0.weight f4 [32, 3, 3, 3]
0	0xbe165cca	-0.14683834
1	0x3dbd6127	0.09247046
2	0x3dcefb9b	0.10106584
3	0xbdbc355c	-0.09189865
4	0x3e35eca8	0.17766058
5	0x3cfd373e	0.03091013
6	0xbd635198	-0.055497736
7	0x3dccb02a	0.09994538
8	0x3e142cd2	0.14470223
9	0xbe28154e	-0.16414377
10	0xbd5bff96	-0.053710543
11	0xbc3123eb	-0.010811786
12	0x3e01898e	0.12650129
13	0xbe45aefd	-0.19305034
14	0xbcb599c1	-0.022168042
15	0xbe317ca7	-0.17332707
16	0x3d6c2bd9	0.057659004
17	0x3d9971b7	0.074923925
18	0x3e368b19	0.17826499
19	0x3e0fd919	0.1404766
20	0xbdb8e463	-0.09027936
21	0xbce0151c	-0.027353816
22	0x3cf6f6a9	0.030146914
23	0x3de4d07e	0.11172579
24	0xbdca6520	-0.09882569
25	0x3dd93fad	0.10607848
26	0xbdc760ac	-0.097352356
27	0x3df623ab	0.12018522
28	0x3e21f001	0.1581421
29	0x3db45b44	0.0880647
30	0x3d42a645	0.04752185
31	0xbe389b89	-0.18028082
32	0xbde394cf	-0.11112367
33	0x3d14a594	0.03629072
34	0xbe073b0a	-0.13206115
35	0xbe0d3b99	-0.13792266
36	0x3c8165e4	0.015795656
37	0xbb0a4f34	-0.0021104338
38	0x3dcda8c1	0.10041953
39	0xbccb4f4d	-0.024818087
40	0xbe11d260	-0.14240408
41	0xbc8731c7	-0.016503228
42	0xbb1d2cad	-0.0023982928
43	0x3d231a80	0.039820194
44	0xbe054df6	-0.13018021
45	0xbc889f97	-0.01667766
46	0xbdee2295	-0.1162769
47	0x3cc47647	0.02398218
48	0x3e435b26	0.19077739
49	0x3e111e44	0.14171702
50	0xbdf94e58	-0.12173146
51	0xbe1cbf4d	-0.1530735
52	0xbe38bf18	-0.18041646
53	0x3e1fb6d1	0.15597083
54	0x3e2ec712	0.17068127
55	0x3dcdc65b	0.10047599
56	0x3e3e652d	0.18593283
57	0xbe3f7b41	-0.18699361
58	0x3dec58cf	0.115403764
59	0x3e0339d0	0.12815022
60	0x3e136bac	0.14396542
61	0xbe36a7ed	-0.17837496
62	0x3dfae2fd	0.12250326
63	0xbcf2fdc4	-0.02966202
64	0xbe106769	-0.14101948
65	0x3db3bfa2	0.087767854
66	0x3d8a0601	0.067394264
67	0x3daef9b9	0.085437246
68	0x3d29dc28	0.041469723
69	0xbe443362	-0.19160226
70	0x3e00b18f	0.12567733
71	0xbdfcc5c0	-0.12342405
72	0xbdbecbe8	-0.09316236
73	0xbde72e46	-0.11288123
74	0xbdccf4ef	-0.10007655
75	0xbc0fdc37	-0.008780531
76	0x3d47f823	0.048820626
77	0xbceb159d	-0.02869683
78	0xbe1355ef	-0.1438825
79	0x3e418f6d	0.18902369
80	0x3e1bde0a	0.1522142
81	0x3dac02dc	0.08398983
82	0xbbc43023	-0.0059871837
83	0x3d4d5e3b	0.050138693
84	0xbe21d5ab	-0.15804164
85	0x3d8a47a2	0.06751944
86	0xbe388f7c	-0.18023485
87	0xbd452c7d	-0.04813813
88	0xbd5eded1	-0.054411713
89	0xbdd45cab	-0.103692375
90	0xbe1d5132	-0.15363005
91	0x3cc230dc	0.023704939
92	0x3c9f7879	0.019466626
93	0xbd886387	-0.06659608
94	0xbe3fbabb	-0.18723576
95	0xbdba6abd	-0.0910239
96	0x3c874cca	0.016516108
97	0x3dc484d4	0.095956475
98	0xbd37ba12	-0.044855185
99	0xbe32888b	-0.174349
100	0x3e1ab79a	0.15109101
101	0xbd712f2c	-0.058882877
102	0xbd9e6a8d	-0.07735167
103	0x3e1ffc59	0.15623607
104	0x3d0662de	0.03280913
105	0xbbb41ada	-0.005496365
106	0xbe130cdd	-0.14360376
107	0x3d496c5f	0.049175616
108	0x3e10b163	0.14130168
109	0x3d9544b5	0.072884955
110	0xbcf90083	-0.030395752
111	0x3cf9c352	0.030488644
112	0xbd1e3827	-0.03862777
113	0x3e38e4dc	0.18056053
114	0x3cd9a2db	0.026566913
115	0x3d6a461a	0.05719576
116	0xbca8e191	-0.020615371
117	0x3d709867	0.058739092
118	0xbd1e29c0	-0.038614035
119	0xbdcbc013	-0.099487446
120	0xbe4391ca	-0.19098583
121	0x3d2ea217	0.04263505
122	0x3d9c53d7	0.07633179
123	0xbe0eb6d1	-0.13936926
124	0xbd9f298b	-0.077715956
125	0x3e1616b1	0.14657094
126	0xbe1210e4	-0.14264256
127	0xbe3ca635	-0.18422778
128	0x3e3fb2be	0.18720528
129	0x3e1a40ba	0.15063754
130	0xbdc575b5	-0.096415915
131	0x3e2f8267	0.17139588
132	0x3db8d524	0.09025028
133	0x3e1e1e7b	0.15441315
134	0x3e3142a5	0.17310579
135	0xbe0a1c9a	-0.13487473
136	0xbd843f2a	-0.0645736
137	0x3d8f08bc	0.06984088
138	0x3dc67574	0.09690371
139	0x3e38b4ba	0.18037692
140	0x3de76557	0.11298626
141	0xbe428dbe	-0.18999383
142	0xbca1e2b5	-0.019761423
143	0xbe2517cc	-0.16122359
144	0xbe25a488	-0.16176045
145	0x3e1ede64	0.15514523
146	0xbd517c24	-0.05114378
147	0xbe27f26e	-0.16401073
148	0x3dbd2fd5	0.09237639
149	0x3d5f9294	0.054583147
150	0x3ddc367b	0.10752579
151	0xbd90744f	-0.07053434
152	0xbdc31f3b	-0.09527441
153	0xbde4b0fa	-0.11166568
154	0xbd68e07e	-0.056854717
155	0x3cf94d3f	0.030432342
156	0xbe00252b	-0.12514178
157	0xbccf498f	-0.02530363
158	0xbd330202	-0.043703087
159	0xbdb5c32b	-0.08875116
160	0xbd12b5e1	-0.035817984
161	0x3dd6466a	0.10462649
162	0xbda5d153	-0.08096566
163	0xbd710693	-0.05884416
164	0x3cc7e58c	0.024401449
165	0x3d08f708	0.033438712
166	0x3e0406e8	0.1289326
167	0xbca4b35a	-0.020105053
168	0x3d47c04f	0.048767384
169	0xbd8dc17e	-0.06921671
170	0xbe011bf7	-0.12608324
171	0xbd482e48	-0.048872262
172	0x3b910fce	0.004426933
173	0xbd78f53c	-0.06078075
174	0xbdeb0492	-0.11475481
175	0xbdb4346c	-0.08799061
176	0xbd8019de	-0.06254934
177	0x3d36bf2e	0.044615917
178	0xbd5cdb59	-0.053920124
179	0x3cf808ad	0.030277574
180	0xbdce7c8a	-0.10082348
181	0xbe45cb8e	-0.19315931
182	0xbd573974	-0.052545026
183	0x3d31120a	0.043230094
184	0xbddb6ad1	-0.10713733
185	0x3c375325	0.011189257
186	0xbe399864	-0.18124539
187	0xbca5cfad	-0.02024063
188	0x3d2e08cc	0.042488858
189	0x3e2cfbfc	0.16893
190	0x3e0a8729	0.13528122
191	0x39e0c283	0.00042869532
192	0xbe1388d0	-0.14407659
193	0x3e1e01fd	0.15430446
194	0xbd0b5c68	-0.034023672
195	0xbe1243a5	-0.14283617
196	0xbd867054	-0.06564394
197	0x3d900434	0.07032052
198	0xbd104657	-0.03522333
199	0x3e36a266	0.17835388
200	0x3dbd2f74	0.092375666
201	0xbdb56337	-0.08856814
202	0xbe26a79f	-0.1627488
203	0x3e0863eb	0.13319366
204	0xbe1b3d4a	-0.15160099
205	0x3c097494	0.008389611
206	0x3da83308	0.082128584
207	0x3dcb4925	0.099260606
208	0xbe3558ae	-0.1770961
209	0xbc7aa8c6	-0.015299028
210	0xbd12c50e	-0.035832457
211	0x3da2ac7c	0.07943055
212	0xbe213cb1	-0.15745808
213	0x3d567a12	0.05236251
214	0xbcff7747	-0.031184806
215	0x3d5b0939	0.053475592
216	0x3e1a3eb8	0.15062988
217	0x3da249d6	0.07924239
218	0xbd282040	-0.04104638
219	0x3ddd60fb	0.10809513
220	0x3e27c20f	0.16382621
221	0xbcd160d6	-0.02555887
222	0x3ddbffbe	0.10742138
223	0xbe40fcc1	-0.18846418
224	0x3d9db086	0.07699685
225	0xbceb8205	-0.028748522
226	0xbd79b897	-0.060967054
227	0x3aee5c19	0.0018185406
228	0xbe34a9c2	-0.17642882
229	0xbdc6adeb	-0.09701141
230	0xbc77aff5	-0.015117635
231	0x3e2099a1	0.15683605
232	0x3e2f3940	0.17111683
233	0x3be9d894	0.007136414
234	0xbd900ab0	-0.070332885
235	0xb820228a	-3.817914e-05
236	0x3de0a5cc	0.10969123
237	0x3dd12861	0.1021278
238	0xbe030e8a	-0.12798515
239	0x3dbf8953	0.093523644
240	0x3d3fd3b6	0.046832763
241	0xbdf49278	-0.11941999
242	0xbb22d050	-0.0024843402
243	0xbe0b6f6e	-0.13616726
244	0x3db805f3	0.0898551
245	0xbd6baa43	-0.05753542
246	0xbe40b22e	-0.1881797
247	0x3e3bbb18	0.1833309
248	0x3e39e447	0.18153487
249	0xbdf04c2c	-0.11733279
250	0xbcbfc0bc	-0.023407333
251	0x3e35ce0e	0.17754385
252	0xbdc481b0	-0.095950484
253	0xbe1f01ba	-0.15528002
254	0x3e062a26	0.13102016
255	0x3df0afcb	0.1175228

base.cnn.cnn.0.bias f4 [32]
0	0xb15d3732	-3.2191108e-09
1	0xb3237601	-3.805872e-08
2	0xb27d1452	-1.47311585e-08
3	0xb3830cfd	-6.1025254e-08
4	0x316a6d3d	3.4113576e-09
5	0xb3b1b795	-8.275598e-08
6	0xb16f251e	-3.4800176e-09
7	0x31ddf360	6.459615e-09
8	0x32a4e889	1.9197858e-08
9	0x31ba7905	5.427071e-09
10	0x3340360f	4.475265e-08
11	0x32ecc129	2.7561855e-08
12	0xb1be371d	-5.5359934e-09
13	0x32dc063e	2.561421e-08
14	0xb22daac4	-1.0108753e-08
15	0x32ad76a5	2.0193804e-08
16	0x3026705c	6.055012e-10
17	0x330f549f	3.3371744e-08
18	0xb32889da	-3.9240923e-08
19	0x33c71522	9.270504e-08
20	0x2f09fc25	1.2549657e-10
21	0xb2980e9a	-1.7701769e-08
22	0x3349b3d0	4.6962498e-08
23	0x3383f4d9	6.1447004e-08
24	0xaf6af38a	-2.1368698e-10
25	0x3110a53c	2.1048683e-09
26	0x329cb972	1.8245121e-08
27	0x33d4d77f	9.911218e-08
28	0x314542c1	2.8705218e-09
29	0xb29a6ba4	-1.7976909e-08
30	0x32c6f97d	2.3163688e-08
31	0xb23958f1	-1.078864e-08

base.cnn.cnn.1.weight f4 [32]
0	0x3f7ff822	0.99987996
1	0x3f7ff13a	0.9997746
2	0x3f8009d6	1.0003002
3	0x3f7fad5c	0.998739
4	0x3f801536	1.0006473
5	0x3f7fc37f	0.9990768
6	0x3f7ff905	0.9998935
7	0x3f800b4a	1.0003445
8	0x3f7f94b7	0.99836296
9	0x3f7fec54	0.99969983
10	0x3f7fe7f2	0.99963295
11	0x3f7fa149	0.99855477
12	0x3f7feece	0.9997376
13	0x3f7fa7ff	0.99865717
14	0x3f7fb224	0.99881196
15	0x3f7ffaa5	0.9999183
16	0x3f800fbb	1.00048
17	0x3f7fd319	0.99931484
18	0x3f7fad40	0.99873734
19	0x3f7fd07d	0.999275
20	0x3f8018ac	1.0007529
21	0x3f7fdabf	0.99943155
22	0x3f7fd05e	0.9992732
23	0x3f801ab8	1.0008154
24	0x3f8009ff	1.000305
25	0x3f7ff86a	0.99988425
26	0x3f7fffc4	0.9999964
27	0x3f7fc008	0.9990239
28	0x3f7fa90a	0.9986731
29	0x3f7f9eae	0.998515
30	0x3f800778	1.0002279
31	0x3f7f8ec3	0.9982721

base.cnn.cnn.1.bias f4 [32]
0	0x3a149d9a	0.00056692364
1	0xba0760d5	-0.00051642704
2	0x3a774154	0.0009432037
3	0xb9fc6399	-0.00048139392
4	0x3aa94b53	0.0012916125
5	0xba0deb20	-0.00054137595
6	0x3aaff7b7	0.0013425265
7	0x3970ac2d	0.00022952324
8	0xbaaf8f53	-0.0013394154
9	0x3aa4aad2	0.0012563115
10	0xb95ceabd	-0.00021068282
11	0xba95eb4a	-0.001143792
12	0x3904ca9f	0.00012663983
13	0xba790bec	-0.00095003727
14	0x39c656a3	0.00037830052
15	0x38d20b57	0.000100156925
16	0x3a5cc64e	0.00084218837
17	0xb85e0902	-5.2937314e-05
18	0x391c1f28	0.00014888926
19	0x36e8267a	6.918618e-06
20	0xb8444e9f	-4.6803263e-05
21	0xb9c392f0	-0.00037302775
22	0xb9038324	-0.00012541987
23	0x3a97fd23	0.0011595826
24	0x3913b6a6	0.00014087054
25	0xba41dfa2	-0.00073956896
26	0x38f584e7	0.000117072654
27	0xb9832fe3	-0.00025021945
28	0xb94bc285	-0.00019432053
29	0xba87c01e	-0.0010356938
30	0x3ab248fe	0.0013602076
31	0xbaaae882	-0.0013039263

base.cnn.cnn.1.running_mean f4 [32]
0	0x3d21f438	0.039539546
1	0xbd6abfb0	-0.057311714
2	0x3da51112	0.080598965
3	0xbe0cdeef	-0.13756917
4	0x3de029b5	0.10945455
5	0xbdbf889a	-0.093522266
6	0xbe2267c9	-0.15859903
7	0x3c89a159	0.01680057
8	0x3d9c1c79	0.07622618
9	0x3c2fa837	0.010721258
10	0xbd97a810	-0.07405102
11	0xbdc3bd04	-0.09557536
12	0x3d2bd33f	0.041949507
13	0xbde69940	-0.11259699
14	0x3c838e26	0.016058993
15	0x3d3e2f3f	0.046431776
16	0xbdbdea8a	-0.092732504
17	0xbd9034f1	-0.07041348
18	0xbd220e21	-0.039564256
19	0xbdae0d0f	-0.084985845
20	0x3d030e98	0.03199634
21	0x3d90850e	0.07056628
22	0xbd502efc	-0.050826058
23	0xbd9570cf	-0.07296907
24	0x3df3967c	0.11893937
25	0xbd800276	-0.062504694
26	0xbdbd1eb7	-0.09234374
27	0xbdd4b746	-0.10386519
28	0x3d496d2a	0.049176373
29	0x3e22435a	0.15846005
30	0xbd32b96b	-0.04363386
31	0x3d1c27bd	0.038123835

base.cnn.cnn.1.running_var f4 [32]
0	0x3b9a1728	0.0047024675
1	0x3bd5d7cb	0.0065259687
2	0x3baa8932	0.0052043432
3	0x3bb6eb9d	0.0055822865
4	0x3bc91b23	0.006137268
5	0x3bbad9e7	0.0057022455
6	0x3ba1bd8a	0.004935925
7	0x3bb3066a	0.005463411
8	0x3b21c576	0.0024684346
9	0x3bc99364	0.0061516035
10	0x3c0658b3	0.0081998585
11	0x3bb876b8	0.0056293868
12	0x3b9518f8	0.0045500956
13	0x3b95f124	0.0045758653
14	0x3bb6f57a	0.0055834623
15	0x3b30ebe2	0.0026996066
16	0x3bf23846	0.007391962
17	0x3bc16921	0.005902425
18	0x3c1299bb	0.008947785
19	0x3bc2443e	0.0059285453
20	0x3b1d6240	0.002401486
21	0x3b8c4cd3	0.004281619
22	0x3b7dbf58	0.0038718786
23	0x3b9fa5bc	0.004872052
24	0x3ba69654	0.0050838385
25	0x3bc39940	0.0059691966
26	0x3b5e2f3e	0.003390267
27	0x3baef779	0.0053395596
28	0x3c1941dc	0.009354081
29	0x3c06e9e7	0.008234478
30	0x3b9eac8d	0.004842347
31	0x3b805550	0.00391642

base.cnn.cnn.4.weight f4 [64, 2592]
0	0xbd431eae	-0.04763668
1	0xbb084055	-0.0020790298
2	0x3d6baf41	0.057540182
3	0x3d6f0b67	0.058360483
4	0xba945ee9	-0.0011319789
5	0xbd17a225	-0.037019867
6	0xbc25c932	-0.0101187695
7	0x3d5be1b7	0.053682055
8	0xbc1fcd76	-0.009753576
9	0xbb1591b4	-0.0022822442
10	0x3d88a66d	0.06672368
11	0x3d594278	0.053041905
12	0x3d77754b	0.060414594
13	0xbaeeb095	-0.0018210585
14	0xbc665334	-0.014057923
15	0xbd5adf73	-0.053435754
16	0xbba65e78	-0.0050771795
17	0xb9c15822	-0.00036877493
18	0xbd4ba7a5	-0.049720425
19	0xbc5e8e32	-0.013583707
20	0xbd0dfb26	-0.034663342
21	0xbd0ec98d	-0.034860183
22	0xbd46e761	-0.048560504
23	0x3cb0347e	0.021509405
24	0x3d0cc0ee	0.03436368
25	0xbd098cd8	-0.033581585
26	0xbd15fe84	-0.03661968
27	0xbc233205	-0.009960656
28	0xbcc51367	-0.024057103
29	0xbd81fc1b	-0.063469134
30	0xbd100159	-0.035157535
31	0x3b90fc2c	0.0044245925
32	0xbd352dbd	-0.044233073
33	0x3cd84285	0.026398906
34	0x3ceadaeb	0.028668841
35	0x3d357a90	0.044306338
36	0x3d6da6ea	0.05802051
37	0x3c9bacbe	0.019003268
38	0xbcc3289c	-0.023823075
39	0xbcccb8cb	-0.02499046
40	0xbca57408	-0.02019693
41	0xbd0cb453	-0.034351658
42	0x3d26035e	0.040530555
43	0xbc1adac6	-0.009451574
44	0x39fc53b5	0.00048127552
45	0x3d2431b8	0.040086478
46	0xbd6ff797	-0.05858573
47	0x3a90d3ad	0.0011049412
48	0x3d6c3471	0.0576672
49	0x3d2e969b	0.042624097
50	0x3d268cc8	0.040661603
51	0x3c5f73d4	0.013638455
52	0x3d4349ad	0.047677685
53	0xbd137e44	-0.03600909
54	0xbd6b7fa3	-0.05749477
55	0xbd2a86fc	-0.041632637
56	0xbb995e70	-0.0046804473
57	0xbb920559	-0.004456204
58	0xbc384608	-0.0112471655
59	0xbd0581e8	-0.03259459
60	0x3d3158b0	0.04329747
61	0xbcdfa772	-0.027301524
62	0xbd1ca1c0	-0.038240194
63	0xbc70153f	-0.014653503
64	0xbd2da767	-0.042395975
65	0x3b1e7a61	0.002418183
66	0xbd32e6d4	-0.043677166
67	0xbd339bde	-0.04384982
68	0x3d852a6a	0.065022305
69	0x3d8913e2	0.066932455
70	0x3c4784e5	0.012177681
71	0xbd0b3319	-0.033984277
72	0x3d5bff56	0.053710304
73	0x3d511aec	0.051051065
74	0x3be982a9	0.0071261716
75	0x3c141d5d	0.009040204
76	0xbd7c8882	-0.06165362
77	0x3d031f67	0.03201237
78	0x3d2b99a6	0.041894577
79	0xbd840f01	-0.06448174
80	0x3d1db2e1	0.03850067
81	0xbd32f4aa	-0.04369036
82	0xbd5dde57	-0.054167118
83	0xbba63a1f	-0.0050728465
84	0x3d5651da	0.052324153
85	0x3b2acc26	0.0026061623
86	0x3b93b855	0.004508058
87	0xbd68c9d4	-0.056833103
88	0xb8db92ce	-0.00010470078
89	0x3d39b801	0.045341495
90	0x3d4bdeeb	0.049773138
91	0xbcee42fc	-0.029084675
92	0x3cfcdb31	0.030866237
93	0xbc44c62f	-0.012010141
94	0x3d85e60e	0.0653802
95	0x3ca92536	0.020647626
96	0x39da9ed6	0.00041698542
97	0x3cfa74f1	0.03057334
98	0x3cb5b939	0.022183048
99	0x3cb9c46d	0.02267667
100	0x3d72a3f1	0.059238378
101	0xbcb071b9	-0.021538602
102	0x3d3fe483	0.046848785
103	0x3d835be6	0.064140126
104	0xbb0412a3	-0.002015271
105	0x3d1ad097	0.037796583
106	0x3d572d21	0.052533273
107	0x3d71b827	0.059013512
108	0x3d52a7d6	0.051429592
109	0x3b9ee2eb	0.004848828
110	0xbd14b592	-0.03630597
111	0xbcd36299	-0.025803851
112	0xba09ee59	-0.0005261652
113	0x3d446a14	0.047952726
114	0xbd800c41	-0.06252337
115	0xbc1b5be1	-0.009482355
116	0xbd67dff8	-0.056610078
117	0x3cc6aa41	0.024251105
118	0xbd62671c	-0.055274114
119	0xbd5b0af7	-0.053477254
120	0xbd24cbf9	-0.040233586
121	0xbc56f7e8	-0.013120629
122	0x3b5456db	0.0032400403
123	0x3cf4f9df	0.029904304
124	0xbbbbdc81	-0.005733073
125	0x3d5e314e	0.05424624
126	0xbaf9de8e	-0.0019063519
127	0xbc14a6f7	-0.009073011
128	0xbcff5eea	-0.031173188
129	0x3d5f5120	0.054520726
130	0x3d255347	0.040362623
131	0xbd3e24b9	-0.04642174
132	0x3d7f5697	0.062338438
133	0xbd400655	-0.04688104
134	0xbd433d36	-0.047665797
135	0x3d0989cb	0.033578675
136	0xbcf6117d	-0.030037636
137	0x3d4a1483	0.049335968
138	0xbd4a16bd	-0.04933809
139	0x3d8468c0	0.06465292
140	0xbd172132	-0.036896892
141	0xbd65b340	-0.05607915
142	0xbd35eff3	-0.044418287
143	0xbd0150f3	-0.03157134
144	0xbd3dafd0	-0.046310246
145	0xbd10ad80	-0.035321712
146	0x3d31639f	0.043307897
147	0x3d895e6e	0.06707464
148	0x3c940ecb	0.01807346
149	0x3cebd15c	0.028786354
150	0xbc2da11f	-0.010597496
151	0x3d0878ce	0.033318333
152	0xbd2a02cf	-0.041506585
153	0xbbc51de6	-0.006015527
154	0x3d737c71	0.05944485
155	0xbc0ec1e2	-0.008713217
156	0xbc1c8637	-0.009553484
157	0x3c5fdbce	0.013663245
158	0xbba1a36e	-0.0049328124
159	0x3d0ef6ff	0.034903523
160	0xbd37cec5	-0.044874925
161	0xbd778c28	-0.060436398
162	0xbd2416a4	-0.040060654
163	0xbd78ecee	-0.06077283
164	0x3c6d531c	0.014485147
165	0x3d71b2fc	0.059008583
166	0xbd4c6597	-0.04990157
167	0xbd724a50	-0.0591529
168	0xbcc48ce2	-0.02399296
169	0x3d153ad7	0.036433067
170	0x3c97f62a	0.018549997
171	0xbc1c4d61	-0.009539933
172	0xbd02d346	-0.031939767
173	0xbd303d20	-0.043027043
174	0xbc1b9210	-0.009495273
175	0x3c1310a3	0.0089761345
176	0xbcb3b91a	-0.02193885
177	0x3b69c2e8	0.0035669152
178	0x3c24697d	0.010034916
179	0xbce30f9c	-0.027717404
180	0x3d062f13	0.032759737
181	0xbd617183	-0.055039894
182	0x3bddf93e	0.0067740967
183	0x3c9c6ca9	0.019094782
184	0x3c879810	0.016552001
185	0x3b9f7c09	0.004867081
186	0x3d74a4f4	0.059727624
187	0x3d6768ef	0.056496557
188	0xbc39b3e8	-0.011334397
189	0x3d1c8e71	0.03822178
190	0x3c50109e	0.012699274
191	0x3cc18fed	0.0236282
192	0x3ca6e4ab	0.02037271
193	0xbc9cc5a2	-0.019137207
194	0x3b1b99d3	0.002374281
195	0xbd59efff	-0.053207394
196	0x3d47cfd2	0.048782177
197	0xbcafcfe3	-0.021461433
198	0xbc92157b	-0.017832508
199	0x3c88ec71	0.016714307
200	0x3d06d8b2	0.0329215
201	0xbd5c55ec	-0.05379288
202	0x3d865806	0.06559758
203	0xbd688a3c	-0.056772456
204	0x3d6c1f04	0.057646766
205	0x3c700a16	0.014650842
206	0xbd0cc47d	-0.034367073
207	0x3cef3057	0.029197855
208	0xbd40afe8	-0.047042757
209	0x3ba8416c	0.005134752
210	0xbcf67a53	-0.030087626
211	0xbcac3187	-0.02101971
212	0xbd0a7769	-0.033805285
213	0xbd3feacf	-0.04685479
214	0xbd148f88	-0.036269695
215	0xbcb7a519	-0.022417592
216	0x3c0311e7	0.007999874
217	0xbc3bcc17	-0.011462233
218	0x3d2f9766	0.042868994
219	0x3c0e406b	0.008682351
220	0x3cabf51f	0.020990906
221	0x3d7bb583	0.0614524
222	0xbd86917e	-0.06570719
223	0xbd26ddd2	-0.040738888
224	0x3c2a2bb6	0.010386398
225	0x3d411326	0.047137402
226	0xbc0b8dea	-0.008517722
227	0x3d390245	0.04516818
228	0xbd87fd50	-0.066401124
229	0xbbbe2e18	-0.0058038346
230	0x3d3285ba	0.043584563
231	0x3ce1c117	0.027557893
232	0xbd67e126	-0.056611203
233	0x3d2c07eb	0.04199974
234	0xbcd5bd13	-0.026091134
235	0x3d82bce2	0.06383683
236	0xbd59401c	-0.053039655
237	0x3d6ccd44	0.057812944
238	0xbd3c127c	-0.045916066
239	0x3cbdf08b	0.023185989
240	0xbc6274c0	-0.013821781
241	0x3bf4d113	0.0074712127
242	0xbc70cdf3	-0.01469754
243	0xbd85a142	-0.06524898
244	0xbd2646df	-0.04059493
245	0x3d719925	0.05898394
246	0xbd025b8c	-0.031825587
247	0x3bc5e642	0.0060394118
248	0xbcd286ee	-0.025699105
249	0x3d1af5b6	0.037831984
250	0x3d29742c	0.041370556
251	0x3d670545	0.05640151
252	0x3d084e2d	0.03327768
253	0x3c28a330	0.010292813
254	0xbd703589	-0.058644805
255	0xbd5d38a8	-0.05400911

base.cnn.cnn.4.bias f4 [64]
0	0x3a6fa09c	0.0009141059
1	0x3941b4d5	0.0001847328
2	0x396a20c6	0.00022328188
3	0xb9257124	-0.00015777774
4	0xb8be00f0	-9.0600806e-05
5	0xb9d0bf61	-0.0003981544
6	0x39ae0418	0.00033190916
7	0x39cedc16	0.0003945536
8	0xb71a091d	-9.181237e-06
9	0x3a475715	0.0007604224
10	0xba3b68d1	-0.0007149103
11	0x3a2ea841	0.0006662645
12	0x3a24323b	0.00062635884
13	0xb8ce1888	-9.827415e-05
14	0x39cedb6e	0.0003945487
15	0x398b3711	0.00026553174
16	0x3a5193d0	0.0007994743
17	0x3a4aa65a	0.0007730477
18	0xb89b3d16	-7.402354e-05
19	0x3a1b4f71	0.00059246185
20	0x3914b307	0.00014181073
21	0x39febec0	0.00048588775
22	0x399a4ec2	0.00029431848
23	0x394d6c2d	0.00019590622
24	0xb9d21150	-0.0004006722
25	0x3a3b8fc8	0.0007154909
26	0xba773377	-0.0009429971
27	0xb93319a6	-0.00017080325
28	0xba20b695	-0.00061307225
29	0x3a8dd916	0.0010822143
30	0x38b9bfd0	8.857215e-05
31	0x3a3a2642	0.0007101038
32	0xba9a97f6	-0.0011794555
33	0x3a4c8617	0.00078019634
34	0x39d16b4e	0.00039943535
35	0xb98162e2	-0.0002467847
36	0xbab9a86c	-0.0014164574
37	0xba5dc565	-0.0008459895
38	0xba5ebe1a	-0.0008496955
39	0xb9c48b91	-0.00037488018
40	0x39e5f8b1	0.00043863573
41	0xb9b6399e	-0.00034756673
42	0xba216b76	-0.00061576755
43	0x39fa8aa5	0.00047787014
44	0x3a1a61af	0.000588919
45	0x3885cda4	6.380238e-05
46	0xba491862	-0.0007671175
47	0xba01544d	-0.0004933521
48	0x3a7c094b	0.0009614422
49	0x3a245877	0.0006269286
50	0x3a630af4	0.0008660995
51	0xba92a8bc	-0.0011189203
52	0xb9dac89b	-0.00041729663
53	0xba81cd2f	-0.0009903068
54	0xb9d37947	-0.00040335415
55	0xb910eff1	-0.00013822295
56	0x3a57817c	0.0008220894
57	0xb944daaa	-0.00018773475
58	0xbaaa501e	-0.0012993847
59	0x3aab5b81	0.0013073535
60	0xb9fe925d	-0.00048555704
61	0x39ecefa3	0.0004519197
62	0x392a79ad	0.00016257791
63	0x39c35916	0.00037259673

base.cnn.cnn.5.weight f4 [64]
0	0x3f7fec87	0.9997029
1	0x3f7fb844	0.9989054
2	0x3f7fcd61	0.9992276
3	0x3f7fbaff	0.9989471
4	0x3f7fbee0	0.9990063
5	0x3f7fa94e	0.99867713
6	0x3f800576	1.0001667
7	0x3f7fc011	0.99902445
8	0x3f7fbe53	0.99899787
9	0x3f7ff807	0.99987835
10	0x3f7fa885	0.99866515
11	0x3f7fb916	0.99891794
12	0x3f7fced8	0.99924994
13	0x3f7fee3f	0.9997291
14	0x3f7fe5c8	0.99959993
15	0x3f7fa22d	0.99856836
16	0x3f7fb9b5	0.9989274
17	0x3f7fe2e7	0.999556
18	0x3f7fb09f	0.9987888
19	0x3f7fbef1	0.9990073
20	0x3f7fe92e	0.9996518
21	0x3f800576	1.0001667
22	0x3f7fbc6a	0.9989687
23	0x3f7fb9f1	0.998931
24	0x3f7fbd33	0.9989807
25	0x3f7fd081	0.99927527
26	0x3f7facc7	0.9987301
27	0x3f7fbac2	0.99894345
28	0x3f7fb30b	0.9988257
29	0x3f8014be	1.000633
30	0x3f7facca	0.9987303
31	0x3f7fc165	0.9990447
32	0x3f7fae6f	0.9987554
33	0x3f800297	1.000079
34	0x3f7fee95	0.9997342
35	0x3f7fad1c	0.9987352
36	0x3f7fa194	0.99855924
37	0x3f800296	1.0000789
38	0x3f7fa42f	0.998599
39	0x3f7fed4e	0.99971473
40	0x3f7fc371	0.99907595
41	0x3f7fb083	0.9987871
42	0x3f7faa18	0.9986892
43	0x3f7fb5fd	0.9988707
44	0x3f7fabd4	0.99871564
45	0x3f7fd6dc	0.99937224
46	0x3f7fa1f9	0.99856526
47	0x3f7fa322	0.99858296
48	0x3f7fee35	0.9997285
49	0x3f7ff340	0.99980545
50	0x3f7fd296	0.99930704
51	0x3f7fb7a5	0.99889594
52	0x3f7fb904	0.99891686
53	0x3f7fc3ef	0.99908346
54	0x3f7faece	0.99876106
55	0x3f7fb43e	0.998844
56	0x3f800eac	1.0004478
57	0x3f7fb692	0.99887955
58	0x3f7f9cb8	0.9984851
59	0x3f802a48	1.0012903
60	0x3f7fb169	0.9988008
61	0x3f7fbd88	0.99898577
62	0x3f7fbf9f	0.99901766
63	0x3f8016e1	1.0006982

base.cnn.cnn.5.bias f4 [64]
0	0x39af4567	0.0003343031
1	0xb90926f4	-0.0001307985
2	0x390e03e8	0.0001354363
3	0xb8ef0daf	-0.00011398957
4	0xb97b302a	-0.00023955168
5	0xb947b3c8	-0.00019045093
6	0x3a1bba0b	0.00059405033
7	0x37e6f02d	2.7529977e-05
8	0xba2b587c	-0.00065363175
9	0x39be804c	0.00036335213
10	0xba8d9d75	-0.0010804372
11	0x3a6300da	0.00086594897
12	0x3981bba9	0.00024744615
13	0xb9e39d80	-0.0004341416
14	0x3949a159	0.0001922896
15	0xba0b3796	-0.0005310712
16	0x3a2a53c6	0.00064974686
17	0x3a356ef8	0.00069211377
18	0xb95377a1	-0.00020167093
19	0x39a6ada6	0.00031791365
20	0x38839563	6.274392e-05
21	0x39ebeef7	0.00045000736
22	0x38b9da31	8.862129e-05
23	0xb8f7770f	-0.00011800054
24	0xb9cee728	-0.00039463607
25	0x3a458cdf	0.0007535945
26	0xba992e08	-0.0011686692
27	0xba21fc00	-0.00061792135
28	0xb9ee5de2	-0.00045464846
29	0x3aaf6dee	0.0013384202
30	0xb8969e9e	-7.182102e-05
31	0x3a1174c1	0.0005548709
32	0xba9d8e53	-0.0012020565
33	0x3a7c9b0e	0.0009636142
34	0x3a1f0843	0.00060666
35	0xba2720a2	-0.0006375407
36	0xbab629e0	-0.0013897978
37	0xba6579c5	-0.0008753802
38	0xba95db2b	-0.0011433115
39	0xba22ee05	-0.0006215277
40	0x3905e9fc	0.00012771034
41	0xba3580af	-0.00069237774
42	0xba814b9d	-0.0009864453
43	0x3a14f664	0.0005682467
44	0x39d7a3cc	0.00041130034
45	0xb98bdc4b	-0.00026676277
46	0xba8ed5a4	-0.001089741
47	0xba7d2004	-0.0009655955
48	0x3a180281	0.0005798713
49	0x3a1d27d4	0.00059950096
50	0x3a56a1a0	0.0008187536
51	0xba74faf8	-0.00093452586
52	0xba57c838	-0.0008231434
53	0xb9d58c99	-0.0004073128
54	0xba54bc05	-0.00081151753
55	0x389dbe2a	7.521764e-05
56	0x3a88e9a4	0.0010445607
57	0xba11e58a	-0.0005565515
58	0xbabdce00	-0.0014480948
59	0x3abbea27	0.0014336751
60	0xba380418	-0.0007019653
61	0x399196a6	0.00027768797
62	0x39f29d6b	0.00046275122
63	0x39fbf85c	0.00048059493

base.cnn.cnn.7.weight f4 [64, 64]
0	0xbe98758b	-0.29777178
1	0x3d5e0a31	0.054208938
2	0xbe9380c3	-0.28809175
3	0x3e82f148	0.25574708
4	0xbdd3cd04	-0.10341838
5	0xbe494394	-0.19654685
6	0xbe7058db	-0.23471396
7	0xbe7766be	-0.24160287
8	0x3da2798f	0.07933342
9	0xbe362f19	-0.17791404
10	0xbd3da233	-0.046297263
11	0xbd039a7d	-0.032129753
12	0x3dff281a	0.12458821
13	0x3d95fb7a	0.07323356
14	0x3c89c620	0.016818106
15	0x3cfdcf43	0.03098262
16	0xbdd3db17	-0.103445224
17	0xbe8d97b9	-0.27654818
18	0xbe40d5eb	-0.18831603
19	0x3e90451d	0.2817773
20	0x3e3667f3	0.17813091
21	0x3cbc05a4	0.022951908
22	0x3de32993	0.11091914
23	0x3e8c6422	0.27420145
24	0xbdaa7f5e	-0.083250746
25	0xbe74a230	-0.23889995
26	0xbd979049	-0.07400567
27	0xbe45d3b8	-0.19319046
28	0xbddb157d	-0.10697458
29	0x3e1e7b9c	0.1547684
30	0x3d3deaa2	0.04636634
31	0x3e14d123	0.14532904
32	0xbd7669a9	-0.06015936
33	0xbe1f3d35	-0.15550692
34	0x3dbe310f	0.09286701
35	0xbe16bf87	-0.147215
36	0xbe053a3b	-0.13010494
37	0xbd353f99	-0.044250105
38	0xbde50d3a	-0.111841634
39	0xbe28c179	-0.16480054
40	0x3e40acfb	0.18815987
41	0xbe295454	-0.16536075
42	0xbe3f4d39	-0.18681802
43	0xbdb53bf0	-0.08849323
44	0x3de79792	0.113082066
45	0x3dd9d657	0.10636585
46	0xbe09b3f0	-0.13447547
47	0xbe95850e	-0.29203075
48	0x3d9c5998	0.07634276
49	0xbe19d0d4	-0.15021068
50	0xbe33684b	-0.17520253
51	0xbd7acbfe	-0.0612297
52	0x3e8248c3	0.25446138
53	0xbddc7d5c	-0.10766098
54	0xbe3ac709	-0.18239988
55	0x3e10276a	0.14077535
56	0xbc8fe4b8	-0.017565116
57	0xbbd0390d	-0.0063544572
58	0x3e737992	0.23776844
59	0x3e90e124	0.2829677
60	0x3deb995c	0.1150386
61	0x3e35d981	0.17758752
62	0xbe4fc40e	-0.20289633
63	0x3e519765	0.20467909
64	0xbe66d270	-0.22541213
65	0x3d1586c5	0.03650548
66	0xbe905023	-0.2818614
67	0x3c24dc39	0.010062271
68	0x3e57f789	0.21090521
69	0x3dfddf08	0.123960555
70	0x3e37b690	0.17940736
71	0x3e2bfc79	0.1679553
72	0xbdbffdd2	-0.09374584
73	0xbe444e2c	-0.19170445
74	0x3e8eeebd	0.27916518
75	0x3e473f61	0.19457771
76	0x3d06a176	0.032868825
77	0x3ce63c61	0.028104963
78	0xbe976bd6	-0.2957446
79	0x3e96d611	0.29460195
80	0x3d965c1b	0.073417865
81	0xbe28d3a0	-0.16486979
82	0x3dda6dbe	0.10665463
83	0x3e327524	0.17427498
84	0x3e3e7cf9	0.18602361
85	0x3dd313ff	0.10306548
86	0x3e31602f	0.17321847
87	0xbdc627f2	-0.09675588
88	0xbb9cf54e	-0.004789985
89	0x3e32f0d0	0.17474675
90	0xbdf2dee7	-0.118589215
91	0xbc995c54	-0.018720783
92	0xbe01207e	-0.12610051
93	0x3d6b7d6c	0.05749266
94	0xbe11060d	-0.14162464
95	0xbd51c552	-0.05121357
96	0x3e4397e2	0.19100907
97	0xbe81fea5	-0.2538959
98	0xbd3396fb	-0.043845158
99	0xbe83949a	-0.25699311
100	0x3df70840	0.120621204
101	0xbe2c30e0	-0.1681552
102	0x3e62b224	0.22138268
103	0x3acc6d8b	0.0015596611
104	0x3e3d9d30	0.18516994
105	0x3e269e77	0.16271387
106	0xbe0bb7af	-0.13644288
107	0x3b983e99	0.004646134
108	0xbc8ee8de	-0.017445024
109	0xbe9bb61c	-0.30412376
110	0xbd596eec	-0.0530843
111	0x3e87bfa6	0.26513404
112	0x3e2f6097	0.1712669
113	0x3e32ec5f	0.17472981
114	0xbbd9eaaf	-0.006650291
115	0x3e88dfae	0.26733154
116	0x3e4f5390	0.2024672
117	0xbdb01e5f	-0.08599543
118	0x3e8eed42	0.27915388
119	0x3d83581e	0.064132914
120	0x3e988407	0.2978823
121	0x3e8584ab	0.2607778
122	0xbe4068a1	-0.18789913
123	0x3e866a6e	0.26253074
124	0xbd9e272d	-0.07722316
125	0xbcca0fd9	-0.02466576
126	0x3e2c57b2	0.16830328
127	0xbe858b6d	-0.26082936
128	0xbdc86427	-0.097847275
129	0x3e5ced7c	0.21574968
130	0xbdc6c62a	-0.097057655
131	0xbd4d8637	-0.050176825
132	0xbde96f3a	-0.11398168
133	0xbdef2949	-0.116777964
134	0xbe03da2a	-0.12876192
135	0xbcce18e6	-0.025158357
136	0x3dc9742f	0.098366134
137	0xbe2c2757	-0.16811882
138	0x3e8395f0	0.2570033
139	0xbe977df4	-0.29588282
140	0x3e72a4ec	0.23695725
141	0xbc059f73	-0.008155691
142	0xbdf63bab	-0.120230995
143	0x3d9d0a9b	0.076680385
144	0xbe989444	-0.29800618
145	0xbdef8c12	-0.11696638
146	0x3e8533d9	0.2601612
147	0xbe95ce48	-0.29258943
148	0x3e034129	0.12817825
149	0x3e8de01d	0.27710047
150	0x3e708734	0.23489076
151	0xbe1e103a	-0.15435877
152	0xbe880451	-0.26565793
153	0xbda3956f	-0.079874866
154	0xbe8d2a45	-0.27571312
155	0x3e37691c	0.1791119
156	0xbe6263c0	-0.22108364
157	0xbe59368d	-0.21212216
158	0x3e342194	0.17590934
159	0xbc246de8	-0.010035969
160	0xbe6ccffb	-0.23126213
161	0x3e6dc9e3	0.23221545
162	0xbe869057	-0.26281998
163	0x3dbb1063	0.09133985
164	0xbc910fc9	-0.017707722
165	0x3e6b1987	0.22958957
166	0xbddf2a3e	-0.10896729
167	0xbd6396b3	-0.05556364
168	0x3d5e3807	0.05425265
169	0xbe7e06ac	-0.24807233
170	0xbe274e16	-0.16338381
171	0x3d9f769a	0.07786293
172	0x3e89ee94	0.26939833
173	0xbe0d0f56	-0.13775381
174	0xbe8e53e1	-0.2779837
175	0x3dbcc34b	0.09216937
176	0x3e7492d7	0.2388414
177	0x3e7bcf29	0.24590744
178	0x3e91058f	0.28324553
179	0x3e943ea6	0.28954047
180	0x3d6f625e	0.05844342
181	0xbd13991d	-0.036034692
182	0x3e0c0f4e	0.13677713
183	0x3cd73197	0.026268763
184	0xbdf0d19b	-0.11758729
185	0xbe5149b2	-0.20438269
186	0xbe137b47	-0.14402495
187	0xbde341f5	-0.11096565
188	0x3b3703f0	0.002792593
189	0xbdd65528	-0.10465461
190	0x3d978c77	0.073998384
191	0xbe624999	-0.22098388
192	0xbe8b5b39	-0.27218035
193	0xbe5facda	-0.21843281
194	0xbd4c8344	-0.049929872
195	0x3e52f46c	0.20601052
196	0xbddffb7a	-0.10936637
197	0xbe6a1602	-0.22859958
198	0xbe2ded9f	-0.16985177
199	0x3e5261d0	0.20545125
200	0xbdf7a485	-0.120919265
201	0x3e8bbef7	0.27294132
202	0x3e99a487	0.30008337
203	0x3c2a39b9	0.010389739
204	0x3e89457b	0.26810822
205	0xbe7ecad3	-0.24882059
206	0xbcce0e42	-0.025153283
207	0xbe86c157	-0.26319382
208	0xbe870726	-0.2637264
209	0xbe38f29a	-0.18061295
210	0x3e9c0593	0.30473003
211	0xbe24d1bb	-0.16095631
212	0x3e8eb2cd	0.2787079
213	0x3e989729	0.29802826
214	0xbcb73272	-0.022362921
215	0x3e5fc949	0.21854128
216	0x3ca476a1	0.020076098
217	0xbcef10b2	-0.029182766
218	0xbd25eee0	-0.040511012
219	0xbe80d247	-0.2516043
220	0x3e7f3027	0.24920712
221	0xbce71c10	-0.028211623
222	0x3e185dfe	0.14879605
223	0xbdb8618c	-0.090029806
224	0x3e0b689e	0.13614127
225	0xbe0f9da8	-0.14024985
226	0xbd3cc8fa	-0.046090104
227	0x3e8600a3	0.2617236
228	0xbd50c850	-0.050972283
229	0x3e80cafd	0.25154868
230	0x3d89a935	0.06721727
231	0x3e2a9b1c	0.16660732
232	0x3e7f481e	0.24929854
233	0xbc1b3104	-0.009472135
234	0xbe8c365b	-0.2738522
235	0xbda208b2	-0.07911815
236	0x3e8a9a7c	0.27070987
237	0x3dbc84aa	0.09204991
238	0xbe542e04	-0.20720679
239	0xbde89214	-0.11355987
240	0xbe7e211d	-0.24817319
241	0xbe82a16b	-0.25513777
242	0xbdad7105	-0.084688224
243	0x3da06668	0.078320324
244	0x3d87b393	0.06626048
245	0xb9d75c7c	-0.00041076902
246	0x3e6e1a81	0.23252298
247	0xbe763622	-0.24044088
248	0xbc3fca02	-0.011705877
249	0xbc8b9b4f	-0.01704183
250	0x3d862ab1	0.065511115
251	0x3e4706f3	0.19436245
252	0x3e85619f	0.2605104
253	0xbe01a4ad	-0.12660475
254	0x3e824649	0.25444248
255	0xbe35938e	-0.17732069

base.cnn.cnn.7.bias f4 [64]
0	0x3a27c5cb	0.0006400018
1	0x36abbd05	5.118202e-06
2	0xb720019a	-9.537116e-06
3	0xb928d6a2	-0.00016101685
4	0x368fd137	4.286088e-06
5	0x3a6ea587	0.0009103645
6	0xb9f32e6e	-0.00046383165
7	0x39aef3f1	0.00033369617
8	0xba5e8dfa	-0.0008489784
9	0x39b748b3	0.00034958645
10	0xba907eb0	-0.0011024084
11	0xba1d9760	-0.00060116313
12	0x399616d3	0.00028627235
13	0xbab0e632	-0.0013496338
14	0xba93d677	-0.0011279125
15	0x37994539	1.8271256e-05
16	0x39f0aed4	0.00045906624
17	0xb9d6ae3e	-0.0004094708
18	0xbab1d252	-0.0013566709
19	0x3aba7e4a	0.0014228311
20	0x3aa429c8	0.0012524659
21	0x3a7aacdf	0.0009562503
22	0x3a20ea8e	0.0006138467
23	0x38eef019	0.00011393446
24	0x39e05550	0.00042788172
25	0xba0eb288	-0.00054434733
26	0xbab1c28c	-0.0013562008
27	0xba10bb6b	-0.00055210915
28	0xb9c8f678	-0.00038330606
29	0x39c52638	0.00037603243
30	0x3ac58107	0.001506836
31	0x3a0eb767	0.0005444199
32	0xba3aae04	-0.0007121267
33	0x3ac8100d	0.0015263573
34	0xba3262e6	-0.0006804898
35	0x3aa57f72	0.0012626483
36	0xb9ab804f	-0.0003271126
37	0xb9b72ba6	-0.00034937
38	0x39217e57	0.00015401222
39	0xb93cbc11	-0.00017999137
40	0xb9b09710	-0.00033681886
41	0x39069239	0.00012833708
42	0x3a25c37e	0.0006323381
43	0xb95d6fad	-0.00021117805
44	0xb91d9b0e	-0.00015030449
45	0xb92745ef	-0.00015952413
46	0x39f3ecdb	0.00046525043
47	0xb98ed8d2	-0.00027245894
48	0x39df55e1	0.0004259786
49	0xb8d20a42	-0.00010015491
50	0xba06e778	-0.0005146186
51	0xbaa1b874	-0.0012338297
52	0x37422872	1.1572718e-05
53	0x364a11fa	3.011081e-06
54	0xb8c7bbea	-9.524061e-05
55	0x3a887f89	0.0010413985
56	0x38b0dba6	8.433247e-05
57	0xb9343615	-0.00017186285
58	0x3a173687	0.0005768318
59	0xb82714ac	-3.9835155e-05
60	0xb8dcdcc1	-0.00010531536
61	0x3930a7c0	0.0001684716
62	0xb7978e47	-1.8066856e-05
63	0xba640466	-0.0008698165

base.cnn.cnn.8.weight f4 [64]
0	0x3f7fba75	0.99893886
1	0x3f7fd91d	0.99940664
2	0x3f7fc2a9	0.999064
3	0x3f7fbb07	0.99894756
4	0x3f7fefbb	0.99975175
5	0x3f7fc85d	0.99915105
6	0x3f7fba01	0.99893194
7	0x3f7fc890	0.9991541
8	0x3f7fb4f1	0.9988547
9	0x3f7fe8e0	0.99964714
10	0x3f7fb58d	0.998864
11	0x3f7fb0f7	0.998794
12	0x3f7fbca1	0.998972
13	0x3f7fbcab	0.9989726
14	0x3f7facf2	0.9987327
15	0x3f7fed5c	0.99971557
16	0x3f7fb97e	0.99892414
17	0x3f7fb76a	0.9988924
18	0x3f7f9d7c	0.9984968
19	0x3f80070d	1.0002152
20	0x3f8010e7	1.0005158
21	0x3f7fe6b7	0.9996142
22	0x3f7fca2e	0.99917877
23	0x3f7fb079	0.9987865
24	0x3f7fca93	0.9991848
25	0x3f7fe53a	0.99959147
26	0x3f7f8f2b	0.9982783
27	0x3f7fb1e5	0.9988082
28	0x3f7fb1ef	0.9988088
29	0x3f7fbe74	0.99899983
30	0x3f802070	1.0009899
31	0x3f7fbf57	0.99901336
32	0x3f7fbad6	0.99894464
33	0x3f802e92	1.0014212
34	0x3f7fa3c3	0.99859256
35	0x3f801544	1.000649
36	0x3f7fbf17	0.99900955
37	0x3f7fca19	0.9991775
38	0x3f7ffe17	0.99997085
39	0x3f7fef0b	0.99974126
40	0x3f7fab6e	0.99870956
41	0x3f7fe9dd	0.9996622
42	0x3f7fc04e	0.9990281
43	0x3f7fb3b3	0.99883574
44	0x3f7fb5bd	0.99886686
45	0x3f7fc0bb	0.9990346
46	0x3f7fbc61	0.9989682
47	0x3f7fd369	0.9993196
48	0x3f80065c	1.0001941
49	0x3f7ffb02	0.9999238
50	0x3f7fb815	0.9989026
51	0x3f7fb941	0.9989205
52	0x3f7fcf1e	0.9992541
53	0x3f7fd0b1	0.9992781
54	0x3f7fe8c2	0.99964535
55	0x3f8005c7	1.0001763
56	0x3f7fbce4	0.998976
57	0x3f7fc0f1	0.9990378
58	0x3f7fd44b	0.9993331
59	0x3f7fbe5d	0.99899846
60	0x3f7fcb35	0.99919444
61	0x3f7fc530	0.9991026
62	0x3f8004cc	1.0001464
63	0x3f7fa830	0.9986601

base.cnn.cnn.8.bias f4 [64]
0	0x3a0093f2	0.0004904858
1	0x357ce98b	9.4217165e-07
2	0xb87bfac3	-6.0076603e-05
3	0xb9368347	-0.00017405777
4	0xb800d5a7	-3.0716557e-05
5	0x3a5c638c	0.00084071676
6	0xba15f856	-0.0005720904
7	0x392eb9c7	0.0001666314
8	0xba6f4877	-0.00091279246
9	0x39ad6a09	0.00033076134
10	0xba95d123	-0.0011430125
11	0xba3b7ab2	-0.0007151767
12	0x38b0fada	8.439059e-05
13	0xbaaff146	-0.0013423346
14	0xba9a3f69	-0.0011768165
15	0x389c7743	7.460874e-05
16	0x39a92ec1	0.00032269026
17	0xba0bba3a	-0.0005330179
18	0xbab935e0	-0.0014130436
19	0x3ab82b5d	0.0014051009
20	0x3a9d1b6a	0.001198632
21	0x3a7415f5	0.0009311133
22	0x39da2d9d	0.00041614185
23	0x37a5dced	1.977241e-05
24	0x39bd8d4c	0.00036154164
25	0xb9fb9217	-0.00047983296
26	0xbaba9f36	-0.0014238122
27	0xba12dd15	-0.0005602402
28	0xba062e14	-0.00051185605
29	0x3914d892	0.00014195059
30	0x3ac39e72	0.001492454
31	0x39e1eb47	0.0004309064
32	0xba4e48af	-0.0007869107
33	0x3ac598be	0.0015075428
34	0xba4c50ea	-0.00077940396
35	0x3a9b73ba	0.0011860051
36	0xb9d35b7b	-0.00040313214
37	0xb9d4aee9	-0.0004056611
38	0x38e27e12	0.00010800002
39	0xb9173f38	-0.00014424033
40	0xb9dc5db0	-0.00042031473
41	0x38e57f03	0.00010943229
42	0x3a1078c4	0.00055111595
43	0xb9d0e38e	-0.00039842393
44	0xb9ddfad0	-0.00042339275
45	0xb98b4a0a	-0.0002656731
46	0x39a2bf01	0.00031041357
47	0xb9cb4fdd	-0.0003877868
48	0x39b48579	0.0003443172
49	0xb8ce0e16	-9.825469e-05
50	0xba26664f	-0.00063476426
51	0xbaa451dc	-0.0012536603
52	0xb5a8b6d4	-1.2570185e-06
53	0x379715ef	1.8010816e-05
54	0xb937e4bd	-0.00017537452
55	0x3a7bf950	0.00096120406
56	0x363c293f	2.8038191e-06
57	0xb96fdc94	-0.00022874988
58	0x3a178195	0.0005779502
59	0xb931f2b7	-0.00016970454
60	0xb9333fca	-0.00017094534
61	0x3891eb8e	6.958014e-05
62	0xb80dc09f	-3.3796412e-05
63	0xba726237	-0.00092462025

rnn.rnn.weight_ih_l0 f4 [192, 64]
0	0x3da91404	0.08255771
1	0xbcdc68dd	-0.026905471
2	0x3c42cf3b	0.011890228
3	0xbc1dbe7c	-0.009627935
4	0x3df65d54	0.1202952
5	0xbd1bdfab	-0.038055103
6	0xbdb7022f	-0.08935963
7	0x3dd4d22d	0.1039165
8	0x3d117115	0.035508234
9	0xbde8fb62	-0.113760725
10	0xbc4cc9b7	-0.012499264
11	0xbe1293b7	-0.14314161
12	0x3db1013f	0.08642816
13	0xbe06facb	-0.13181607
14	0xbe04aa6e	-0.12955639
15	0x3e060f0e	0.1309168
16	0x3dac1ecb	0.08404311
17	0x3b3a20e8	0.0028400961
18	0x3db81062	0.089875
19	0x3def293a	0.11677785
20	0xbd071e63	-0.032987963
21	0x3bc0ec28	0.005887527
22	0x3e1bbca3	0.15208678
23	0x3e0f7973	0.14011173
24	0xbe0376d2	-0.12838295
25	0xbd4137f0	-0.047172487
26	0x3cbf1ba5	0.023328612
27	0xbdb21c7f	-0.086968414
28	0xbb306c24	-0.0026919926
29	0x3e156ca9	0.14592232
30	0x3e04d145	0.12970455
31	0xbe16eb2a	-0.14738145
32	0xbdadcfd8	-0.08486909
33	0x3b70800a	0.003669741
34	0x3df47087	0.119355254
35	0xbe1322c7	-0.14368735
36	0x3dfed406	0.12442784
37	0x3e1b5ee5	0.15172918
38	0xbd13881f	-0.036018487
39	0xbdd0ceaf	-0.10195672
40	0xbe0ca467	-0.1373459
41	0x3d6774e2	0.056507953
42	0xbb968489	-0.004593436
43	0xbcc99691	-0.024607928
44	0x3c8c2a21	0.017109932
45	0xbdb0d1a2	-0.08633734
46	0x3d82d2a0	0.0638783
47	0x3d3f60e4	0.04672326
48	0x3db4a167	0.088198476
49	0x3dbe41ed	0.09289918
50	0xbc4404f9	-0.011964076
51	0x3c99c30e	0.018769767
52	0xbe000572	-0.12502077
53	0x3dede4ea	0.116159275
54	0x3c7017e2	0.014654132
55	0x3bd4de5d	0.0064962343
56	0x3dc87f37	0.09789889
57	0x3da29e9f	0.07940411
58	0xbc60b21b	-0.013714339
59	0x3c75de82	0.015006663
60	0x3b3786df	0.0028003973
61	0xbdbd367a	-0.09238906
62	0x3da295a8	0.07938701
63	0xbb8a789b	-0.004225803
64	0xbdace6b0	-0.08442438
65	0xbe02ef9f	-0.1278672
66	0xbe044411	-0.1291659
67	0xbc9282c8	-0.017884627
68	0x3c098af7	0.008394948
69	0x3d933e2e	0.07189594
70	0x3d4d7324	0.050158635
71	0x3e1b5b39	0.15171517
72	0xbd531fff	-0.051544186
73	0x3d1c57f9	0.038169835
74	0xbdcb458b	-0.09925374
75	0xbe0ff54b	-0.14058416
76	0x3cb1e710	0.021716624
77	0x3d894f07	0.067045264
78	0xbdc8ce23	-0.098049425
79	0x3e0601a8	0.1308657
80	0x3e0bc286	0.13648424
81	0xbd76d0cb	-0.060257714
82	0x3dd9f09a	0.10641594
83	0x3e0e9f22	0.13927892
84	0xbd483104	-0.04887487
85	0xbe039ede	-0.12853572
86	0x3e1857d5	0.14877255
87	0xbd8dd758	-0.06925839
88	0x3dc84529	0.09778816
89	0xbe03363a	-0.12813655
90	0x3e12ba9e	0.14329001
91	0x3e1a0433	0.15040664
92	0xbda5a52c	-0.08088145
93	0xbcd7c2f3	-0.026338076
94	0xbe193496	-0.14961466
95	0xbe1c7cbf	-0.15281962
96	0x3da7ba9b	0.08189889
97	0xbdfe94b8	-0.124307096
98	0x3dd5cc40	0.10439348
99	0x3d57bb14	0.052668646
100	0x3d2536bd	0.040335406
101	0xbe143990	-0.14475083
102	0xbe00ee4e	-0.12590906
103	0x3defbf6e	0.11706434
104	0xbbe408a9	-0.00695904
105	0xbd0a1b01	-0.03371716
106	0xbc958160	-0.018250167
107	0x3dbbe39f	0.09174275
108	0x3d241211	0.040056292
109	0x3d996d71	0.074915774
110	0x3e157dae	0.14598724
111	0xbe0cd6dc	-0.13753837
112	0xbda95ff8	-0.08270258
113	0xbe189a85	-0.14902695
114	0x3e18c07a	0.14917174
115	0x3dbcbfe8	0.09216291
116	0xbe1050de	-0.14093348
117	0xbd8f3dc9	-0.069942065
118	0x3d5c1115	0.05372723
119	0xbddafed0	-0.10693133
120	0xbcc47640	-0.023982167
121	0x3da86016	0.08221452
122	0x3c9e4335	0.019319156
123	0xbcca86cf	-0.024722485
124	0xbe0db6d8	-0.1383928
125	0xbdffcaa7	-0.12489825
126	0xbe18fe6e	-0.14940807
127	0xbd90a706	-0.07063107
128	0x3e15079e	0.14553687
129	0xbde7f79f	-0.11326527
130	0x3d5ab8b7	0.053398814
131	0xbdc63925	-0.09678868
132	0x3d941ff9	0.07232661
133	0xbdef0319	-0.11670513
134	0xbd3756e6	-0.044760607
135	0x3bf06d44	0.007337244
136	0xbdfa9043	-0.12234547
137	0xbd00c75c	-0.031440124
138	0x3e0e9647	0.13924514
139	0x3d2a4732	0.041571803
140	0xbde1706f	-0.11007773
141	0x3dd4c2f5	0.103887476
142	0x3d630de0	0.055433154
143	0xbd961b08	-0.073293746
144	0xbd81f9d4	-0.06346479
145	0xbde9a813	-0.11409011
146	0xbd9f1ba1	-0.07768942
147	0x3cda23e4	0.026628442
148	0xbda3456a	-0.07972224
149	0xbda4cf4c	-0.08047351
150	0xbb5a04ba	-0.0033266977
151	0x3cb791d2	0.0224084
152	0x3ddd9d18	0.10820979
153	0xbdac99d8	-0.08427781
154	0x3c2c87bb	0.010530408
155	0x3df49a5c	0.11943504
156	0x3e14a146	0.14514646
157	0xbe09b6b4	-0.13448602
158	0xbe0016a2	-0.12508634
159	0xbd8c7a2e	-0.068592414
160	0x3c55542b	0.0130205555
161	0x3d3dd1c0	0.04634261
162	0xbdf5fe51	-0.12011398
163	0xbdfe6e8e	-0.124234304
164	0xbcb0d7f2	-0.021587346
165	0x3d93e8e3	0.07222154
166	0xbde53652	-0.111920014
167	0x3d86dcfd	0.06585119
168	0x3df809c0	0.12111235
169	0xba9ed4d3	-0.001211787
170	0x3d5cb08d	0.05387931
171	0x3ddacc75	0.10683528
172	0xbdfffac3	-0.12499001
173	0xbd61f37f	-0.055163857
174	0xbaf48d0d	-0.0018657759
175	0x3dd2810b	0.10278519
176	0xbc8e42cc	-0.017365836
177	0x3dab4dd0	0.08364451
178	0x3e1c1729	0.1524321
179	0xbe0e5ca6	-0.1390253
180	0xbdfe4d9e	-0.12417148
181	0xbdd4f021	-0.103973635
182	0x3da5b1a6	0.080905244
183	0xbcfe2cf2	-0.031027291
184	0xbd68bbb3	-0.05681963
185	0x3e13a8e3	0.14419894
186	0x3dce1d5d	0.10064194
187	0x3e1aab81	0.15104486
188	0xbc8938b7	-0.016750677
189	0x3e149828	0.14511168
190	0xbe0c0c7d	-0.13676639
191	0x3d1a4efa	0.037672974
192	0x3c9f1afc	0.019422047
193	0xbe18764d	-0.14888878
194	0xbd2333be	-0.039844267
195	0xbd731bcc	-0.05935268
196	0xbdcfa84c	-0.10139522
197	0xbe0c18ac	-0.13681287
198	0xbd9330ac	-0.07187018
199	0x3dd92cb1	0.10604227
200	0xbe023f4f	-0.12719463
201	0x3e06d9a8	0.13168967
202	0x3dfdeb85	0.123984374
203	0xbd5571f3	-0.052110624
204	0xbcc2f7b1	-0.02379975
205	0x3d804e5b	0.06264945
206	0xbdcdcba0	-0.10048604
207	0x3d7fc41c	0.062442884
208	0xbd709a00	-0.058740616
209	0xbdc339b1	-0.09532488
210	0xbe0d7145	-0.1381274
211	0xbd88d8a5	-0.06681947
212	0xbca2e54b	-0.019884726
213	0x3d0e4f25	0.034743447
214	0xbd2aa3e3	-0.0416602
215	0xbdcc834f	-0.099859826
216	0xbd5767fc	-0.0525894
217	0xbca2d554	-0.019877113
218	0x3d001b10	0.03127581
219	0x3d74c9a4	0.059762612
220	0xbd3e4e77	-0.04646155
221	0x3d2cb7ae	0.042167358
222	0xbe194cd2	-0.14970711
223	0xbd856be3	-0.065147184
224	0x3cd0644d	0.025438452
225	0x3e1980cb	0.14990537
226	0x3d6840bb	0.056702357
227	0xbcd2e405	-0.025743494
228	0xbd8509f9	-0.06496043
229	0x3d0c2d9d	0.034223188
230	0x3dad70e6	0.08468799
231	0xbca47930	-0.020077318
232	0x3dd7f003	0.105438255
233	0x3df4dbe8	0.11956006
234	0x3dd5cb87	0.104392104
235	0xbdf6fd7c	-0.12060067
236	0x3d1fc814	0.03900917
237	0xbd884a9f	-0.06654858
238	0x3de74ad5	0.1129357
239	0x3e142082	0.14465526
240	0x3cfa73ec	0.030572854
241	0xbe1a6966	-0.15079269
242	0x3a8245d0	0.0009939019
243	0x3e04faa7	0.12986241
244	0x3dec950f	0.11551868
245	0x3e110828	0.14163268
246	0xbd458c08	-0.048229247
247	0xbd6cec4a	-0.05784253
248	0x3e02303c	0.12713712
249	0xbddbd1ab	-0.1073335
250	0xbd75c143	-0.05999876
251	0xbc9ad451	-0.018900068
252	0xbdeab3e4	-0.11460093
253	0x3da5f18e	0.081027135
254	0xbe00a385	-0.12562378
255	0x3e001c6a	0.12510839

rnn.rnn.weight_hh_l0 f4 [192, 64]
0	0xbe09b22a	-0.1344687
1	0xbdd0be5e	-0.1019256
2	0x3e15fb4e	0.14646646
3	0x3e10d1a6	0.14142475
4	0x3da732f6	0.08164017
5	0x3c1b8f59	0.009494626
6	0xbd7236ec	-0.05913441
7	0xbdefb9e0	-0.11705375
8	0xbd92c2f4	-0.071660906
9	0x3de3d60e	0.11124812
10	0x3dd35ce6	0.10320453
11	0xbc059dc7	-0.008155293
12	0x3b5ebfb9	0.0033988787
13	0x3d5b5d8f	0.05355602
14	0xbce61c8a	-0.02808978
15	0x3c480936	0.012209227
16	0x3de9c828	0.1141513
17	0x3d1158b1	0.035484973
18	0xbc9e39e5	-0.019314716
19	0x3d468513	0.048466753
20	0x3dde0a97	0.108418636
21	0x3e006220	0.12537432
22	0xbe107f64	-0.14111096
23	0xbe131cc0	-0.14366436
24	0xbb986fe1	-0.004652009
25	0xbdc029ea	-0.093829945
26	0xbd24627c	-0.040132985
27	0xbc36d0e0	-0.011158198
28	0x3d8bf2be	0.06833409
29	0x3df9713d	0.121798016
30	0x3e1212f7	0.14265047
31	0xbd8a9b25	-0.06767873
32	0xbd0a0cf8	-0.033703774
33	0xbdd1788e	-0.10228072
34	0xbe123566	-0.14278182
35	0x3ddd7cab	0.10814794
36	0x3da17787	0.07884126
37	0x3dd30a22	0.10304667
38	0xbd6df672	-0.058096357
39	0xbd582ded	-0.052778173
40	0x3e03b389	0.12861456
41	0x3e023129	0.12714066
42	0xbcbfa205	-0.023392687
43	0xbd2e95ea	-0.042623438
44	0x3d3c5112	0.045975752
45	0x3ccb29b9	0.024800168
46	0xbd01f005	-0.03172304
47	0x3b68241b	0.003542191
48	0x3debb09d	0.11508296
49	0x3d838627	0.06422072
50	0x3e16cee3	0.14727359
51	0x3ded5c3f	0.1158986
52	0xbcaf6c8c	-0.021414064
53	0x3cd8b97b	0.026455631
54	0xbe163e40	-0.14672184
55	0x3d88024e	0.066410646
56	0x3ca2e9d3	0.019886887
57	0x3df16bc9	0.117881365
58	0x3ced425f	0.028962312
59	0x3c678f56	0.014133295
60	0xbe0627f1	-0.13101174
61	0x3d978ef7	0.07400315
62	0x3b76bfc3	0.003765092
63	0xbdbb9430	-0.09159124
64	0xbd98904f	-0.074494
65	0xbd966d7b	-0.073451005
66	0x3da6c250	0.08142531
67	0xbc4c4eed	-0.012469989
68	0xbda48ebe	-0.080350384
69	0xbd3f4430	-0.046695888
70	0xbde337c2	-0.11094619
71	0x3d662209	0.056184802
72	0x3db871b9	0.09006066
73	0x3df23e8a	0.11828335
74	0x3db5dc15	0.08879868
75	0xbe1a6093	-0.15075903
76	0x3d096f5d	0.03355347
77	0x3d45b3b5	0.048267085
78	0xbd4cdee8	-0.050017267
79	0x3d9b9d91	0.07598413
80	0xbdf18ad9	-0.11794061
81	0x39727411	0.00023122157
82	0x3bff7cc8	0.0077968575
83	0xbb07cecd	-0.0020722628
84	0xbd59d9dc	-0.053186283
85	0x3d63b87b	0.055595856
86	0xbd192796	-0.037391268
87	0x3cff789e	0.031185444
88	0x3d7f6fa7	0.06236234
89	0x3e05178e	0.12997267
90	0x3d165954	0.036706284
91	0x3bfbf4d4	0.007689098
92	0xbc9b724d	-0.018975401
93	0x3da187c7	0.078872256
94	0xbd918386	-0.07105164
95	0x3e07692f	0.13223718
96	0x3de28c5e	0.11061929
97	0xbdb05643	-0.08610203
98	0xbdce9e87	-0.100888304
99	0x3b98f510	0.0046678856
100	0x3d73999a	0.059472658
101	0xbdbd9efb	-0.09258839
102	0x3c96c967	0.018406583
103	0xbcb41374	-0.021981932
104	0xbdd8fa80	-0.10594654
105	0x3ce6301d	0.028099114
106	0xbdb06e2d	-0.08614764
107	0xbdfb5fca	-0.1227413
108	0x3db8af87	0.09017854
109	0x3da178f7	0.078844
110	0xbe16ea12	-0.14737728
111	0xbd82afdd	-0.063811995
112	0x3c0794a2	0.008275183
113	0x3de4cad0	0.11171496
114	0xbe104d7a	-0.14092055
115	0xbd2700ce	-0.04077225
116	0xbc051a5c	-0.00812396
117	0xbdfb18a5	-0.1226056
118	0xbdad1c44	-0.08452657
119	0x3d3afe44	0.045652643
120	0x3e0819b2	0.13291052
121	0xbd0aa36f	-0.03384727
122	0xbe11f5fe	-0.14253995
123	0x3d123477	0.035694566
124	0x3da984fa	0.082773164
125	0xbd2cc51d	-0.04218017
126	0x3d3f2864	0.04666938
127	0x3d70241c	0.058628187
128	0xbd51c187	-0.051209953
129	0xbddb5c1d	-0.107109286
130	0xbd175f52	-0.03695614
131	0x3df14bd4	0.11782041
132	0xbd45be3f	-0.048277136
133	0xbe053504	-0.13008505
134	0x3d7b9b06	0.06142714
135	0xbe1288b3	-0.14309959
136	0xbde2ad29	-0.11068184
137	0xbd3307c1	-0.043708567
138	0x3d5e100b	0.05421452
139	0xbe0b3775	-0.13595374
140	0xbe0b96fd	-0.13631816
141	0xbdd1d2b2	-0.10245265
142	0x3d2cc612	0.042181082
143	0xbe0d5ab0	-0.13804126
144	0xbc2d745a	-0.010586822
145	0x3deb4ecf	0.11489641
146	0x3da1475b	0.07874938
147	0xbddd9fc9	-0.10821492
148	0x3d9e3e65	0.077267446
149	0xbe0357aa	-0.1282641
150	0xbc99a2b2	-0.018754337
151	0x3da0c175	0.07849399
152	0x3c540d73	0.01294266
153	0xbda78d28	-0.0818122
154	0x3dc825af	0.097728126
155	0xbe0274f1	-0.12739922
156	0xbe00e047	-0.12585555
157	0x3ba02829	0.0048876
158	0xbd8d62b7	-0.06903594
159	0xbde474f7	-0.11155122
160	0xbcf07037	-0.029350383
161	0xbe136cac	-0.14396924
162	0x3d85c216	0.065311596
163	0x3e02fc1d	0.12791486
164	0x3d3e6733	0.046485137
165	0xbd0a3fa2	-0.03375209
166	0x3d60cdc4	0.054883733
167	0x3c2ed26f	0.0106702885
168	0x3d4167d5	0.047218163
169	0xbdd0b9d2	-0.101916924
170	0x3dbc4dd1	0.0919453
171	0x3d5e0169	0.054200564
172	0xbda203b5	-0.07910863
173	0xbdb6b5c8	-0.08921391
174	0xbd000379	-0.03125331
175	0x3d03294a	0.0320218
176	0xbdf5355c	-0.11973068
177	0xbe03bce6	-0.12865028
178	0xbd506e37	-0.05088636
179	0x3d98d232	0.074619666
180	0x3d6c0fc4	0.057632223
181	0x3db7ff7d	0.089842774
182	0x3da4458b	0.08021077
183	0x3da2029c	0.07910654
184	0xbd4f0557	-0.0505422
185	0x3e1937d0	0.14962697
186	0x3d6ebb98	0.058284372
187	0x3d486671	0.04892582
188	0x3dbd6296	0.092473194
189	0xbe13ae41	-0.14421941
190	0x3dc266ce	0.09492265
191	0x3d890fee	0.066924915
192	0xb889c053	-6.568492e-05
193	0xbdcdb9d8	-0.100452125
194	0xbe13850d	-0.14406224
195	0x3d3fabf4	0.046794847
196	0x3d81ba20	0.06334329
197	0x3d21494e	0.03937655
198	0xbd8ef958	-0.06981152
199	0xbcaac88f	-0.020847587
200	0x3e0fd84b	0.14047353
201	0x3dfeb8bc	0.12437579
202	0xbdee62a8	-0.11639911
203	0xbdc683f5	-0.096931376
204	0x3c2d27c3	0.010568562
205	0xbd07d351	-0.03316051
206	0x3df1a342	0.11798717
207	0xbdcbc19b	-0.09949037
208	0x3d376776	0.044776402
209	0x3e0cb515	0.13740952
210	0xbd1e5357	-0.038653698
211	0xbdbb7fd1	-0.091552384
212	0xbda48dca	-0.080348566
213	0x3cd8817b	0.026428929
214	0xbe14806b	-0.14502113
215	0x3d5476b2	0.05187101
216	0xbe1671a9	-0.14691795
217	0xbd314992	-0.043283053
218	0xbd43a355	-0.047763187
219	0x3d321849	0.04348019
220	0xbd13983e	-0.03603386
221	0xbd392211	-0.045198504
222	0x3cb7e4b1	0.022447916
223	0xbcc7319d	-0.02431565
224	0x3dd7ec44	0.10543111
225	0x3ddeeacf	0.1088463
226	0x3e0e88c4	0.1391936
227	0xbdf387c9	-0.11891133
228	0xbddb0eb5	-0.106961645
229	0x3ca8cb46	0.02060474
230	0xbd86e0b4	-0.065858275
231	0xbe13bf27	-0.14428388
232	0x3dfbd230	0.122959495
233	0x3dc59e60	0.09649348
234	0xbe065a14	-0.131203
235	0xbd86092d	-0.06544719
236	0x3def1d0f	0.11675464
237	0x3df47dbf	0.11938047
238	0xbd5c1e26	-0.05373969
239	0xbc8934d6	-0.016748827
240	0xbe1a50e9	-0.15069927
241	0x3d19dbfa	0.0375633
242	0xbe1a50ad	-0.15069838
243	0x3e113ffd	0.14184566
244	0xbe0b4004	-0.13598639
245	0x3d518c7c	0.051159367
246	0x3e01b2b4	0.12665826
247	0xbdc9b5a9	-0.09849102
248	0x3db4282d	0.087967254
249	0x3d92cceb	0.07167991
250	0x3cbe55e7	0.02323432
251	0xbd8dcb05	-0.069234885
252	0xbd2e10dc	-0.042496547
253	0x3d8b731c	0.06809065
254	0xbdb3124f	-0.087437265
255	0xbdea0e31	-0.11428488
