MARL/MAPPO-ATTENTIOAN/onpolicy/scripts/results/Meltingpot/collaborative_cooking__circuit_0/territory__rooms/mappo/check/run101/models/actor_agent8.pt (torch, 795666 bytes, 22 tensors)

base.cnn.cnn.0.weight f4 [32, 3, 3, 3]
000000 be cb a9 bd 3e fb 1f 3e 27 ce 2b 3e 6f a6 26 3e
       -0.08290814 0.15623185 0.1677786 0.16274427
000010 b1 89 ed 3d e0 14 28 3c ac 2d c2 3c b9 49 20 be
       0.11598528 0.010258883 0.023703419 -0.15653123
000020 3d 13 7a 3d ce 89 28 3c 75 da 1f 3e f5 7c 1b 3e
       0.061053503 0.010286761 0.15610678 0.15184386
000030 17 8c 3d 3e c1 79 22 bd 2d 0b db 3d 2d d0 17 3e
       0.18510471 -0.039666895 0.10695491 0.14825507
000040 3e ed f8 3b 84 90 21 3d e2 1a 1c 3e e3 81 9c 3c
       0.007596641 0.03944446 0.1524463 0.019104904
000050 81 f1 b7 bd d8 9e 0d be f4 f9 07 3e 87 0f 8f 3d
       -0.0898161 -0.13830125 0.13278943 0.069853835
000060 b2 ed 8d 3d d4 8b 3c be 4d 82 0e be f5 26 b9 3c
       0.069301024 -0.18412715 -0.13916893 0.022601584
000070 b0 cb 1c bd 30 bd 60 bd 84 85 e9 3c 3c ad b3 bd
       -0.03828019 -0.054867923 0.028506048 -0.08773276
000080 f2 16 29 be 25 4a 15 3e dc 9a e2 3d 39 8a 0b be
       -0.16512659 0.14579065 0.11064693 -0.13626947
000090 37 7c ff bd 9b a1 6a 3c 98 6e b5 3d 09 f0 3e 3e
       -0.12474864 0.014320756 0.08858985 0.18646254
0000a0 4a ee 05 be f0 30 f6 3d af 4c 32 3e e5 ad 00 3e
       -0.13079181 0.12021053 0.17412065 0.12566335
0000b0 40 a6 d2 3d e9 f0 2f be ad a1 01 3e da 0d f7 bd
       0.10285616 -0.17181744 0.1265933 -0.12063189
0000c0 71 05 bc bd 9d b5 b4 3c 9c 3e bb 3d a0 a1 7c bd
       -0.09180725 0.022059256 0.09142801 -0.061677575
0000d0 19 7d d3 3b bb 6a f3 3c 65 36 d4 3c 43 13 92 bd
       0.006454122 0.029713979 0.025904844 -0.0713258
0000e0 8f 91 09 3e 40 8b 02 be c4 db 21 3d 21 40 cb 3d
       0.13434432 -0.12748432 0.039516225 0.09924341
0000f0 c6 b1 13 be 30 b4 e9 bc f3 ef b2 3d 88 30 dd bd
       -0.14423284 -0.028528303 0.08737173 -0.10800272
000100 26 6b 02 3e 20 db 07 be f2 26 f0 bd 22 40 3b 3e
       0.12736186 -0.13267183 -0.11726178 0.18286183
000110 95 02 0e 3e 08 df 3c 3e 9f d8 16 be 58 d3 05 be
       0.13868172 0.18444455 -0.14731072 -0.13068902
000120 51 61 2a 3c 58 af 02 3e 6f 84 be bd 5e 98 c9 3d
       0.010399179 0.12762201 -0.093026035 0.09843515
000130 30 6e d0 3d 94 6b 36 3e eb aa 0b bd 4b f3 45 be
       0.101772666 0.17814475 -0.034098547 -0.1933109
000140 a4 5d f5 3c d2 fa a3 3d f9 8f 26 3d 62 f8 0b bd
       0.029951878 0.080068246 0.040664647 -0.034172423
000150 73 69 82 bd 90 d1 1f 3e 71 c9 1a be df f8 23 3e
       -0.06367769 0.15607285 -0.15115906 0.16012906
000160 8e 69 3e 3e 87 84 35 bc b5 6c 44 3d ca b9 d4 bc
       0.18594953 -0.01107896 0.047955234 -0.025967497
000170 c6 07 3c 3e da cc b3 bd cc 14 47 be b7 fb 15 3e
       0.1836234 -0.08779307 -0.19441527 0.14646803
000180 37 6e 8d 3d 63 5d 18 bd e5 d9 f1 bd be f3 f6 3d
       0.069057874 -0.037198436 -0.11809138 0.12058209
000190 ed bb 9e bc 13 17 15 3d ad 84 aa 3d bb 9e 03 be
       -0.01937672 0.03639896 0.08326087 -0.1285352
0001a0 85 9b 10 be e7 28 f7 3d 4a 39 93 bd ca 9d 20 be
       -0.14121826 0.120683484 -0.071886614 -0.15685192
0001b0 2c 85 30 3d 63 67 34 be d8 e4 0f be 2f 7b 93 bc
       0.043095753 -0.17617564 -0.1405214 -0.018003074
0001c0 c6 53 fd 3d 0e d9 2b 3e 16 ca 99 3d 67 32 da 3d
       0.12369494 0.16782019 0.07509248 0.10654145
0001d0 dc 2a 38 be 25 af ec bc 9a d0 9d 3d 8d c0 77 3c
       -0.179851 -0.02889211 0.07705803 0.015121591
0001e0 52 48 b7 3d c9 b2 a9 3d d0 ac ee bd 8d ac 25 3e
       0.08949341 0.08286054 -0.11654055 0.16179104
0001f0 05 c9 a0 3d a6 37 be bc 28 0e ed bd 13 0a ad 3c
       0.078508414 -0.023219895 -0.11574966 0.021122968
000200 fc 0a 21 bd c5 65 33 3e 20 98 67 bd 66 00 40 be
       -0.039317116 0.17519291 -0.056541562 -0.18750152
000210 1f 26 43 3e 77 7c 18 3e 22 ae 2d be 14 cd 22 be
       0.19057511 0.1489123 -0.16960958 -0.15898544
000220 17 21 23 be c5 ab 8b 3d ae d4 ae 3d e9 d7 cc bc
       -0.15930592 0.06819872 0.08536659 -0.025005298
000230 64 e2 da 3d 2e 80 83 3d 2d ca e9 bd 9d e3 4b bc
       0.10687712 0.06420933 -0.11415515 -0.012444404
000240 39 64 44 bd 81 1b d4 bc ab 20 f7 3d 5f 42 0f be
       -0.047947142 -0.025892021 0.12066778 -0.13990162
000250 99 37 f9 bd e8 2d 46 be 90 e4 69 3d 14 9a 3a be
       -0.121688075 -0.1935345 0.05710274 -0.18222839
000260 af b4 44 3e ca d6 28 3d c9 6d 28 be 14 e8 06 be
       0.1920955 0.041220464 -0.1644813 -0.13174468
000270 80 f4 10 3e 90 5d a0 bd 61 9e b6 3d ac 47 70 3d
       0.1415577 -0.07830346 0.08916927 0.0586621
000280 94 76 d5 bd 06 6c 7c bd 85 be d5 bc c6 df 49 bd
       -0.104230076 -0.061626457 -0.026091823 -0.049285673
000290 53 10 5b 3d 6b 96 32 be 95 59 e9 3d 39 fc 70 3d
       0.053482365 -0.17440192 0.113940395 0.05883429
0002a0 a4 40 ec 3d d9 9b 07 be 17 eb 36 be fc a5 1c bd
       0.11535767 -0.13243045 -0.17863117 -0.038244233
0002b0 8d 58 df 3d 82 a1 1c be 68 27 17 3e 6d 56 74 bc
       0.109055616 -0.15295985 0.14761126 -0.014913184
0002c0 cd 7a 00 be f1 b8 41 be f2 cf d5 bd 0c 29 42 bd
       -0.12546845 -0.18918206 -0.10440053 -0.047402427
0002d0 bc 6e e9 bd ed 6c 56 3c 5b cb 3a 3d d2 7b 23 3e
       -0.11398074 0.013087493 0.04560409 0.15965202
0002e0 23 96 39 be d7 23 2c 3e f6 ac df bd 2f a9 7a bd
       -0.18123679 0.16810547 -0.109216616 -0.061196502
0002f0 10 f9 c1 3d 87 2d f1 bc c2 5c 9c 3d 5c fe 44 3e
       0.09471333 -0.029440654 0.0763488 0.19237655
000300 c5 33 08 3e 8e 38 0f be 28 8c 36 be 41 cb ae 3c
       0.13300999 -0.13986418 -0.17826903 0.021337153
000310 94 1f 38 3e 5c 78 38 be 8c 96 10 bd 0b df 21 3e
       0.17980796 -0.18014663 -0.035299823 0.1580774
000320 3c 99 e7 bd 7a 74 e1 bd 0a 9c 38 3e a3 58 f3 3d
       -0.11308524 -0.11008544 0.18028274 0.118821405
000330 c0 79 09 be f4 63 8b 3d c9 cb 31 3e 43 41 87 3d
       -0.1342535 0.06806174 0.17362894 0.066042446
000340 51 51 3c be 02 d6 dc 3c c8 68 d5 3d 35 78 40 be
       -0.18390395 0.026957516 0.10420376 -0.18795855
000350 7a c7 2c 3e ab e0 0b be cf 5c b7 bd ea 93 12 be
       0.1687297 -0.13659923 -0.08953249 -0.14314237
000360 52 bf 9a 3b cd cc 9d bd 80 b2 9d ba 4b 4d 91 bd
       0.004722514 -0.07705078 -0.0012031347 -0.070948206
000370 cf 0d 98 bc 19 54 e0 bd 00 9e 31 3e 8a cb f8 bd
       -0.018561272 -0.1095354 0.17345428 -0.12148197
000380 66 da 30 be 5a b1 11 3d 8c ea 9a bd 96 e8 1c bd
       -0.17270812 0.035569526 -0.075642675 -0.03830775
000390 12 b3 17 3e 19 16 25 3d 0d ec c3 3d 74 34 37 3e
       0.14814404 0.040304277 0.095665075 0.17891103
0003a0 e2 f0 24 bc 2b 1b 1e be 0f 75 c6 3d 73 1c 34 3d
       -0.010067197 -0.15440051 0.09690296 0.043972444
0003b0 ec c3 aa bd 5f 65 2b bc 41 67 2a be 70 6b d7 bd
       -0.083381504 -0.0104611805 -0.1664095 -0.10518539
0003c0 93 81 24 3d cd 2c 03 3d ce 2e 3b be a1 20 1e 3e
       0.040162634 0.032025147 -0.18279573 0.15442134
0003d0 52 74 b7 3d 00 40 8d bc ba 1c b0 bd 18 ea 58 3d
       0.08957733 -0.017242432 -0.08599229 0.052957624
0003e0 3c ad aa bd ca 72 d2 bd 6b 70 1c be 3a f3 38 3d
       -0.08333823 -0.102758005 -0.15277259 0.045153834
0003f0 c5 4f e9 bd a6 b1 34 be 65 e1 38 3e a9 cf 8f bc
       -0.11392168 -0.17645893 0.18054731 -0.017555075

base.cnn.cnn.0.bias f4 [32]
000000 30 f9 e3 31 c3 0e 11 32 ea 17 6c b2 e4 18 cb b1
       6.634899e-09 8.443467e-09 -1.3742445e-08 -5.9109073e-09
000010 5b 5f 70 2f fa 94 66 b2 74 65 1e 33 49 20 97 b1
       2.186175e-10 -1.3421635e-08 3.6879513e-08 -4.398349e-09
000020 b9 9e 2a 33 22 59 8c 32 52 2a 18 33 1b ae 98 b1
       3.9725567e-08 1.6338678e-08 3.5428748e-08 -4.4435757e-09
000030 66 e5 c0 b1 51 41 19 33 2e 05 d1 32 c7 02 a5 b2
       -5.614015e-09 3.5682493e-08 2.4333158e-08 -1.9209791e-08
000040 7e 4d 16 b2 bd 8d ba 32 e3 16 7b 32 58 e9 31 b1
       -8.748769e-09 2.1717705e-08 1.4615327e-08 -2.588953e-09
000050 7a b4 66 32 d5 75 5f 33 71 d8 a1 32 83 af e8 32
       1.3428798e-08 5.20284e-08 1.8841293e-08 2.7088168e-08
000060 e3 31 0c 32 09 7e 2f 30 0f 94 0b 31 6c 51 e6 32
       8.1604155e-09 6.3843736e-10 2.0311324e-09 2.681255e-08
000070 70 bf 0f 32 15 bc 92 b2 06 8d 25 2f 35 2b 8c 30
       8.367223e-09 -1.7082167e-08 1.5056764e-10 1.0198621e-09

base.cnn.cnn.1.weight f4 [32]
000000 cd 28 80 3f 16 02 80 3f 25 c1 7f 3f c8 cd 7f 3f
       1.0012451 1.0000637 0.9990409 0.9992337
000010 20 08 80 3f e6 f5 7f 3f e9 e6 7f 3f 3c 10 80 3f
       1.000248 0.99984586 0.99961716 1.0004954
000020 1e ec 7f 3f 69 a2 7f 3f 6d a3 7f 3f af ae 7f 3f
       0.9996966 0.99857193 0.9985874 0.9987592
000030 35 a2 7f 3f d9 b0 7f 3f da f2 7f 3f 6e e0 7f 3f
       0.99856883 0.99879223 0.9997994 0.9995183
000040 26 aa 7f 3f 7e c9 7f 3f c6 a5 7f 3f 40 b5 7f 3f
       0.99869 0.9991683 0.99862325 0.9988594
000050 68 9f 7f 3f 8a bd 7f 3f db 2b 80 3f 6d b5 7f 3f
       0.9985261 0.9989859 1.0013384 0.9988621
000060 5d 1c 80 3f 06 d8 7f 3f 71 9a 7f 3f a2 f7 7f 3f
       1.0008656 0.99939 0.99845034 0.9998723
000070 69 cf 7f 3f 69 d0 7f 3f b8 15 80 3f d8 b7 7f 3f
       0.9992586 0.99927384 1.0006628 0.998899

base.cnn.cnn.1.bias f4 [32]
000000 a4 19 b0 3a 0c 39 95 3a e9 06 7f ba 07 23 3d 39
       0.0013435376 0.0011384799 -0.0009728508 0.00018037493
000010 1f 86 71 39 f3 d8 c6 39 ae f3 54 38 72 9f ca 39
       0.00023033515 0.00037927143 5.0771683e-05 0.00038647238
000020 d8 58 30 b9 18 19 b8 ba fa bc 21 b9 2a 47 85 ba
       -0.00016817765 -0.0014045564 -0.00015424556 -0.0010168303
000030 9e f1 a9 ba 5d d4 01 3a 01 ab e0 b9 22 fc 0f 3a
       -0.0012965684 0.0004952604 -0.00042852017 0.0005492588
000040 fd 6b 45 ba a1 70 95 38 2b eb b1 ba ae 12 a5 b7
       -0.0007531045 7.1258524e-05 -0.0013574114 -1.9678231e-05
000050 93 93 01 ba 66 00 8f ba e2 a8 25 3a 50 87 b3 39
       -0.000494295 -0.0010910153 0.0006319416 0.00034242356
000060 0d c2 bf 3a 45 6c 05 ba fc 24 ad ba f9 e3 5d 39
       0.0014629975 -0.0005089681 -0.0013209875 0.00021161129
000070 e5 78 4d 3a 6d e0 f7 39 ef eb a5 3a de 1d ef b8
       0.0007838144 0.00047278721 0.0012658815 -0.00011401971

base.cnn.cnn.1.running_mean f4 [32]
000000 2b 81 0b 3e 5d 29 7b 3c 0b 79 fd 3c c2 ae e4 3c
       0.13623492 0.015329686 0.030941507 0.027915362
000010 04 45 01 3d e4 8a ae bd 46 42 98 bd 70 7b 6c bb
       0.03155996 -0.08522585 -0.07434516 -0.0036084317
000020 77 d9 95 bd 97 91 03 be 5a 30 48 bb da e0 db 3d
       -0.07316869 -0.12848507 -0.0030546398 0.107362464
000030 fb 7c 51 3d 49 76 f2 bb a8 c9 36 bd 67 1c 96 3d
       0.05114458 -0.0073993546 -0.044625908 0.07329636
000040 e9 28 0c be 13 78 a5 bd 7e 60 a7 3b 47 42 14 3d
       -0.13687481 -0.08079543 0.0051079383 0.03619602
000050 2c 26 00 3c a4 e5 c9 bc 1a 63 3b 3d 9f b5 32 bd
       0.007821601 -0.024645634 0.045748807 -0.04363024
000060 b4 b3 d5 3d 60 40 02 3e 53 9f 60 3d 32 8f af bd
       0.10434666 0.1271987 0.054839443 -0.08572234
000070 e7 37 61 3d 01 eb 5c be 30 85 ad 3d bc 71 83 3c
       0.054984953 -0.21574022 0.08472669 0.016045444

base.cnn.cnn.1.running_var f4 [32]
000000 84 c1 80 3c c7 1f 6e 3b bd 6d a5 3b c3 5e a3 3b
       0.015717275 0.0036334859 0.005048482 0.0049856617
000010 ef f5 0f 3c e6 f2 12 3c f8 8d bb 3b 50 0a 59 3b
       0.0087866625 0.008969044 0.005723711 0.003311772
000020 99 ca 1c 3c a7 c0 46 3c 4b 1b ab 3b 09 5f 44 3c
       0.009569787 0.012130893 0.0052217594 0.011985549
000030 7c 0e af 3b 9d 0c 1b 3b ae d3 9f 3b c3 27 f6 3b
       0.005342303 0.002365864 0.004877529 0.007512064
000040 9d d1 7e 3c 55 e4 d5 3b 8b 3c 2b 3b 07 8a d4 3b
       0.015552905 0.0065274634 0.0026128616 0.0064861807
000050 4b d9 80 3b 14 af ab 3b e2 9c a8 3b c2 e0 97 3b
       0.0039321533 0.005239377 0.005145655 0.0046349475
000060 2f 5f 34 3c d3 10 68 3c 5c 8a dc 3b ff 60 f1 3b
       0.011009022 0.014164167 0.006730361 0.007366299
000070 80 4c b6 3b 89 2b f1 3c 0b a6 ea 3b 86 35 46 3b
       0.0055633187 0.029439704 0.007160907 0.0030244305

base.cnn.cnn.4.weight f4 [64, 2592]
000000 71 cc e8 ba 42 c3 8d 3b 9e f0 c3 39 c7 75 42 3d
       -0.0017761124 0.004326255 0.00037372572 0.047475602
000010 0e 77 de bc 75 34 0f 3d 0d 2c 48 bc 78 be ef bc
       -0.02715638 0.034962136 -0.012217534 -0.029265627
000020 5f ad 0f bd c3 19 d9 bb b3 e4 2b bd 10 23 a4 3c
       -0.03507745 -0.0066253855 -0.04196615 0.02003625
000030 33 27 4a bd 1d 2c c8 3a 1d fa 7d 3d 2b 73 42 3d
       -0.04935379 0.0015271936 0.062006105 0.047473114
000040 fa 19 24 bd ed 89 77 3d e7 25 1a 3c c1 41 e9 3c
       -0.040063836 0.06043427 0.009408451 0.028473737
000050 f5 94 ac bb 84 22 86 bc b1 9e c1 3c 03 b9 1d 3d
       -0.0052667805 -0.01637388 0.02363524 0.03850652
000060 ac 89 1f bc f8 aa c9 bc f0 31 48 bb 36 16 6f bc
       -0.009737413 -0.024617657 -0.0030547343 -0.014592698
000070 94 04 81 bd 8a 3a 1a 3c 14 0a 5c 3c 15 42 25 bd
       -0.06299701 0.009413371 0.013430137 -0.040346224
000080 00 4a 93 bb 83 27 5b bd 88 ba 31 3b 86 03 87 3d
       -0.0044949055 -0.05350448 0.0027119238 0.06592469
000090 6b 8b 13 bd bc 22 88 3d 4f 5e 83 bd f0 f4 7a bd
       -0.03602163 0.0664725 -0.06414472 -0.061268747
0000a0 02 58 4b 3d bf 15 86 3d e6 96 4b 3d 6d 69 3d bd
       0.049644478 0.065471165 0.049704455 -0.04624312
0000b0 e2 99 15 3c 4c 7d 6d bd 00 be 86 3d fc de 59 bd
       0.009130927 -0.05798082 0.065792084 -0.05319117
0000c0 50 83 7c bc 90 2c e5 3c 3f 7b 0c bc ae ea e7 3c
       -0.015412167 0.02797535 -0.008574306 0.028310146
0000d0 9a 3b 86 bd 94 65 8a bc 77 1f 10 3d 17 d6 3c 3d
       -0.06554337 -0.01689414 0.035186257 0.04610261
0000e0 43 41 84 3d a5 5f 52 3d e0 50 ea 3b 67 00 f6 bc
       0.0645776 0.051360745 0.0071507543 -0.030029489
0000f0 37 8a 91 bb 19 61 80 3c 3b d5 8d 3c 91 44 44 bd
       -0.0044415253 0.0156713 0.01731359 -0.047916953
000100 65 b3 04 3d cc dd 2d bd b4 b6 d2 bc bf 19 41 bd
       0.032397646 -0.04244785 -0.025721885 -0.047143694
000110 d6 69 4d bd 6b 26 46 3d 9c cd 34 3d e4 5a 48 3d
       -0.05014976 0.048376482 0.044141397 0.048914805
000120 3f 58 34 bb 7b e8 22 3d b1 d4 cb 3c 0b 80 1a 3b
       -0.002751842 0.039772492 0.024881693 0.0023574855
000130 24 0a 47 3d ff bb 03 bd 83 bd 3f bd 59 4d 47 3d
       0.048593655 -0.03216171 -0.04681159 0.04865775
000140 89 ce f5 bc 52 ef 80 bc 4f d1 42 3d f5 43 7a 3d
       -0.03000571 -0.015739117 0.047562893 0.061099965
000150 ad e9 19 bc f8 51 04 bc 1a 00 94 3c fa 48 23 bd
       -0.009394092 -0.0080761835 0.018066455 -0.039864518
000160 cb 10 76 3d 8b 19 87 bc a6 cf 70 3d d9 5f d4 bc
       0.06007461 -0.016491672 0.05879178 -0.02592461
000170 e0 00 4c 3c d5 85 85 3d 06 70 00 3d 6c a3 3c 3b
       0.0124513805 0.06519667 0.031356834 0.002878393
000180 43 2b 03 3d 42 ed 2f bd 6e d7 35 bd 81 ba 9c bc
       0.03202368 -0.042950876 -0.044394903 -0.0191319
000190 97 9c 5f bc 00 8f 71 3d 99 96 e2 bc 49 a4 42 3d
       -0.013648174 0.058974266 -0.027659701 0.047519956
0001a0 af 1c f2 3c 89 bb 86 3d 1a 6f 30 bd eb 59 00 bd
       0.029554693 0.06578738 -0.043074705 -0.031335752
0001b0 bd d1 98 3a 24 ec bf 3c c7 c5 05 3d 43 f2 62 bd
       0.0011659187 0.02342803 0.03265932 -0.05540682
0001c0 29 1f 16 bd a1 a3 0f 3d 36 48 73 3d 5c ff 58 bd
       -0.03665081 0.035068158 0.059395038 -0.052977905
0001d0 75 79 7a 3d fc e0 1c 3d fb fd 3b bd 54 55 b1 3c
       0.061150987 0.0383005 -0.04589651 0.021647133
0001e0 a9 84 44 bd 5c e6 7d 3c b6 77 87 bd 70 e1 35 bd
       -0.047978077 0.0154968165 -0.0661463 -0.044404447
0001f0 4e f9 87 3d 45 60 c3 3b e4 4a 49 3d 2e e7 62 ba
       0.06639348 0.005962404 0.049143687 -0.0008655664
000200 15 a9 08 bc ab 56 ff 3c 5d ff 47 bd 7a 44 bd bc
       -0.008341094 0.031169256 -0.048827518 -0.023103941
000210 21 35 ba bc 3e e6 bb 3c 70 5f 7e 3d 50 05 6d bd
       -0.022730412 0.022936936 0.062102735 -0.057866395
000220 d7 33 80 bd 08 b9 47 bd 6e 70 95 bc 69 59 0b bd
       -0.06259888 -0.048760444 -0.018242087 -0.034020815
000230 63 11 25 bc 11 b2 b3 bc fa 2c 83 3d c4 85 bc bc
       -0.010074946 -0.021935495 0.06405063 -0.023013003
000240 5d cf c2 bc bd 77 82 3d 95 44 6b 3d ed e0 0a bc
       -0.02378052 0.063704945 0.05743845 -0.008476478
000250 79 7a 2c 3d de 8b 07 bc aa d4 26 3d e0 16 30 3d
       0.042108987 -0.008273093 0.040730156 0.042990565
000260 0e 27 7e 3d 59 06 77 bd 40 8d d5 bb d7 2b e7 bc
       0.062048964 -0.060308788 -0.0065170825 -0.028219147
000270 27 e0 eb 3c df f2 4c bd 39 d7 4b 3d 45 17 55 bd
       0.028793408 -0.050036307 0.0497658 -0.052024145
000280 51 01 fb 3b 23 e8 37 3d 3d af 50 bd f9 cc 43 bd
       0.007660069 0.044899117 -0.05094837 -0.0478029
000290 80 c8 d5 bc eb 3b 13 bc 5b 0c d5 bc 0b 23 5e 3d
       -0.026096582 -0.0089864535 -0.026006868 0.05423264
0002a0 61 4d e8 bc 3d 89 cb bc c8 04 33 b8 b3 d0 80 bd
       -0.02835721 -0.024845714 -4.268138e-05 -0.06289806
0002b0 bc c0 0b 3d ae 51 5c bd 2c 37 2e 3d 0d 22 22 bd
       0.034119353 -0.053788833 0.042533085 -0.039583255
0002c0 71 6c 56 bc 9c 20 8d 3b ff e0 34 3d a9 d8 46 bb
       -0.013087378 0.004306866 0.044159885 -0.0030341542
0002d0 a5 2f 4a bd 61 8f 3d bc 11 e1 5c 3d 6d cd 8d 3c
       -0.049361844 -0.011569829 0.053925578 0.017309869
0002e0 b1 98 02 3d aa bb a8 3c 7b 0c b7 bc 55 50 6b 3d
       0.0318839 0.020597298 -0.022344818 0.057449657
0002f0 b6 58 a9 3c 55 42 4a bd 71 b2 f5 3c c2 6b 3a bc
       0.020672183 -0.049379665 0.029992314 -0.0113782305
000300 c3 2b 67 3d 81 ef 37 3d c7 4a 6c bd eb 8f 86 bd
       0.05643822 0.044906143 -0.0576885 -0.06570419
000310 02 8c 4f bd ab 43 26 3d fc 22 83 bd 2d 11 1f 3c
       -0.05067063 0.040591877 -0.06403157 0.009708685
000320 57 ed 2d 3d 00 8b 6c bd b7 97 05 bd 77 6f 86 bd
       0.042462673 -0.05774975 -0.03261539 -0.06564229
000330 3e 6c 48 3c 24 37 d6 bc 27 80 4c bd f4 d2 a7 3c
       0.012232838 -0.02614934 -0.049926903 0.020486332
000340 fb 86 bf 3b f7 3e 40 bd 21 1c 65 bd 78 72 38 bb
       0.0058449483 -0.046935048 -0.05593503 -0.00281444
000350 66 91 7d 3d f2 0e ed 3c 90 e5 05 bd d1 0d 4e bd
       0.06190624 0.02893779 -0.03268963 -0.050306145
000360 ab 4f e9 3c c5 d2 b0 bc 28 a0 0b 3d 01 3c 91 3c
       0.028480371 -0.021584878 0.034088284 0.017728807
000370 98 06 a7 39 15 be 75 3d 95 c7 c2 3c 2a 16 53 3d
       0.00031857635 0.05999573 0.023776809 0.05153481
000380 cc ce e8 3c ec 57 85 bd d9 28 c0 bc c0 6f 36 bd
       0.028418921 -0.065109104 -0.023456978 -0.044540167
000390 3c b3 80 3d e4 ed eb bc 6b 10 d6 3c e6 56 e2 bc
       0.06284186 -0.028799959 0.026130876 -0.027629327
0003a0 c7 c0 a1 bc 32 15 08 3d 98 75 b0 3c f4 b0 c1 3c
       -0.019745244 0.03322334 0.021540448 0.023643948
0003b0 f5 4b 27 ba 29 69 57 bd f4 a6 57 bd 52 22 bc bc
       -0.0006381863 -0.052590523 -0.052649453 -0.022965584
0003c0 f7 fe dd 3c f2 4d 36 3d 7f d4 83 3d 59 f7 f7 3b
       0.027099116 0.04450793 0.06437015 0.007567328
0003d0 ec 2d 9d bc 41 d5 30 bd 01 40 36 3c 3e 4e 69 bd
       -0.019186936 -0.043172125 0.011123658 -0.056959383
0003e0 5a 80 be 3c e4 cc e5 bc 4a 0e 81 bc 5f 8b c8 3c
       0.023254562 -0.028051801 -0.015753884 0.02448052
0003f0 91 19 a6 3a c8 3b 35 bd 4f c0 5f bd 1f 1e 12 3d
       0.0012672414 -0.044246465 -0.05462676 0.035673257

base.cnn.cnn.4.bias f4 [64]
000000 f5 32 34 ba 8a 30 93 b8 55 9b c9 b9 6e 02 3f ba
       -0.0006874048 -7.018547e-05 -0.0003845344 -0.0007286434
000010 c2 4f a6 ba d1 c1 c2 b9 54 9e 04 3a 11 7f f7 b9
       -0.0012688565 -0.00037146968 0.0005058993 -0.00047206183
000020 4f cf 03 b8 22 6b 6d 3a d3 4a 07 3a f3 72 d9 b9
       -3.1425905e-05 0.00090567966 0.0005160991 -0.0004147511
000030 b9 36 b2 b9 f4 a2 34 3a fc dc 94 38 aa 00 8f 39
       -0.00033991577 0.0006890737 7.0983515e-05 0.0002727558
000040 38 87 cb b9 72 9e d6 b9 07 03 e7 b8 ba d3 94 3a
       -0.00038819923 -0.00040935312 -0.00011015502 0.0011354603
000050 c3 d2 17 ba 95 40 b8 38 a4 fa d7 b9 6e cb c7 39
       -0.0005791599 8.785833e-05 -0.00041194737 0.00038107805
000060 1e b1 87 39 30 11 97 3a 5c cc 53 b7 6f f0 9c ba
       0.0002588117 0.0011525508 -1.2624161e-05 -0.001197351
000070 13 ce 7f 3a 80 1c 94 ba 03 53 11 ba 7d 8f c3 39
       0.00097581855 -0.0011299998 -0.0005543681 0.00037300205
000080 f1 48 85 b9 f8 fd be 39 fb aa e3 b9 8e e9 41 b9
       -0.00025422082 0.00036428845 -0.00043424204 -0.0001849292
000090 81 56 62 ba 3a d2 9f 3a a7 09 2c b8 f8 96 08 b9
       -0.0008634106 0.001219339 -4.1016985e-05 -0.00013026211
0000a0 35 9a 13 ba c6 38 91 3a 4d 79 92 3a ef 01 ed 39
       -0.00056305836 0.0011079542 0.0011175066 0.00045205603
0000b0 5a 39 0c ba 30 e8 3f b9 62 ce 20 3a 1d a3 61 3a
       -0.0005349122 -0.00018301676 0.0006134269 0.00086073746
0000c0 e9 54 98 39 4b 75 0d b7 6f 1c 61 3a ca ab 54 ba
       0.00029054962 -8.431564e-06 0.0008587306 -0.0008112757
0000d0 47 69 6d b9 7b cf 54 ba 33 65 ff b9 ec a7 86 ba
       -0.000226413 -0.0008118075 -0.0004871279 -0.0010273433
0000e0 c2 e8 3e b9 93 4c 1a 3a 57 2d 81 3a 98 80 f1 b9
       -0.00018206521 0.0005886044 0.0009855431 -0.00046062912
0000f0 d4 ec 17 3a d9 48 62 ba 54 11 4b b9 62 d7 44 3a
       0.0005795483 -0.0008632071 -0.00019366044 0.0007508901

base.cnn.cnn.5.weight f4 [64]
000000 7d ba 7f 3f 15 b1 7f 3f 26 c0 7f 3f ef 9a 7f 3f
       0.99893934 0.9987958 0.9990257 0.99845785
000010 f7 99 7f 3f d2 a4 7f 3f c7 e3 7f 3f af 9b 7f 3f
       0.99844307 0.9986087 0.99956936 0.9984693
000020 d2 bf 7f 3f e0 05 80 3f 1f d1 7f 3f 14 ba 7f 3f
       0.9990207 1.0001793 0.9992847 0.9989331
000030 e6 b6 7f 3f 6b ef 7f 3f 9f b2 7f 3f 44 e1 7f 3f
       0.99888456 0.999747 0.9988193 0.99953103
000040 5d ae 7f 3f 13 b1 7f 3f 31 c0 7f 3f 04 1b 80 3f
       0.9987543 0.9987957 0.99902636 1.0008245
000050 1f b1 7f 3f c2 ba 7f 3f 22 b6 7f 3f 94 f8 7f 3f
       0.9987964 0.99894345 0.9988729 0.99988675
000060 4c cf 7f 3f b1 16 80 3f 86 a9 7f 3f 9d a1 7f 3f
       0.99925685 1.0006925 0.9986805 0.9985598
000070 d1 e8 7f 3f 46 af 7f 3f fc be 7f 3f 76 c8 7f 3f
       0.99964625 0.9987682 0.99900794 0.99915254
000080 bb b8 7f 3f 25 d3 7f 3f 4e ba 7f 3f 1c b7 7f 3f
       0.9989125 0.99931556 0.99893653 0.9988878
000090 e6 b9 7f 3f 83 22 80 3f ff cf 7f 3f b0 b4 7f 3f
       0.99893034 1.0010532 0.9992675 0.9988508
0000a0 6c b2 7f 3f 87 12 80 3f 7f 15 80 3f 1f 06 80 3f
       0.99881625 1.0005654 1.000656 1.0001868
0000b0 07 ad 7f 3f 24 b6 7f 3f 1d c9 7f 3f ba 16 80 3f
       0.99873394 0.998873 0.9991625 1.0006936
0000c0 4f c3 7f 3f 39 b9 7f 3f 7a 1d 80 3f d4 b5 7f 3f
       0.9990739 0.99892 1.0008996 0.9988682
0000d0 ba a5 7f 3f a8 c4 7f 3f af de 7f 3f 5d 9e 7f 3f
       0.99862254 0.9990945 0.99949163 0.9985102
0000e0 d5 c3 7f 3f 7e fd 7f 3f 46 e6 7f 3f 94 b7 7f 3f
       0.9990819 0.99996173 0.99960744 0.99889493
0000f0 41 d2 7f 3f e2 aa 7f 3f 74 b7 7f 3f 13 f2 7f 3f
       0.99930197 0.9987012 0.998893 0.9997875

base.cnn.cnn.5.bias f4 [64]
000000 dc d5 7f ba 6d 5d 73 b7 3b 52 ee b9 c5 7d 87 ba
       -0.00097593456 -1.4505681e-05 -0.00045456164 -0.0010337165
000010 57 e2 ad ba 11 10 42 ba d0 f0 58 3a 56 66 a5 b9
       -0.0013266307 -0.0007402907 0.000827563 -0.000315475
000020 bc 11 19 38 e4 2f 97 3a 46 bf 35 3a d6 dc 16 ba
       3.649456e-05 0.0011534658 0.0006933104 -0.0005754953
000030 cd 6f 5d b9 28 c5 9a 3a 0d 3f 5c b9 ba b5 11 39
       -0.00021117851 0.0011808025 -0.00021004323 0.00013895976
000040 26 48 87 b9 e6 10 28 ba bc ad 4e b9 32 ab b5 3a
       -0.0002580296 -0.00064112095 -0.00019710412 0.0013860224
000050 61 71 24 ba e5 54 8d 38 14 2a 19 ba fb d2 fc 39
       -0.0006272998 6.739217e-05 -0.0005842757 0.00048222378
000060 0f de d1 39 73 26 ac 3a 69 32 95 b9 be c2 9c ba
       0.00040029033 0.0013134017 -0.00028457053 -0.0011959893
000070 0e 16 82 3a db ae 89 ba f2 c1 55 ba 20 0a f1 39
       0.0009924786 -0.0010504381 -0.0008154205 0.00045974646
000080 55 4b d4 b9 9c 46 23 3a 92 0c 1a ba c6 65 b1 b9
       -0.00040491918 0.0006228478 -0.0005876507 -0.00033835898
000090 d0 9e 41 ba b5 3b 93 3a d1 c7 72 39 15 9a fa b8
       -0.00073860306 0.0011233004 0.00023153356 -0.00011949629
0000a0 6a a2 d8 b9 a9 6f 99 3a c1 16 b0 3a a8 df 3b 3a
       -0.00041319738 0.0011706251 0.0013434516 0.0007166811
0000b0 25 83 fc b9 63 84 52 b9 28 74 14 3a 88 a9 88 3a
       -0.00048162896 -0.00020076479 0.00056630606 0.0010426501
0000c0 68 15 f9 39 84 32 18 39 fd 1b 94 3a e3 f7 3a ba
       0.0004750893 0.00014514668 0.0011299845 -0.0007132275
0000d0 e9 6f 31 b9 03 0a ea b9 37 02 8b b9 b9 22 aa ba
       -0.00016921725 -0.00044639417 -0.00026513796 -0.0012980319
0000e0 3c 82 78 b9 52 9f 09 3a a2 dc 99 3a 8b 70 06 ba
       -0.00023699639 0.0005249876 0.0011738727 -0.00051284645
0000f0 c6 97 61 3a ac e8 96 ba 3e 03 97 b9 d0 4c 53 3a
       0.0008605685 -0.0011513433 -0.0002880338 0.0008060457

base.cnn.cnn.7.weight f4 [64, 64]
000000 9c 5c 8c 3e 34 b8 a8 3b 4b 77 13 be 02 11 11 be
       0.27414405 0.005148912 -0.14400975 -0.14166644
000010 d1 cd 99 3e c7 05 5a 3d 47 77 62 be 1d 1c 88 3e
       0.30039838 0.053228166 -0.22115813 0.2658395
000020 26 74 c9 3c f0 e3 14 3e 52 49 76 3e d2 df 94 bd
       0.024591517 0.14540076 0.24051407 -0.07269253
000030 22 06 6b 3d d7 13 36 3e fd 2c ac 3d c9 38 15 be
       0.057378896 0.17781006 0.08407018 -0.14572443
000040 30 b9 88 be 12 6a 95 3e c8 56 36 be 82 a2 9a be
       -0.26703787 0.29182488 -0.17806542 -0.3020211
000050 b5 2d a1 3d 40 a1 30 be 0b 8e 0a bd 98 3a 87 bc
       0.07870046 -0.17249012 -0.03382687 -0.016507432
000060 01 30 87 3e 94 7e 10 3c 6e 2d 88 3e b1 d0 88 3d
       0.26403812 0.008819241 0.2659716 0.0668043
000070 7a 81 6f be 94 30 53 be 5e 2b 5c bd fd c8 76 be
       -0.23389235 -0.20624 -0.053752296 -0.24100108
000080 78 77 48 39 c7 6a c6 3d b3 f2 50 be 71 10 59 be
       0.00019117992 0.09688335 -0.20405082 -0.21197678
000090 41 96 86 bd cc 8b 7e 3e 0b ed 12 3e 51 e4 4b 3e
       -0.065716274 0.24858016 0.14348237 0.19911315
0000a0 e7 2f d8 3d f4 a4 15 be 86 b2 b0 bc b6 20 e3 bd
       0.10556012 -0.14613706 -0.021569502 -0.110902235
0000b0 71 88 3c 3e 38 f2 c7 bd 7e 0d 90 be 82 8b 1f be
       0.18411423 -0.097629964 -0.28135294 -0.15580562
0000c0 ea b8 ef bd 3b 4b b9 bd e3 bc a2 3d 83 b6 35 3e
       -0.117051914 -0.09047552 0.079461835 0.17745404
0000d0 39 6a 0a 3e e4 14 4e 3e 6f 15 c0 bc aa 3b 95 3e
       0.13517083 0.20125157 -0.02344772 0.29147083
0000e0 b6 1d 6d be 40 4b 21 3d 8f 1a 10 bd 0b 2b 2b be
       -0.23155865 0.039378405 -0.03518158 -0.16715638
0000f0 7e ac c9 3d 56 76 98 3e 93 b0 78 3e 5a d1 1a 3e
       0.098473534 0.29777783 0.24286108 0.15118924
000100 01 54 08 3e bb 33 89 3c d7 5e 4f 3d 03 dd e0 3d
       0.13313295 0.0167483 0.050627556 0.10979655
000110 6c 3c 8d 3d 67 bd 2a 3c 9e dd 0f be 9f db 80 be
       0.0689629 0.010421134 -0.14049384 -0.25167558
000120 85 9f cb 3d 31 6c 44 be 3b f3 f5 3d be 26 44 3d
       0.09942535 -0.19181897 0.12009283 0.04788851
000130 e6 df 85 3e 3b ed 1f 3e 4e 8d 91 3e 86 88 5d bd
       0.26147383 0.1561784 0.2842812 -0.054085277
000140 c5 cd 0c be 06 1b e1 3d 6f 6a 83 be a2 5d e2 3d
       -0.1375037 0.109914824 -0.2566714 0.11053015
000150 bf 61 62 be 79 5f 8b be 16 d4 30 be 00 4c 60 3e
       -0.221076 -0.27221277 -0.17268404 0.21903992
000160 1b 2a 0b 3e 1d 08 6f bd a3 aa 36 be 0c 4e 44 3d
       0.1359028 -0.058357347 -0.1783853 0.047925994
000170 8f 56 39 3e 0c 61 4e be 6f 09 bb bd 64 e7 3c 3e
       0.18099426 -0.20154208 -0.09132659 0.18447644
000180 e1 6a 79 be b7 ea 0c 3e a5 e2 5a 3d a9 4f 3e 3e
       -0.24357177 0.13761412 0.0534388 0.18585075
000190 21 59 4a 3d 15 d7 3d 3e be 7d 4c be 29 04 48 be
       0.049401406 0.18539079 -0.19969842 -0.19532837
0001a0 02 c3 ef 3c 56 9d 93 3e cb 94 3b bb ed 4c 62 be
       0.029267792 0.28830975 -0.0028622623 -0.22099657
0001b0 ec 02 1e be 81 6c 36 3c bb 8d 48 bd 58 73 82 be
       -0.15430802 0.011134268 -0.04896329 -0.25478625
0001c0 b5 9a 9f bd fb ce e5 3b 30 80 98 be aa 70 58 be
       -0.0779318 0.0070131994 -0.297853 -0.21136728
0001d0 23 f5 0d 3e eb 7b 8a 3e 5a d4 65 3e bc c1 7c 3e
       0.13863043 0.27047667 0.22444287 0.24683279
0001e0 bf af 6b 3e 47 96 e5 3b 98 28 56 be 03 24 4b bc
       0.2301626 0.00700644 -0.20913923 -0.012398723
0001f0 15 f1 88 be 28 95 2a bd 77 f8 3a be d2 e1 69 be
       -0.2674643 -0.041646153 -0.18258844 -0.2284005
000200 ec 96 c8 bc de a1 ab bd ed 95 3d 3c 40 26 38 bd
       -0.024486028 -0.08380483 0.01157139 -0.044958353
000210 37 ec 25 be 5a a1 42 be 5a 6d 2b 3e c5 1b 2b 3e
       -0.1620339 -0.19006863 0.16740933 0.16709812
000220 35 eb 57 be 91 a8 8c bc c4 5a fb 3d 18 d9 41 be
       -0.21085818 -0.017170222 0.122731715 -0.18930471
000230 c3 61 7b be 8d c8 26 3d 31 6d 95 be c8 e9 d5 bd
       -0.24549012 0.040718604 -0.2918487 -0.10444981
000240 e9 52 82 3e 32 26 5e be c2 c9 41 3e 6d 34 b1 bd
       0.2545388 -0.21694258 0.18924621 -0.086525775
000250 a6 1b ac bd 5f 06 65 3e 2d 2b 25 be 8a 1e 2e bc
       -0.08403711 0.22365712 -0.16129752 -0.010627398
000260 c3 65 f9 bd 61 50 0c 3e f8 55 11 be 3f 30 5c 3b
       -0.12177613 0.13702537 -0.1419295 0.0033598093
000270 69 c2 12 be ac 05 42 3d 98 2c 7c 3e 2b 36 8b 3e
       -0.14331974 0.04736869 0.24626386 0.27189764
000280 84 90 e3 3d 3e 2d 4a 3d 19 f3 92 3e c7 72 4b be
       0.111115485 0.049359553 0.28701094 -0.19868003
000290 5b 51 54 be 93 df 4c 3e c9 45 a1 bd 2e 0a 59 be
       -0.2073416 0.20007162 -0.078746386 -0.2119529
0002a0 60 cc 39 be 7d 60 8c be 08 63 48 3d 0a 26 6d 3e
       -0.18144369 -0.27417365 0.04892257 0.23159042
0002b0 11 36 88 be 7e b0 6e be ee 18 f3 3d dd 2f d5 3d
       -0.2660375 -0.23309514 0.11869989 0.1040952
0002c0 6d d8 43 3e 6b 3f 36 3e 31 18 9a 3c 77 90 8d be
       0.19125529 0.1779763 0.018810363 -0.2764928
0002d0 12 49 72 3e 69 d6 30 be ff f8 4d bc a9 06 33 be
       0.23660687 -0.17269291 -0.012571572 -0.1748301
0002e0 33 57 4b be c9 9d 53 be 20 8f bd 3c 4f 39 2b be
       -0.19857483 -0.20665659 0.023139536 -0.1672108
0002f0 eb e8 6b 3e cb 3f 69 be 99 09 2a be 5c 5b 17 be
       0.2303807 -0.22778241 -0.16605224 -0.14780945
000300 f8 3d 6b 3d cc 3f 9b bd 79 17 43 be e0 83 4c bd
       0.057432145 -0.07580528 -0.19051923 -0.049930453
000310 ce ab 85 be 7b b0 fd bd e0 97 f1 3d dc 04 b5 bd
       -0.2610764 -0.123871766 0.11796546 -0.088388175
000320 c0 42 90 be a7 ab 97 3e 84 59 8b 3d f4 62 2e be
       -0.28175926 0.29623148 0.06804183 -0.17029935
000330 03 90 f6 bd 9d 7e 0b be 83 3b 6f 3e 1b 8b 56 3e
       -0.12039187 -0.13622518 0.23362546 0.20951502
000340 74 73 4d be 42 5d 49 bd a6 7c 96 3e 11 46 88 3e
       -0.20063573 -0.049161203 0.29391974 0.26615956
000350 14 90 96 3e 2c c2 4d bc 59 1b f0 bd ef d0 27 3e
       0.29406798 -0.012558501 -0.11723966 0.16388296
000360 89 09 5d 3d ee 9d 94 3e 8e 03 c3 bc 34 9c 4d 3e
       0.05396417 0.2902674 -0.023805406 0.20079118
000370 a8 e0 9a 3e 33 0a 96 be d6 41 41 3e 31 d1 58 3e
       0.30249524 -0.29304656 0.1887277 0.2117355
000380 fc c6 19 bd ec 19 20 3d 67 fc 8d 3e 34 12 7a be
       -0.037543282 0.03908722 0.2773163 -0.24421006
000390 6f 96 c8 3c af 0b 01 be 11 e2 85 3d 4b de aa 3c
       0.024485795 -0.12602113 0.06537259 0.02085795
0003a0 0a 8b 34 3e 57 33 91 3d cd b1 0f 3e cd 4f 21 be
       0.17631164 0.070898704 0.1403267 -0.15753098
0003b0 6b 03 d3 3d 27 46 49 3e 92 df 3e 3e ee 02 6b 3d
       0.10303386 0.19655667 0.18639973 0.05737584
0003c0 8a eb 6e 3e 2f 4e 33 3e 78 f0 cf 3d e5 90 6a be
       0.23332039 0.17510293 0.10153288 -0.22906835
0003d0 c6 5e c1 bb 11 1a 1f be 51 7d 1b 3d e7 04 76 3e
       -0.0059011905 -0.15537287 0.037961308 0.24025308
0003e0 b6 17 81 3e a3 06 ef bd 4f 45 9a be 7a e3 83 be
       0.25213403 -0.11671188 -0.30131003 -0.25759488
0003f0 be e6 53 be fe 8f 9b bb 90 aa 76 bb df e9 9c 3c
       -0.2069349 -0.00474739 -0.0037638284 0.019154487

base.cnn.cnn.7.bias f4 [64]
000000 c8 2c a5 ba 99 4c 60 3a d6 26 92 ba cc 33 a1 3a
       -0.0012601847 0.0008556336 -0.001115049 0.0012298762
000010 e2 c7 a7 ba 56 ff a5 b9 f9 05 03 3a e8 00 7c 37
       -0.0012800659 -0.00031661493 0.00049981434 1.50205815e-05
000020 80 40 1d b9 fe b1 95 ba 1c 44 6e 38 06 85 99 b9
       -0.00014996715 -0.0011420844 5.6807054e-05 -0.00029281544
000030 96 d6 a6 b9 9b 03 60 ba 19 53 c3 3a c4 98 ca b9
       -0.00031821866 -0.0008545459 0.0014902084 -0.00038642262
000040 2c cb bb ba 7b ea c7 39 be 35 9a 3a 9d 79 59 b9
       -0.0014327518 0.0003813094 0.0011765284 -0.00020740037
000050 f9 9d 85 ba be c0 d3 b9 6d f3 bc 3a cd 13 82 3a
       -0.0010194174 -0.0004038866 0.0014415808 0.0009924114
000060 24 66 69 3a 69 26 49 39 af 2f f0 b9 c5 3a fc b9
       0.0008903465 0.00019183163 -0.00045811894 -0.00048108972
000070 52 15 91 ba cc 17 90 39 cc d5 83 3a 2b 58 d5 3a
       -0.0011068976 0.0002748355 0.0010058223 0.0016276886
000080 15 aa 74 b8 0d 14 82 3a 95 61 5f ba 59 49 1b 3a
       -5.8332535e-05 0.0009924188 -0.0008521316 0.00059237104
000090 fb 56 ac 3a 83 f4 b5 39 2f 6c ce 39 46 27 b2 ba
       0.0013148481 0.00034705186 0.00039371985 -0.0013592027
0000a0 c9 49 68 b7 16 96 20 3a 11 65 98 ba 1f 5c 89 3a
       -1.3845457e-05 0.000612588 -0.00116268 0.0010479725
0000b0 21 ea 36 ba e6 7e 19 3a d7 d0 22 3a c0 aa e3 b8
       -0.0006977637 0.0005855396 0.0006210929 -0.00010856008
0000c0 16 97 2b 39 69 e2 04 3a f8 d0 c5 ba e1 67 a1 38
       0.00016364115 0.0005069138 -0.0015092185 7.696427e-05
0000d0 77 4a 49 3a 4b 87 6a b9 c8 bf 66 ba 7e 81 0f 3a
       0.00076786376 -0.0002236638 -0.00088023813 0.0005474313
0000e0 3a b6 4c 3a ae 5d f0 38 cf 2a 95 ba 34 23 98 ba
       0.00078091363 0.00011461541 -0.0011380556 -0.0011607171
0000f0 49 3a 74 39 ea 1b 21 3a 92 76 a1 3a ae d3 69 3a
       0.00023291366 0.0006145822 0.0012318662 0.00089197874

base.cnn.cnn.8.weight f4 [64]
000000 82 99 7f 3f 4b ea 7f 3f 4e ab 7f 3f 5e 1e 80 3f
       0.9984361 0.9996688 0.99870765 1.0009267
000010 73 a3 7f 3f b3 bd 7f 3f d5 ce 7f 3f 08 b6 7f 3f
       0.9985878 0.99898833 0.99924976 0.9988713
000020 54 cc 7f 3f 74 c6 7f 3f f1 b8 7f 3f a8 cf 7f 3f
       0.99921155 0.9991219 0.99891573 0.99926233
000030 92 b7 7f 3f ce af 7f 3f 28 2c 80 3f 94 b0 7f 3f
       0.9988948 0.9987763 1.0013475 0.9987881
000040 53 a2 7f 3f c4 c5 7f 3f 2e ef 7f 3f 14 b9 7f 3f
       0.9985706 0.9991114 0.99974334 0.9989178
000050 9d ac 7f 3f 35 db 7f 3f 57 0a 80 3f ee 00 80 3f
       0.9987276 0.9994386 1.0003155 1.0000284
000060 ed f2 7f 3f 98 c5 7f 3f 65 ce 7f 3f da a9 7f 3f
       0.9998005 0.9991088 0.9992431 0.9986855
000070 22 a8 7f 3f 5c c2 7f 3f e3 cc 7f 3f c4 2b 80 3f
       0.99865925 0.99905944 0.9992201 1.0013356
000080 96 d8 7f 3f 12 16 80 3f dd b4 7f 3f 6b d8 7f 3f
       0.9993986 1.0006735 0.9988535 0.999396
000090 f3 0f 80 3f d2 b4 7f 3f 67 b9 7f 3f 8f 9c 7f 3f
       1.0004867 0.99885285 0.99892277 0.99848264
0000a0 78 b0 7f 3f 3f dd 7f 3f d9 b2 7f 3f f6 cf 7f 3f
       0.99878645 0.9994697 0.99882275 0.999267
0000b0 b7 a7 7f 3f ed c3 7f 3f 64 ec 7f 3f a5 bb 7f 3f
       0.9986529 0.99908334 0.9997008 0.998957
0000c0 21 b9 7f 3f 6c c1 7f 3f 6f 9f 7f 3f fd b5 7f 3f
       0.9989186 0.99904513 0.9985265 0.9988707
0000d0 fd cf 7f 3f 19 bf 7f 3f 0d ad 7f 3f a1 bc 7f 3f
       0.9992674 0.99900967 0.9987343 0.998972
0000e0 43 23 80 3f 5c ba 7f 3f 4d ab 7f 3f eb a8 7f 3f
       1.0010761 0.99893737 0.9987076 0.99867123
0000f0 68 b9 7f 3f c9 bb 7f 3f 0a cb 7f 3f 5e c1 7f 3f
       0.9989228 0.9989591 0.9991919 0.9990443

base.cnn.cnn.8.bias f4 [64]
000000 95 fd b0 ba 6b cf 3b 3a 89 8e 98 ba e3 a2 96 3a
       -0.0013503308 0.00071643916 -0.0011639158 0.0011492636
000010 8c bf ab ba fb 00 cd b9 81 d9 e4 39 8e 8d 04 b9
       -0.001310335 -0.00039101377 0.00043649602 -0.00012641234
000020 21 26 46 b9 3a c9 97 ba 4d c5 d8 b8 68 a8 cd b9
       -0.00018896956 -0.0011580356 -0.00010336433 -0.0003922612
000030 c4 27 d3 b9 fe e5 72 ba 88 7d be 3a 9b b0 10 ba
       -0.00040274684 -0.0009265839 0.0014533261 -0.00055194803
000040 72 47 c0 ba 0b af 4c 39 c2 f4 90 3a 67 02 c5 b9
       -0.001466973 0.00019520165 0.0011059272 -0.00037576558
000050 20 38 90 ba b3 b2 ee b9 48 9c b5 3a 12 b2 68 3a
       -0.0011003055 -0.0004552804 0.001385578 0.0008876632
000060 1e 08 40 3a 2d ff 00 b7 5f 2a ff b9 e7 8b 46 ba
       0.00073254283 -7.688807e-06 -0.0004866896 -0.00075739477
000070 4e 2d 99 ba 2c ca 26 39 1d 0b 5f 3a 07 89 cd 3a
       -0.0011686475 0.00015906309 0.0008508431 0.0015681096
000080 9f 62 d9 b8 23 15 69 3a d2 87 7d ba 7f 54 d1 39
       -0.00010365736 0.0008891394 -0.0009671423 0.0003992654
000090 6b 45 a1 3a d1 27 4a 38 28 88 32 36 1d 58 b2 ba
       0.0012304013 4.8197635e-05 2.660332e-06 -0.0013606582
0000a0 79 0f 8f b9 4b 11 cd 39 29 10 99 ba 20 24 73 3a
       -0.00027286613 0.0003911353 -0.001167779 0.00092750974
0000b0 14 5d 3c ba a9 9f 0d 3a 1c 15 d7 39 34 28 81 b9
       -0.00071855006 0.00054025144 0.00041023723 -0.0002463475
0000c0 a5 6c 1c b9 52 06 af 39 0b 98 c7 ba f1 1d b9 b8
       -0.00014917793 0.0003338331 -0.0015227807 -8.8270644e-05
0000d0 f8 58 16 3a 27 4f 0c ba ef 0a 81 ba 83 ba 31 39
       0.0005735303 -0.0005352371 -0.0009845177 0.00016949516
0000e0 d6 a6 0c 3a eb 8c 54 b9 38 05 a1 ba 92 96 9f ba
       0.00053654367 -0.00020270392 -0.001228488 -0.0012175611
0000f0 37 96 1a b9 62 26 69 39 c2 0f 95 3a 5d 86 2f 3a
       -0.00014742544 0.0002223491 0.0011372494 0.0006695742

rnn.rnn.weight_ih_l0 f4 [192, 64]
000000 fb 9d 0d 3e 88 ac f9 bd f9 f2 b5 bc 12 a6 13 be
       0.13829796 -0.12191111 -0.022210585 -0.1441882
000010 51 69 c4 bd f8 79 ed bd 31 9a 15 be e5 58 c9 bd
       -0.095904 -0.11595529 -0.146096 -0.098314084
000020 ec b6 bf bd 80 f0 f7 3d d4 4d ef 3d cd ee cf bd
       -0.093610615 0.121064186 0.116847664 -0.101529695
000030 c3 fe 10 be 17 77 03 be 0a 85 7b 3c 46 fe 16 be
       -0.14159684 -0.12838398 0.015351543 -0.14745435
000040 d2 23 0e 3e d3 35 c5 3b 6c 21 ed 3d 2d b4 06 3e
       0.13880852 0.0060183792 0.1157864 0.13154669
000050 8e fc 5a bd d6 cf ec 3b 40 06 13 3e fc 9f a4 bd
       -0.05346351 0.0072269244 0.14357853 -0.08038327
000060 3e ca c9 3c 8e e0 9b 3d 16 8f f2 bd da ef b6 bd
       0.02463257 0.0761119 -0.11843698 -0.08932467
000070 62 c0 32 bd a1 79 d2 3d 90 5f 9a 3c 0f bd 34 3c
       -0.0436405 0.10277105 0.018844396 0.011031403
000080 5a 7b 6a bd e1 b6 02 3d ae 5b 94 bc 40 77 c4 3b
       -0.057246543 0.03191269 -0.018110123 0.005995661
000090 a0 22 39 bd 84 c4 06 3e e9 54 ad bd a3 c5 ad 3b
       -0.045199037 0.13160902 -0.08463461 0.005303101
0000a0 ae a1 b0 3c b0 8d 0a 3c 9b fe a4 bc e6 3e 17 3d
       0.02156147 0.0084566325 -0.020140937 0.03692522
0000b0 47 e0 17 bc 8a b5 a0 3d ea f2 0b 3e ca ba b2 bc
       -0.0092697805 0.07847126 0.13666883 -0.021817584
0000c0 0f 29 a9 bd 38 b1 f1 3c 4b ab 14 3e f9 a0 a8 bd
       -0.082597844 0.02950345 0.14518468 -0.08233828
0000d0 90 1e 74 3d a3 ec f5 3d 75 34 7a bd 5e e9 d6 3d
       0.05959946 0.120080255 -0.061085183 0.1049373
0000e0 01 5f 1b be 8d 28 9e bd 6a 09 db bc 29 a5 31 bc
       -0.1517296 -0.07722578 -0.026737887 -0.0108426
0000f0 e0 7a fe 3d 2d 81 29 3d 01 86 5a 3d b8 20 9b 3d
       0.1242578 0.041382957 0.053350452 0.075746
000100 c4 f9 96 3d 0e de 92 3b b1 cb b2 bd 7a af 86 3d
       0.07371858 0.0044820374 -0.08730257 0.06576438
000110 19 54 17 3d 8f c8 ac 3c 9a 22 0f be dc d0 11 3e
       0.036945436 0.021091728 -0.13978043 0.1423983
000120 cd 6a f5 bd 27 fc ac bc 55 ef 1a 3d d7 a9 75 bd
       -0.11983261 -0.02111633 0.0378259 -0.059976425
000130 6e 0a 18 3d 71 c7 f0 bd 18 e2 57 3d 52 c9 89 bd
       0.03711932 -0.117567904 0.052705854 -0.06727852
000140 04 34 d1 3d 07 99 29 3d b0 2a 8d bd 4f 0e c5 bd
       0.10214999 0.041405704 -0.068929076 -0.0962187
000150 df a1 83 bd f8 36 c0 bc 8d 40 e0 bd 12 08 ce bd
       -0.06427359 -0.023463711 -0.10949812 -0.10060133
000160 78 ae 7c 3c 31 d1 5b 3d ec c5 93 bd c8 b5 c8 bd
       0.015422456 0.053666297 -0.07215485 -0.09800297
000170 41 bb b6 bb f9 05 77 3d ee b1 0c 3e 29 74 73 38
       -0.0055765216 0.06030843 0.1373975 5.8043897e-05
000180 9a 4d b9 3d f9 ba aa 3d d0 cf 90 3d 08 09 6f bd
       0.090480044 0.083364435 0.07070887 -0.058358222
000190 af df c5 3b e8 2f a6 bd b1 d2 aa bd e1 0b 3e 3c
       0.006038628 -0.08114606 -0.083409674 0.011599512
0001a0 65 b5 c0 bd 27 3a 0f be 29 1e 52 3c dc 17 a4 3d
       -0.09409598 -0.13987027 0.012824574 0.08012363
0001b0 04 62 0d be 02 88 e3 3c 55 9e 27 bd 17 2a 33 bc
       -0.13806921 0.027774815 -0.04092248 -0.010935328
0001c0 15 4b a0 bd c5 e0 a3 bd 5a 83 c6 bd 65 60 6f 3d
       -0.07826821 -0.08001856 -0.09693022 0.05844154
0001d0 d4 ed 98 3d bd fb b4 bc 1f c9 e4 3d 8b c6 9b 3c
       0.07467237 -0.022092694 0.11171173 0.019015571
0001e0 6a e3 07 be d1 c4 5c bd 44 f6 0b 3d 77 de 81 3d
       -0.13270345 -0.053898636 0.034170404 0.0634126
0001f0 fe fe 9d bd 8b 57 ae bc 3b 30 67 bd 8a fe 33 3d
       -0.077146515 -0.021281978 -0.05644248 0.04394392
000200 a9 d0 f7 3d b5 8a e3 3d 9d dd 29 3d 6d 1c ac 3d
       0.12100346 0.11110441 0.041471113 0.08403859
000210 d1 5c 7f bd ed 6b b6 3c 3a 77 91 3d ad b3 31 bd
       -0.062344376 0.02226826 0.07102819 -0.043384243
000220 9d 1f c2 3d ff 4e b9 3d e7 68 a4 bd 93 9d 94 bd
       0.09478686 0.090482704 -0.08027821 -0.072566174
000230 71 db cd bd bd 18 bb bd 73 20 18 be 2f 78 e8 bd
       -0.10051621 -0.09135578 -0.14856128 -0.11351048
000240 0e b2 fa 3c 92 4d 8f bb 0e 04 18 be d8 d8 fd 3d
       0.030602481 -0.004373261 -0.14845297 0.12394875
000250 c9 c2 8a bc da 62 17 be 80 8f 8a 3b 6c c6 3d ba
       -0.016938584 -0.14783803 0.0042285323 -0.0007239345
000260 ea b0 52 bd 8c 81 05 be f1 38 7e bc 14 b2 11 3e
       -0.05143825 -0.130377 -0.015516506 0.14228088
000270 7b 9b ec 3c 86 74 88 bd 75 52 d4 3d 9d 8a d3 3c
       0.028882733 -0.0666285 0.1036729 0.025822932
000280 40 b8 65 bd c4 db 87 3d 01 11 f5 3d 01 f3 b5 3d
       -0.056083918 0.06633714 0.11966134 0.0888424
000290 de 5e 83 3d ba d5 7e bb eb 7a 13 3e 9b 74 b1 bd
       0.06414579 -0.0038884715 0.14402358 -0.08664819
0002a0 66 32 35 bd 13 65 d8 bd cd 82 9f bd 3e 0c 59 3d
       -0.044237517 -0.105661534 -0.0778862 0.05299019
0002b0 91 e3 cb bd 8b bc e8 3d 20 be ec bd b7 65 a2 bd
       -0.09955514 0.11364087 -0.11559701 -0.07929557
0002c0 d0 52 57 3d 9a e9 01 3e 12 35 a2 3d 24 ef bc bc
       0.05256921 0.12686768 0.079202786 -0.02306325
0002d0 f4 e6 0e 3e 36 80 81 3d 47 d9 0d be c7 8f 7c bd
       0.13955289 0.063232824 -0.13852416 -0.061660554
0002e0 f8 b0 2d 3d 94 4b 7b bd 0e e9 8e 3d be ed 9d 3d
       0.0424051 -0.061351374 0.069780454 0.07711361
0002f0 46 b5 94 3d 25 a8 ee bc f3 09 5f bd 2e 76 ad 3d
       0.07261138 -0.029132912 -0.054452848 0.084698066
000300 ca 20 a7 3d bb a8 04 3e d2 99 f3 3d 2b ea a3 3d
       0.08160551 0.1295499 0.11894573 0.08003648
000310 fb ef 0a be a4 ec 09 be 5a d5 d2 bd b3 02 bc bc
       -0.13568108 -0.13469177 -0.102946 -0.022950506
000320 ce c5 a1 bd 81 35 c5 bd 36 92 72 bd 3a 1c 5b 3d
       -0.078990564 -0.09629346 -0.05922147 0.053493716
000330 c4 6d f2 bd 4e 17 d0 bd 45 81 db 3d eb 2d ff bd
       -0.118373424 -0.10160695 0.107180156 -0.1245993
000340 e8 46 ac bd 1f 68 f8 bc ce b4 ad 3d c4 43 47 bc
       -0.08411962 -0.030323086 0.084817514 -0.012162153
000350 7a c3 d0 bd 96 fb d0 3d 96 16 b0 3d 42 f3 11 bd
       -0.10193534 0.10204236 0.08598058 -0.03563238
000360 7c 56 28 3c 0d f1 84 3d 84 37 c4 3d 9d 8d f7 bd
       0.010274526 0.06491289 0.09580901 -0.120875575
000370 50 e2 92 3d b0 49 19 be 69 c7 87 bc 64 d8 82 3d
       0.07172072 -0.14969516 -0.016574578 0.063889295
000380 9f 5c a1 bd 54 3b 48 3d ef 22 19 3c 73 8d 18 3e
       -0.07878994 0.048884705 0.009346708 0.14897709
000390 fd be 03 3e da d5 41 3d 98 5d c9 3d f8 9a 04 be
       0.12865825 0.047323085 0.09832305 -0.12949741
0003a0 8b 4c 81 bd 26 c1 f8 3d f7 1a 0c bd 8f 93 11 be
       -0.063134275 0.12146215 -0.034205403 -0.14216445
0003b0 f9 8b fa 3d dd 43 c7 3c 28 48 0b be 5e c9 d4 bc
       0.12233729 0.024324352 -0.13601744 -0.025974926
0003c0 2b 80 c5 bd 2b 37 41 3d ca b6 b5 3d c8 0f 06 bd
       -0.09643587 0.047171753 0.08872755 -0.032729894
0003d0 f1 f3 b1 bd 5f 74 4e bc f0 f7 82 bc fe 3e a1 3d
       -0.08689106 -0.012600987 -0.015987366 0.07873343
0003e0 17 e9 4f 3d 36 1a fc 3c 73 6b 18 3c 50 ae 15 be
       0.0507594 0.030774217 0.009302962 -0.14617276
0003f0 9e ad 12 bc af 1b 02 3e b1 12 89 3c 54 fe 0f 3e
       -0.008952526 0.12705873 0.016732546 0.14061862
