MARL/MAPPO-ATTENTIOAN/onpolicy/scripts/results/Meltingpot/collaborative_cooking__circuit_0/territory__rooms/mappo/setting_3/run100/models/actor_agent4.pt (torch, 796137 bytes, 22 tensors)

base.cnn.cnn.0.weight f4 [32, 3, 3, 3]
0	0xbe1b92f8	-0.15192783
1	0x3dfa912a	0.12234719
2	0x3e30f5bc	0.1728124
3	0x3d56eff1	0.05247492
4	0x3e36e54a	0.17860904
5	0x3cc8c83a	0.024509538
6	0xbc0f9352	-0.008763151
7	0xbe08b63e	-0.1335077
8	0xbe0d0905	-0.13772972
9	0xbd08c65f	-0.033392306
10	0x3dd48537	0.10376971
11	0xbd6ec097	-0.058289137
12	0x3d8f8b7d	0.07009027
13	0x3dfd0493	0.12354388
14	0x3e065c4b	0.13121144
15	0xbdcf94f9	-0.10135836
16	0x3e45d3f3	0.19319133
17	0x3e43225b	0.19056074
18	0xbe2886b8	-0.16457641
19	0x3e0e1b51	0.13877608
20	0xbca60a7c	-0.020268671
21	0x3bbd18cc	0.0057707783
22	0x3db7f3eb	0.089820705
23	0x3d1189e6	0.0355319
24	0xbceca500	-0.028887272
25	0x3d6a0365	0.057132144
26	0xbe429e09	-0.19005598
27	0x3e3bfb9a	0.18357697
28	0x3e3f14e7	0.18660317
29	0xbe2b2ef0	-0.16717124
30	0x3dda600d	0.106628515
31	0x3e1b9acd	0.1519577
32	0x3e16eca3	0.14738707
33	0x3df54fed	0.11978135
34	0x3cd78d6a	0.026312549
35	0xbe0a90d1	-0.13531806
36	0x3d4cc14e	0.049989037
37	0xbdb5ffab	-0.088866554
38	0xbe130e4d	-0.14360924
39	0x3c8657cd	0.016399289
40	0xbcf5dbf8	-0.030012116
41	0x3d7ab50a	0.06120781
42	0xbe287281	-0.1644993
43	0x3da0b411	0.07846845
44	0x3d6e141a	0.05812464
45	0x3c4213c5	0.011845534
46	0xbce38a5e	-0.02777594
47	0x3c25f9eb	0.010130386
48	0xbd3c1d8c	-0.045926616
49	0x3dfee1c5	0.12445406
50	0xbd064ca0	-0.03278792
51	0xbd08433e	-0.033267252
52	0x3e2afcbb	0.16697972
53	0x3d924ebf	0.07143926
54	0xbe2099a3	-0.15683608
55	0x3d7b7789	0.061393294
56	0x3db4e937	0.08833545
57	0xbc254d99	-0.0100893015
58	0x3e1f92b8	0.15583313
59	0xbd969f50	-0.07354605
60	0x3deb5847	0.11491447
61	0xbe167265	-0.14692076
62	0x3d7c4db0	0.061597526
63	0xbd671189	-0.056413207
64	0x3de879ca	0.113513544
65	0x3d94f984	0.07274154
66	0x3d1ee646	0.038793825
67	0xbdfbee87	-0.12301355
68	0xbe400476	-0.18751702
69	0x3e1dca45	0.15409191
70	0x3de86396	0.113471195
71	0xbe3fe6b8	-0.18740356
72	0xbe03d97e	-0.12875935
73	0xbda1e878	-0.07905668
74	0xbe0da1d7	-0.13831268
75	0xbde0012e	-0.10937725
76	0xbe3e830c	-0.18604678
77	0xbe398ba7	-0.1811968
78	0x3c9a6a68	0.018849567
79	0xbd63138a	-0.055438556
80	0x3d798b55	0.060923893
81	0xbe173a84	-0.14768416
82	0xbdf16519	-0.11786861
83	0x3e3fc054	0.18725711
84	0xbd3243b5	-0.0435216
85	0xbdf4c328	-0.119512856
86	0x3d827b8f	0.06371223
87	0x3dc09a7d	0.09404466
88	0x3e31b42b	0.17353885
89	0x3dcf3304	0.10117152
90	0xbcf8c41d	-0.030366952
91	0x3dcc81b3	0.09985676
92	0xbe39ad36	-0.18132481
93	0xbde534fe	-0.11191748
94	0x3da54c9a	0.08071251
95	0xbe2b81c6	-0.16748723
96	0x3c9582af	0.018250791
97	0xbe0d306e	-0.13788006
98	0x3d17f35a	0.037097313
99	0xbc0df459	-0.008664214
100	0xbd4abafe	-0.049494736
101	0x3da26c69	0.07930834
102	0x3e289d10	0.16466165
103	0x3d8a4e21	0.06753183
104	0xbc1b38be	-0.009473978
105	0x3e0db4f4	0.1383856
106	0x3e07e06c	0.13269204
107	0xbae65964	-0.0017574248
108	0x3e230c1d	0.1592259
109	0x3e2c4771	0.16824128
110	0xbddea3d8	-0.108710945
111	0x3e28c703	0.16482167
112	0xbde0524f	-0.10953199
113	0x3dac4e2a	0.08413346
114	0x3e378ceb	0.1792485
115	0x3e2b9942	0.16757682
116	0xbcf4dd84	-0.029890783
117	0xbd99e1ac	-0.075137466
118	0xbe3db4be	-0.18525979
119	0x3e15d63f	0.1463251
120	0xbe045f5e	-0.12927005
121	0xbd82cf74	-0.06387225
122	0xbe497548	-0.19673645
123	0x3dc450bf	0.095857136
124	0xbe3932df	-0.18085812
125	0xbe096baf	-0.13419984
126	0x3cb0033c	0.021485917
127	0x3d2792d9	0.04091153
128	0x3e1ee8b5	0.15518458
129	0xbe16bc7b	-0.14720337
130	0xbd784161	-0.060609225
131	0xbdc8b36c	-0.09799847
132	0xbd7db729	-0.061942253
133	0x3df4cb44	0.11952832
134	0x3e2522e1	0.16126586
135	0x3d54dc5d	0.051967967
136	0xbdb1d0d3	-0.08682408
137	0xbe01eabe	-0.12687203
138	0x3e3d68f1	0.18497063
139	0x3e3cbfe5	0.18432577
140	0x3afad4aa	0.0019136865
141	0xbd37112b	-0.044694107
142	0x3e08ec8a	0.13371482
143	0xbe369b0a	-0.1783258
144	0x3e07c6ad	0.13259383
145	0xbd1abec0	-0.03777957
146	0xbd8d2670	-0.06892097
147	0x3d7ec7a7	0.062202122
148	0x3e23fa48	0.16013443
149	0xbdc504c6	-0.09620051
150	0x3de704d3	0.11280217
151	0x3e2e69f2	0.17032602
152	0x3dc139f6	0.09434883
153	0xbdabf422	-0.08396174
154	0xbe28ab46	-0.16471586
155	0xbd5419c1	-0.051782373
156	0x3d68237e	0.056674473
157	0x3df1d547	0.118082576
158	0x3cec6b1d	0.02885967
159	0xbc35e44a	-0.011101792
160	0xbc348d22	-0.011019977
161	0x3d6520bc	0.05593942
162	0xbddd0729	-0.10792381
163	0xbdab1334	-0.08353272
164	0xbe085b96	-0.13316187
165	0xbe1e9df5	-0.15489943
166	0x3d386d2f	0.045026
167	0xbd28678f	-0.041114386
168	0x3e325ffb	0.17419426
169	0xbe266e79	-0.1625308
170	0x3e2e0f84	0.16998106
171	0xbe0b2584	-0.1358853
172	0xbda98c95	-0.08278767
173	0x3d76e28c	0.060274646
174	0x3e1c28c9	0.15249933
175	0x3dd443c6	0.10364489
176	0xbe10179c	-0.14071506
177	0x3d545525	0.051839013
178	0x3e242ac0	0.16031933
179	0x3d9e827e	0.07739733
180	0xbe2407f7	-0.16018663
181	0x3d8143a1	0.06311727
182	0x3d190273	0.03735585
183	0x3d1a7742	0.03771139
184	0x3d14c9d4	0.03632529
185	0xbe0d345e	-0.13789508
186	0xbe17e59e	-0.14833686
187	0xbd3b15d4	-0.045675114
188	0xbe33c77f	-0.1755657
189	0x3decde6e	0.115658626
190	0xbe25443c	-0.1613931
191	0x3de3a989	0.11116321
192	0x3b9b4d20	0.0047394186
193	0xbe3c5ef7	-0.18395601
194	0x3cc9f688	0.024653688
195	0x3e053d68	0.13011706
196	0xbcdc2804	-0.02687455
197	0xbe231f19	-0.15929832
198	0x3e391df4	0.18077832
199	0xbdc580a8	-0.0964368
200	0x3dea86c3	0.11451485
201	0x3e3b00cb	0.18262021
202	0x3de7c670	0.11317146
203	0xbd088c9f	-0.03333723
204	0xbe235fc4	-0.159545
205	0x3e056545	0.13026913
206	0x3d85cdca	0.06533392
207	0x3e054dfb	0.13018028
208	0x3ad06f9e	0.0015902405
209	0x3dc2b17b	0.09506508
210	0xbcf00590	-0.029299527
211	0xbde25a1b	-0.110523425
212	0x3da723da	0.08161135
213	0x3e0d60d1	0.13806464
214	0xbcb0785c	-0.021541767
215	0x3e076026	0.13220271
216	0x3e18dca3	0.14927916
217	0xbe08a817	-0.13345371
218	0xbd8b57c0	-0.06803846
219	0x3c019f74	0.007911552
220	0x3db634a3	0.088967584
221	0x3e38d62e	0.18050453
222	0x3dfdd129	0.1239341
223	0xbdfc6351	-0.123236306
224	0x3c78b529	0.015179911
225	0x3de19ca6	0.110162064
226	0xbdcc12b5	-0.099645056
227	0xbe2d5067	-0.16925202
228	0x3e417159	0.18890895
229	0xbe3d0f28	-0.18462813
230	0x3d69e6a9	0.05710474
231	0xbe326d7b	-0.17424576
232	0xbc961084	-0.018318422
233	0xbe0bd845	-0.13656719
234	0x3ca651b6	0.020302635
235	0x3d4b89d0	0.049691975
236	0xbe33e650	-0.17568326
237	0x3e26c8db	0.16287558
238	0xbe03d4ec	-0.12874192
239	0xbe3c53da	-0.18391362
240	0xbd8c7c2d	-0.06859622
241	0x3c1c1514	0.00952651
242	0x3d1dd54b	0.03853349
243	0xbbde45c1	-0.0067832177
244	0x3e13d5dc	0.1443705
245	0x3dc73a94	0.0972797
246	0xbd919b9f	-0.071097605
247	0xbda3ab7c	-0.079916924
248	0xbd06ec35	-0.03294011
249	0x3e134ea7	0.14385472
250	0x3c8d77b1	0.017268987
251	0x3dc2c659	0.09510488
252	0xbe16efd0	-0.14739919
253	0xbe3c8c36	-0.18412861
254	0x3e425d81	0.18980981
255	0x3d175bd6	0.036952816

base.cnn.cnn.0.bias f4 [32]
0	0xb19fc53d	-4.6499324e-09
1	0x31c13773	5.623343e-09
2	0x33bcddad	8.794755e-08
3	0xb2bfb7e0	-2.2318943e-08
4	0xb2632608	-1.3221786e-08
5	0xb12118df	-2.344272e-09
6	0x33682ef1	5.4059402e-08
7	0x2fee769a	4.337622e-10
8	0x335538a8	4.9644456e-08
9	0x310d320b	2.0546647e-09
10	0xb22a9109	-9.9282795e-09
11	0xb42af1b3	-1.5920413e-07
12	0xb240a89f	-1.1214211e-08
13	0xb3cc2d95	-9.5077816e-08
14	0xb1dbc2af	-6.395872e-09
15	0xb2a8fcbf	-1.967271e-08
16	0xb1ecab0e	-6.8879507e-09
17	0x339255f6	6.814291e-08
18	0x322e7b68	1.0156192e-08
19	0x328e5210	1.6568293e-08
20	0xb22ed0c4	-1.0175601e-08
21	0x32c8fca2	2.3397948e-08
22	0xb28063f0	-1.4946608e-08
23	0xb320ee12	-3.7469427e-08
24	0x32431360	1.1354899e-08
25	0x324a3cbd	1.1771758e-08
26	0xb4aaf8c0	-3.1845957e-07
27	0xb3b38054	-8.35868e-08
28	0x3383d145	6.138229e-08
29	0x312e1c99	2.5336588e-09
30	0xb34de5bb	-4.793922e-08
31	0xb2e3f42d	-2.6537316e-08

base.cnn.cnn.1.weight f4 [32]
0	0x3f7fce40	0.9992409
1	0x3f7f424a	0.99710524
2	0x3f7ffc2d	0.99994165
3	0x3f7ff65f	0.9998531
4	0x3f7f1453	0.9964039
5	0x3f7fb945	0.99892074
6	0x3f7eecf4	0.9958031
7	0x3f7eb980	0.995018
8	0x3f7f15f4	0.9964287
9	0x3f802ae8	1.0013094
10	0x3f7f5dfc	0.99752784
11	0x3f7f44ec	0.9971454
12	0x3f7f2836	0.9967073
13	0x3f7f7d6c	0.99800754
14	0x3f7f2e3e	0.99679935
15	0x3f7fde2a	0.9994837
16	0x3f7f9ddb	0.99850243
17	0x3f7f6273	0.99759597
18	0x3f801e42	1.0009234
19	0x3f7fa656	0.99863183
20	0x3f7f7b6f	0.9979772
21	0x3f7f6507	0.9976353
22	0x3f7ee0b0	0.99561596
23	0x3f7f13ee	0.99639785
24	0x3f802b60	1.0013237
25	0x3f7f5ca8	0.9975076
26	0x3f7ea5a9	0.9947153
27	0x3f7f8eae	0.99827087
28	0x3f7f054a	0.99617445
29	0x3f7fe639	0.99960667
30	0x3f7f63fe	0.9976195
31	0x3f7f8696	0.99814737

base.cnn.cnn.1.bias f4 [32]
0	0x3b1c796d	0.0023876086
1	0x3a2a4999	0.0006495952
2	0x3a0ab4e8	0.00052912394
3	0x3b19995d	0.002343736
4	0xbb45e98d	-0.0030199022
5	0x3a66da24	0.0008806309
6	0xbaf93c2c	-0.0019015125
7	0xbaebf22f	-0.0018001253
8	0xbaa78084	-0.001277939
9	0x3b1e3065	0.0024137732
10	0x3b379bb1	0.0028016383
11	0xbabb2b4a	-0.0014279869
12	0xbb086635	-0.0020812873
13	0x3af886fc	0.0018961127
14	0xbb0aa362	-0.0021154513
15	0x3ac9ab28	0.0015386092
16	0x39e04bdc	0.0004278113
17	0xbabde031	-0.001448637
18	0x3b66be49	0.0035208634
19	0x3b0c077a	0.002136676
20	0x3acf16b5	0.0015799614
21	0x387f44dc	6.0860868e-05
22	0xbb2c8877	-0.0026326457
23	0xba3f4748	-0.00072966935
24	0x3b128ee9	0.0022363013
25	0xba186058	-0.0005812696
26	0xbb81aa35	-0.003957058
27	0x3aaf3b88	0.0013369182
28	0xba852fbf	-0.0010161324
29	0x3a7c7e40	0.000963185
30	0xba7a1aad	-0.0009540718
31	0x3a94a1f9	0.0011339776

base.cnn.cnn.1.running_mean f4 [32]
0	0x3dc20a55	0.09474627
1	0x3de4b5bd	0.11167476
2	0xbdc47187	-0.09591966
3	0x3d3d105f	0.04615819
4	0x3ce3ddcd	0.027815724
5	0x3dabe3b9	0.08393044
6	0xbda24704	-0.079237014
7	0x3dc66a02	0.09688188
8	0xbd5cb909	-0.0538874
9	0x3d815b6f	0.06316268
10	0xbdf34a19	-0.118793674
11	0xbd977bb2	-0.0739664
12	0x3db3f83e	0.08787583
13	0xbd553541	-0.05205274
14	0xbdc6ad61	-0.09701038
15	0x3dbacc16	0.091209576
16	0x3e019f80	0.126585
17	0xbd45e70e	-0.048316054
18	0x3e1895e6	0.14900932
19	0x3d11b46a	0.035572447
20	0xbda818b9	-0.082078405
21	0x3dfcae30	0.12337911
22	0x3d849b17	0.064748935
23	0xbd2c84cb	-0.04211883
24	0x3d47844c	0.048710153
25	0xbd9d2f25	-0.07675008
26	0xbc26a355	-0.010170777
27	0xbd5a7583	-0.053334724
28	0xbda15caa	-0.078790024
29	0x3deb992f	0.11503827
30	0x3dd2f3c8	0.10300404
31	0x3d21dbc8	0.03951624

base.cnn.cnn.1.running_var f4 [32]
0	0x3c16bb40	0.009199917
1	0x3bfce11e	0.0077172657
2	0x3bfb8b12	0.0076764906
3	0x3b8a2ae1	0.0042165373
4	0x3b8d4de0	0.004312262
5	0x3c2dd52b	0.010609905
6	0x3bbed19e	0.005823328
7	0x3bb0b92a	0.005393167
8	0x3becfb21	0.0072320853
9	0x3b9b5fd5	0.0047416487
10	0x3c075fc4	0.008262578
11	0x3b553f23	0.0032538853
12	0x3bd869c8	0.006604407
13	0x3badaf8e	0.0053004688
14	0x3ba69d57	0.0050846743
15	0x3bd0e350	0.006374754
16	0x3bef28a7	0.0072985473
17	0x3bb16ea1	0.0054147993
18	0x3c0b0e72	0.008487331
19	0x3bc51a4a	0.006015097
20	0x3c32e849	0.010919639
21	0x3bdefc9d	0.006805016
22	0x3c3db796	0.011579415
23	0x3ba0b05d	0.0049038366
24	0x3c02c777	0.007982126
25	0x3bca6d1d	0.006177558
26	0x3ba78c97	0.005113195
27	0x3b9433af	0.0045227627
28	0x3baac850	0.0052118674
29	0x3bcd7258	0.0062697344
30	0x3bf1a7fd	0.007374762
31	0x3be9a157	0.007129829

base.cnn.cnn.4.weight f4 [64, 2592]
0	0x3a936d33	0.0011247754
1	0x3d224f1d	0.03962623
2	0x3cdf7d91	0.027281554
3	0xbd74e2ce	-0.05978661
4	0x3b889f99	0.004169416
5	0x3c86013e	0.016358014
6	0x3ccbbbe9	0.024869876
7	0xbd4f4c60	-0.050609946
8	0x3d707f5a	0.058715202
9	0x3d128106	0.035767578
10	0xbc47be84	-0.012191419
11	0xbc2482c7	-0.010040945
12	0xbd4fba4d	-0.05071478
13	0xbd2d9f79	-0.042388413
14	0x3d1cfdb3	0.038327884
15	0xbd55825f	-0.052126285
16	0xbd19fe9c	-0.03759633
17	0xbcbfd555	-0.023417154
18	0x3d7a47ae	0.061103515
19	0xbc890cb2	-0.016729686
20	0x3d3fa211	0.046785418
21	0xbc1294ba	-0.008946592
22	0xbd103334	-0.03520508
23	0xbd1a6053	-0.03768952
24	0xbd76a8a7	-0.060219433
25	0xbd551c7c	-0.052029118
26	0x3d2ecf68	0.042678267
27	0x3c1733c8	0.009228654
28	0xbcc1a4f4	-0.023638226
29	0x3cbaefce	0.022819426
30	0xbd4d7a5a	-0.05016551
31	0x3d03a5f5	0.03214069
32	0xbc5b30f5	-0.0133783715
33	0x3d50c068	0.050964743
34	0xbc8f0cdf	-0.017462192
35	0x3ca83f1c	0.020537905
36	0xbd6e2cbd	-0.058148134
37	0x3d0308e4	0.0319909
38	0x3d6fdd8c	0.058560893
39	0xbd82b16f	-0.06381499
40	0x3d57df3f	0.05270314
41	0xbcbd063d	-0.023074264
42	0xbd421fef	-0.047393735
43	0xbd289ee5	-0.04116716
44	0xbcfa0a7a	-0.030522574
45	0xbd6896e2	-0.056784518
46	0x3c9343a6	0.017976593
47	0x3d76a3ba	0.060214736
48	0x3c142cfc	0.009043928
49	0xbbc29433	-0.005938077
50	0xbc46f2b5	-0.012142827
51	0xbd27c2c4	-0.040957227
52	0x3d88b96a	0.0667599
53	0xbd1571e4	-0.036485568
54	0xbd623bd8	-0.055232853
55	0x3d00973f	0.03139424
56	0x3c86e1f7	0.01646517
57	0xbc9fac99	-0.01949148
58	0x3c940679	0.018069493
59	0x3c70c0bc	0.014694389
60	0xbd0c53c0	-0.034259558
61	0x3c31499e	0.010820774
62	0x3b00c36c	0.001964773
63	0x3c8cfdb9	0.017210828
64	0x3d6f021b	0.058351617
65	0x3d2a4684	0.041571155
66	0xbd38923f	-0.045061346
67	0xbc24a3b7	-0.010048798
68	0x3d4bc3ae	0.04974716
69	0xbcd759ee	-0.026287999
70	0xbd5b80f6	-0.053589784
71	0x3baab9d5	0.005210141
72	0x3d2917ee	0.041282587
73	0xbd5f60d4	-0.054535702
74	0x3d1fbe33	0.038999747
75	0xbd53ada8	-0.051679283
76	0x3d2dd50d	0.04243951
77	0xbd042eae	-0.03227108
78	0xbc9b4129	-0.01895197
79	0x3d235a4b	0.039881032
80	0xbd4dbdbc	-0.050229773
81	0xbc6b3a69	-0.014357188
82	0x3b280cce	0.0025642398
83	0x3d4c3795	0.049857695
84	0x3d5191ca	0.051164426
85	0x3c25c46e	0.010117633
86	0x3cf0aa28	0.029378012
87	0x3c8688a1	0.016422572
88	0xbcf09461	-0.029367628
89	0xbd604287	-0.054750945
90	0x3b4b5c3f	0.0031030325
91	0x3d530af3	0.051524114
92	0xbd4f2601	-0.050573353
93	0xbc804003	-0.015655523
94	0xbbdf083b	-0.006806401
95	0xbd4edd0d	-0.05050378
96	0x3d390c41	0.0451777
97	0xbbb6a2c5	-0.005573603
98	0x3cc895e2	0.024485532
99	0x3d28eeb5	0.041243274
100	0xbd04b447	-0.03239849
101	0xbb4cb41d	-0.0031235286
102	0xbc6e7355	-0.0145538645
103	0xbcd544c7	-0.026033772
104	0x3d578e87	0.05262616
105	0x3c7e2f13	0.015514153
106	0x3c324f08	0.0108831
107	0xbcc0d640	-0.023539662
108	0x3a7b658d	0.00095900224
109	0x3bcec315	0.0063098767
110	0xbd5b5365	-0.053546328
111	0xbd38025d	-0.04492413
112	0x3b4d1158	0.0031290855
113	0xbcdf7dec	-0.027281724
114	0x3d836b0b	0.06416901
115	0x3ce48017	0.02789311
116	0xbbc4d508	-0.0060068406
117	0x3d6c4b10	0.057688773
118	0x3bbbbb4b	0.005729114
119	0x3d45e349	0.04831246
120	0xbd81abdb	-0.06331607
121	0xbb3e5036	-0.0029039509
122	0xbc6ecc67	-0.0145751005
123	0xbd390f5a	-0.045180656
124	0x3cf703c5	0.030153165
125	0x3c9f8318	0.01947169
126	0x3cb9dca8	0.022688225
127	0x3d7cbed9	0.061705444
128	0xbd67e34f	-0.056613263
129	0x3d80385f	0.06260752
130	0x3cf44873	0.029819703
131	0x3c66ad91	0.014079467
132	0xba9b820d	-0.001186432
133	0x3d75f527	0.06004825
134	0x3cbe0b3a	0.023198713
135	0x3cbcea41	0.02306092
136	0xbd862f33	-0.06551971
137	0xbd76444b	-0.060123723
138	0x3cd5fb3e	0.026120778
139	0xbd4114c0	-0.04713893
140	0x3c7fdc92	0.015616553
141	0x3d735360	0.059405684
142	0xbc82ef65	-0.015983293
143	0xbd06b8a5	-0.032890934
144	0x3d4bea6c	0.04978411
145	0xbd4fdaae	-0.05074566
146	0x3bcf9c2a	0.006335755
147	0xbbb325af	-0.0054671387
148	0xbc9b7d31	-0.018980594
149	0x3d79010f	0.060792025
150	0x3d22f2bf	0.039782282
151	0x3ce6008a	0.028076429
152	0x3d1fa67b	0.038977128
153	0xbc8c201a	-0.017105151
154	0x3be70491	0.007050105
155	0x3d83a039	0.064270444
156	0x3d44f9e7	0.048089888
157	0xbc069970	-0.008215293
158	0x3c42031e	0.0118415635
159	0x3c764077	0.015030018
160	0x3ba742d7	0.0051044035
161	0x3ca205a9	0.01977809
162	0xbca70018	-0.020385787
163	0xbc9bac29	-0.01900299
164	0x3b9180e8	0.0044404157
165	0x3ccefafa	0.02526616
166	0xbcb3414b	-0.02188172
167	0xbd5d4f88	-0.054030925
168	0x3d414706	0.047186874
169	0x3d2510a7	0.040299084
170	0x3c5fac27	0.013651884
171	0xbcb37f3b	-0.021911254
172	0xbb9a3442	-0.0047059366
173	0xbc420ab9	-0.011843377
174	0x3d3730ec	0.04472439
175	0x3d5a5c8b	0.053310912
176	0x3d82e092	0.0639049
177	0xbd67c9dc	-0.056588992
178	0xbd7b7f01	-0.061400417
179	0x3d26cc13	0.040721964
180	0x3b2f6076	0.0026760376
181	0xbc25542a	-0.010090867
182	0xbd28dc67	-0.041225817
183	0xbd5bc232	-0.053651996
184	0xbd8aeac7	-0.067830615
185	0xbc409549	-0.011754342
186	0x3c1f429d	0.009720472
187	0x3d44fc5d	0.048092235
188	0x3d4fc9c4	0.050729528
189	0xbd5d9ca6	-0.05410447
190	0x3af75a89	0.0018871586
191	0x3ce89166	0.028389644
192	0xbc264a68	-0.010149576
193	0x3d7c03d4	0.06152709
194	0xbd7f7ea3	-0.06237663
195	0xbd538040	-0.05163598
196	0x3d7b9b30	0.061427295
197	0xbd180632	-0.037115283
198	0x3d7ee6ab	0.0622317
199	0xbbb72af5	-0.0055898377
200	0xbd715e7c	-0.058927998
201	0xbd3514d7	-0.044209328
202	0x3cc42879	0.02394508
203	0xbd2435b7	-0.04009029
204	0xbd299ebb	-0.041411143
205	0x3d3cab80	0.046061993
206	0xbd28c81a	-0.041206457
207	0xbc3391d3	-0.01096006
208	0x3d81fe01	0.063472755
209	0xbc5b4cae	-0.013384981
210	0xbc830e74	-0.015998103
211	0x3d1e869f	0.038702603
212	0xbd43e9e7	-0.04783049
213	0x3c7d3fdc	0.01545712
214	0x3c3d86b7	0.011567763
215	0xbcff7cc9	-0.031187432
216	0xbc5283a7	-0.012848771
217	0x3d6de1d5	0.0580767
218	0x3c9fdebb	0.019515386
219	0x3cf1493d	0.029453868
220	0x3d6c6d7d	0.057721604
221	0xbd3ce4df	-0.046116706
222	0xbd81f437	-0.063454084
223	0xbd479774	-0.04872842
224	0x3d682fd2	0.05668623
225	0x3d78677f	0.060645577
226	0xbb9b7c59	-0.004745048
227	0x3d5b423f	0.053529974
228	0x3d42415f	0.047425624
229	0xbcf243ff	-0.029573439
230	0xba9b2853	-0.0011837579
231	0xbd85a4fe	-0.065256104
232	0xbd80a71c	-0.062818736
233	0x3d1df4e5	0.038563628
234	0x3d5c45ba	0.053777434
235	0xbd23d4d3	-0.039997887
236	0xbd12f6db	-0.03587995
237	0xbd8293bb	-0.063758336
238	0x3d22b9be	0.03972792
239	0xbcce4d9b	-0.02518349
240	0x3bf0fb02	0.007354141
241	0xbbe776e3	-0.007063733
242	0xbd779026	-0.060440205
243	0x3c4ca063	0.012489411
244	0x3c70aef4	0.01469015
245	0x3d48352f	0.048878845
246	0xbacda5d6	-0.0015689682
247	0xbd6fbee1	-0.058531646
248	0xba94d881	-0.0011356027
249	0x3d3219da	0.043481685
250	0xbb18461f	-0.0023235155
251	0xbbae54d9	-0.005320173
252	0x3c88e95c	0.016712837
253	0x3d7ed9ce	0.062219433
254	0x3d3885ca	0.045049466
255	0x3b9032fb	0.0044006086

base.cnn.cnn.4.bias f4 [64]
0	0xbb222b5f	-0.002474509
1	0x3acc21ba	0.0015574016
2	0xba7a7d00	-0.00095553696
3	0xb9fce739	-0.0004823746
4	0xbac22b6b	-0.0014813965
5	0xbad38b19	-0.0016139477
6	0xba90e667	-0.0011054993
7	0x3a300622	0.0006714781
8	0x38a52b88	7.8759214e-05
9	0xbb044b90	-0.002018664
10	0x39acaea4	0.00032936514
11	0xbabb6c5c	-0.0014299261
12	0x3b80d560	0.0039316863
13	0xb9ef2575	-0.0004561354
14	0x3a07b094	0.00051761535
15	0xba1f89c3	-0.0006085897
16	0xb9bde86b	-0.00036222054
17	0x39a963d6	0.00032308575
18	0x3a27774d	0.00063883216
19	0x3a31029d	0.00067524036
20	0x39361c88	0.00017367501
21	0xbad6edde	-0.0016397794
22	0xba81f618	-0.0009915261
23	0xbb66db10	-0.0035225786
24	0x3ae55eee	0.0017499605
25	0x3985fc6a	0.000255558
26	0x39bcbbc7	0.0003599806
27	0x3a6a34c9	0.0008934257
28	0x3abce082	0.001441017
29	0xb5529842	-7.845266e-07
30	0x39bdedeb	0.00036226152
31	0xbab3af45	-0.0013708851
32	0x3af9e0aa	0.0019064147
33	0x3b44ac23	0.0030009828
34	0xba9335ae	-0.0011231208
35	0xb999d6f9	-0.000293426
36	0x3937de7e	0.00017535125
37	0x39735cfc	0.00023208925
38	0x3aed11a2	0.001808692
39	0xb8f81ad5	-0.000118305594
40	0xb980a51e	-0.00024537084
41	0x3a46b890	0.00075806025
42	0xba6a1764	-0.0008929877
43	0xbad58c47	-0.0016292416
44	0x39dad5b1	0.00041739413
45	0xba8ee4db	-0.0010901944
46	0xbaf9b720	-0.0019051768
47	0x3a38e5f4	0.00070533087
48	0x3ab829c2	0.0014050531
49	0xba40c464	-0.0007353483
50	0x3a17d080	0.0005791262
51	0xba5d2fd5	-0.00084376085
52	0x3a3ba47a	0.0007157993
53	0xb9a34be2	-0.0003114632
54	0x3947484a	0.00019005049
55	0xb98d9827	-0.00027006978
56	0x3ae6f86c	0.0017621643
57	0xba07f402	-0.00051862013
58	0x3a33b59c	0.000685537
59	0xba287530	-0.00064261537
60	0xba087f86	-0.0005206991
61	0xbae6fd69	-0.001762313
62	0xb9c7215c	-0.00037981092
63	0x3af76917	0.0018875924

base.cnn.cnn.5.weight f4 [64]
0	0x3f7f2bea	0.9967638
1	0x3f7f3960	0.9969692
2	0x3f7f18ef	0.9964742
3	0x3f7eed19	0.9958053
4	0x3f7ec99a	0.9952637
5	0x3f7f37ea	0.99694693
6	0x3f7f64ff	0.9976348
7	0x3f7f7654	0.9978993
8	0x3f7eeeca	0.99583113
9	0x3f7ee369	0.9956575
10	0x3f7f460c	0.9971626
11	0x3f7f0ee3	0.9963209
12	0x3f7fed59	0.9997154
13	0x3f7ef457	0.99591583
14	0x3f7f4019	0.9970718
15	0x3f7ef823	0.99597377
16	0x3f7ee329	0.9956537
17	0x3f7f47aa	0.99718726
18	0x3f7f7ea7	0.9980263
19	0x3f7f02c0	0.9961357
20	0x3f7f3276	0.9968637
21	0x3f7f2eda	0.99680865
22	0x3f7eefa8	0.99584436
23	0x3f7ec311	0.995164
24	0x3f7f9b9f	0.99846834
25	0x3f7eed0c	0.99580455
26	0x3f7ef462	0.9959165
27	0x3f7f952e	0.99837005
28	0x3f7f306f	0.9968328
29	0x3f7f010c	0.9961097
30	0x3f7eedf7	0.99581856
31	0x3f7f34a4	0.996897
32	0x3f8003dd	1.0001179
33	0x3f7fe74c	0.99962306
34	0x3f7efcc2	0.9960443
35	0x3f7eebaa	0.99578345
36	0x3f7f141b	0.99640054
37	0x3f7f18eb	0.99647397
38	0x3f7ffef8	0.99998426
39	0x3f7f7159	0.9978233
40	0x3f7eddb4	0.9955704
41	0x3f7fa98c	0.99868083
42	0x3f7efdfe	0.9960631
43	0x3f7ee2f7	0.9956507
44	0x3f7f825a	0.99808276
45	0x3f7f8074	0.9980538
46	0x3f7f8ca6	0.9982399
47	0x3f7f7e79	0.99802357
48	0x3f800587	1.0001687
49	0x3f7f20cd	0.99659425
50	0x3f7fe3f8	0.9995723
51	0x3f7f0743	0.99620456
52	0x3f7f24b3	0.99665374
53	0x3f7f39ec	0.99697757
54	0x3f7f2fdc	0.996824
55	0x3f7f8dc6	0.99825704
56	0x3f7fe9f2	0.9996635
57	0x3f7f0ee0	0.9963207
58	0x3f7f0ab1	0.9962569
59	0x3f7ee18c	0.9956291
60	0x3f7ee869	0.9957338
61	0x3f7ef36b	0.99590176
62	0x3f7ee8a9	0.9957376
63	0x3f7faeca	0.9987608

base.cnn.cnn.5.bias f4 [64]
0	0xba9a0c9f	-0.0011753029
1	0x3ae1ee8d	0.0017237231
2	0xba82f7b1	-0.0009992031
3	0xba45e817	-0.00075495377
4	0xbb3443e3	-0.0027506284
5	0xbaaf5642	-0.0013377147
6	0xba79022b	-0.0009498919
7	0x3ae92f3b	0.0017790565
8	0xb925afb1	-0.00015801076
9	0xbb42bdaa	-0.00297151
10	0x39c08b13	0.00036724712
11	0xba90c21b	-0.0011044176
12	0x3b8da245	0.0043223226
13	0xbadd4433	-0.0016881287
14	0x3a3079db	0.0006732025
15	0xb98da6e3	-0.00027017956
16	0xba3e73a1	-0.0007265155
17	0x3a229d4c	0.00062032486
18	0xb88cf2c6	-6.72094e-05
19	0xba5b5959	-0.0008367501
20	0x3a142a48	0.00056520524
21	0xbad7b2aa	-0.0016456444
22	0xbae36745	-0.0017349502
23	0xbb387ec4	-0.002815173
24	0x3a87ed60	0.0010370426
25	0x38cfad1c	9.902773e-05
26	0x39a50a0a	0.00031478732
27	0x3ad87ea8	0.0016517239
28	0x3a9f4676	0.0012151736
29	0xb860e009	-5.361441e-05
30	0xba4eca04	-0.0007888379
31	0xbac0d3c9	-0.0014711554
32	0x3ac32d09	0.0014890741
33	0x3b328bcc	0.002724397
34	0xbae5b0e9	-0.0017524037
35	0xba314288	-0.0006761928
36	0x3983550b	0.0002504963
37	0x3a0b9f7f	0.0005326196
38	0x3b32e048	0.0027294327
39	0xba4adfb2	-0.00077390217
40	0xb8c5f073	-9.438479e-05
41	0x3a29d24f	0.0006478177
42	0xba722b51	-0.0009238022
43	0xbb1c797f	-0.0023876128
44	0x39b4b993	0.0003447054
45	0xb9da3e34	-0.00041626545
46	0xbaf163ef	-0.0018416623
47	0x3a95c91d	0.0011427734
48	0x3ad2727e	0.001605585
49	0xbaa7a359	-0.001278977
50	0x3acc23ff	0.0015574693
51	0xbabd3f52	-0.0014438427
52	0x3a8aef3b	0.0010599861
53	0x3a630a5a	0.00086609053
54	0x374a1012	1.204388e-05
55	0x388c80d1	6.699714e-05
56	0x3a4b637d	0.00077586604
57	0x3aa3c236	0.0012493792
58	0x3a05f6fa	0.000511035
59	0xba4fcf24	-0.00079272897
60	0xba4ce70f	-0.0007816413
61	0xbb244742	-0.0025066887
62	0xba3c543e	-0.0007184184
63	0x3a40d021	0.00073552324

base.cnn.cnn.7.weight f4 [64, 64]
0	0x3e5bf794	0.21481162
1	0x3e8055d3	0.2506548
2	0xbe5ada4d	-0.21372338
3	0xbdb245d9	-0.08704729
4	0xbe100d6e	-0.14067623
5	0x3e6d96c8	0.2320205
6	0xbe93f173	-0.2889515
7	0x3e89b03e	0.26892275
8	0x3cc6674d	0.02421918
9	0xbe588959	-0.21146144
10	0xbe8e3642	-0.2777577
11	0xbe2638b0	-0.16232562
12	0x3e89a490	0.26883364
13	0xbe9554d8	-0.29166293
14	0x3e4e44d5	0.20143445
15	0x3e72c435	0.2370766
16	0xbe7e6f67	-0.24847184
17	0xbc2f5b13	-0.010702866
18	0xbe4a19c4	-0.19736391
19	0x3e8b630d	0.27224007
20	0xbd3f2588	-0.046666652
21	0xbdfdc759	-0.12391538
22	0xbd055021	-0.03254712
23	0xbdbf9b82	-0.09355833
24	0x3e9a5ad7	0.3014743
25	0xbca02e46	-0.019553315
26	0x3b3819a6	0.002809146
27	0x3e4f1faa	0.20226923
28	0x3e4ad961	0.19809486
29	0xbe35f4f8	-0.1776923
30	0xbe866385	-0.26247802
31	0xbdfc44b0	-0.123177886
32	0xbc822daf	-0.015890924
33	0x3e1d8139	0.15381326
34	0xbdbfe687	-0.093701415
35	0x3dd4e725	0.1039565
36	0xbdfec49c	-0.12439844
37	0x3e73f7cf	0.23825
38	0x3d6c8f0e	0.057753615
39	0x3e225d3c	0.15855879
40	0x3e96877a	0.29400235
41	0xbd141355	-0.03615125
42	0x3e4ef4d9	0.2021059
43	0xbe466e02	-0.19377902
44	0xbe2633a1	-0.16230632
45	0x3e0210e6	0.12701759
46	0xbccb3362	-0.024804775
47	0xbe7a749a	-0.24458542
48	0x3daa39c2	0.08311798
49	0x3d0e50f0	0.034745157
50	0x3e511687	0.2041875
51	0x3d8c191b	0.06840726
52	0x3e52de5a	0.20592633
53	0xbe85de0f	-0.2614598
54	0xbe9b5284	-0.30336392
55	0x3e505a64	0.20346981
56	0x3ced36d1	0.028956803
57	0xbe6df9f0	-0.23239875
58	0x3e46e154	0.19421893
59	0xbe99ca5f	-0.3003721
60	0x3db2ce5d	0.08730767
61	0x3e8fe89d	0.28107157
62	0xbe8455ab	-0.2584661
63	0x3d81a694	0.063306004
64	0x3e8c9a1c	0.27461326
65	0xbe0b94b9	-0.13630952
66	0xbe8df095	-0.27722612
67	0xbdbd9de4	-0.09258631
68	0xbe739e3b	-0.23790829
69	0x3dd596c3	0.10429146
70	0xbe831094	-0.25598586
71	0x3d92baf0	0.07164562
72	0x3e6059fa	0.21909323
73	0xbe9b2c89	-0.30307415
74	0x3da545ee	0.08069979
75	0x3de720b3	0.11285534
76	0x3d8b20c5	0.0679336
77	0xbe8b9717	-0.2726371
78	0x3d203efa	0.03912256
79	0xbe029245	-0.1275111
80	0x3e930c3f	0.2872028
81	0xbe4e06de	-0.20119807
82	0xbd126fbc	-0.03575109
83	0xbe5af56c	-0.21382684
84	0x3e056325	0.13026102
85	0xbe0c606c	-0.13708657
86	0xbe9a3997	-0.30122063
87	0xbe4b1ecc	-0.19835967
88	0xbdd033b4	-0.101661116
89	0xbe2cdeb3	-0.16881828
90	0x3e951bf3	0.29122886
91	0xbe6822f5	-0.22669585
92	0xbe921153	-0.28528842
93	0xbe9764b4	-0.29569018
94	0xbe08eb77	-0.13371073
95	0xbe383561	-0.17989112
96	0xbe963601	-0.29338077
97	0x3e898fe0	0.2686758
98	0xbdf69d4b	-0.1204172
99	0xbdc5e0d5	-0.09662024
100	0xbe534678	-0.2063235
101	0x3d19a912	0.037514754
102	0x3dd2b37c	0.1028814
103	0xbda5550e	-0.080728635
104	0x3db35c76	0.0875787
105	0xbb9d14b5	-0.0047937282
106	0x3c199ee0	0.009376258
107	0x3d50a3dd	0.050937522
108	0xbe2752eb	-0.16340224
109	0xbd9141fb	-0.07092663
110	0x3e870c22	0.26376444
111	0x3d1ec532	0.03876228
112	0xbb836729	-0.0040101004
113	0xbe08023e	-0.13282105
114	0x3db0324c	0.08603343
115	0xbe240742	-0.16018394
116	0xbe139fd4	-0.14416438
117	0xbd780463	-0.06055106
118	0xbe83d87c	-0.25751102
119	0x3db706b4	0.089368254
120	0x3d460d21	0.048352364
121	0x3e0d5fd9	0.13806094
122	0xbe231c76	-0.15928826
123	0xbd425059	-0.047439907
124	0x3e319d5b	0.17345183
125	0xbe4d0d30	-0.20024562
126	0x3e84e8f1	0.2595897
127	0xb9aaee9f	-0.00032602713
128	0xbe8d01e3	-0.27540502
129	0x3e34bc5a	0.17649975
130	0x3bf1e027	0.0073814574
131	0x3d3094d1	0.043110672
132	0xbe0e6843	-0.1390696
133	0xbe352acd	-0.17692108
134	0xbe984137	-0.29737255
135	0xbc1b3f74	-0.009475578
136	0x3e8254ab	0.25455222
137	0x3e77b984	0.24191862
138	0x3cff9113	0.031197106
139	0x3e4f8bcf	0.20268176
140	0xbe698411	-0.22804286
141	0xbe081117	-0.1328777
142	0x3dcec5d6	0.10096328
143	0xbe71625f	-0.23572682
144	0x3e80e538	0.2517488
145	0x3e67d246	0.22638807
146	0xbe32c808	-0.17459118
147	0xbdce72d2	-0.10080494
148	0x3dfd17c6	0.1235805
149	0x3e8258f3	0.25458488
150	0x3e35701d	0.17718549
151	0x3e0d3cc2	0.13792709
152	0x3dabfce3	0.08397844
153	0xbe58cb6a	-0.21171346
154	0x3e158480	0.14601326
155	0xbe3c7f07	-0.18407832
156	0x3d82e0eb	0.06390556
157	0x3defc391	0.11707223
158	0xbd79ad52	-0.060956307
159	0x3ddb0e3b	0.106960736
160	0xbd4f0975	-0.05054613
161	0xbc3ed521	-0.011647494
162	0xbe1c8b6c	-0.1528756
163	0xbd7bf204	-0.0615101
164	0x3e8aba87	0.27095434
165	0xbbf0e5d2	-0.0073516155
166	0x3d8d67f8	0.06904596
167	0x3e7ac94d	0.24490853
168	0xbe45ce6a	-0.19317022
169	0xbe2e73a6	-0.17036304
170	0xbe298b79	-0.16557111
171	0x3e02f85c	0.12790054
172	0xbe88956e	-0.26676506
173	0x3ddbd938	0.107347906
174	0xbcaf5b76	-0.021405917
175	0x3c9dfb28	0.0192848
176	0x3ce9dbf5	0.028547266
177	0xbd9617db	-0.07328769
178	0x3e86d0a6	0.2633106
179	0x3e0bd63c	0.13655943
180	0xbdeb47fe	-0.11488341
181	0x3d79341c	0.06084071
182	0xbe3b8e23	-0.1831594
183	0xbe48e164	-0.1961723
184	0x3e0913f1	0.13386513
185	0x3e69d6d9	0.22835864
186	0x3d1088ce	0.035286717
187	0xbe53ac24	-0.20671135
188	0x3e0586df	0.1303973
189	0x3e936616	0.28788823
190	0xbe8f9aeb	-0.2804788
191	0xbe673288	-0.2257787
192	0xbe6d7d90	-0.2319243
193	0x3c6b01cf	0.014343693
194	0xbda14a30	-0.07875478
195	0x3d398865	0.04529609
196	0x3e8ce646	0.27519435
197	0x3d2c8f0b	0.042128604
198	0x3e8a3730	0.2699523
199	0x3d9d3424	0.07675961
200	0xbe69d213	-0.22834043
201	0x3d4fe999	0.050759885
202	0x3e334a53	0.17508821
203	0x3daf42d6	0.0855767
204	0xbe9c2009	-0.3049319
205	0xbd32e586	-0.04367592
206	0x3e229d94	0.15880424
207	0xbe5ecccc	-0.21757811
208	0xbe98f894	-0.2987715
209	0x3dc40970	0.095721126
210	0x3e7d502c	0.24737614
211	0x3e834deb	0.25645384
212	0x3e7e4e7c	0.24834627
213	0x3e1a12c3	0.1504622
214	0xbe0748c2	-0.13211349
215	0x3dc5e0b7	0.096620016
216	0x3e98b793	0.29827556
217	0x3e41e76b	0.18935935
218	0xbe470d1e	-0.19438598
219	0x3e22822b	0.15869968
220	0x3d17b93e	0.037041895
221	0xbe671c68	-0.2256943
222	0x3e82154e	0.2540688
223	0xbe9a199e	-0.3009767
224	0x3e90eb64	0.2830459
225	0xbe8c9c08	-0.27462792
226	0xbe9666a9	-0.29375198
227	0xbdd60aca	-0.104512766
228	0xbdc4ee29	-0.09615738
229	0xbdcdc789	-0.10047824
230	0xbc56901d	-0.013095883
231	0x3c1a5df1	0.009421811
232	0xbe3a7bff	-0.18211363
233	0x3d98deca	0.07464369
234	0x3e063966	0.13107833
235	0xbc7a6e81	-0.015285135
236	0x3e9407ed	0.28912297
237	0xbd754bc8	-0.059886724
238	0xbc172a3f	-0.009226381
239	0x3e246aba	0.16056338
240	0x3e9115ac	0.28336847
241	0xbe9b697a	-0.3035391
242	0xbdcce2fa	-0.1000423
243	0x3e289ac6	0.16465291
244	0xbdd00843	-0.10157826
245	0xbe172872	-0.14761522
246	0xbd0f3035	-0.034958083
247	0xbd9cb2e3	-0.076513074
248	0x3e5df188	0.21674168
249	0x3d6984c2	0.057011373
250	0x3e3de247	0.18543349
251	0xbe1fe0b8	-0.15613067
252	0xbe0837ae	-0.1330249
253	0x3e78f7e7	0.24313317
254	0xbe336983	-0.17520718
255	0xbe441196	-0.19147334

base.cnn.cnn.7.bias f4 [64]
0	0x3b0e5605	0.0021718752
1	0x37569595	1.2790221e-05
2	0x38a01530	7.633341e-05
3	0x3a1f916a	0.0006087037
4	0x3a6894a1	0.0008872245
5	0xbb245fbb	-0.0025081474
6	0x38dab9b9	0.000104296436
7	0xba5c30a9	-0.0008399585
8	0x3791332f	1.7309181e-05
9	0x3a0809fc	0.0005189476
10	0x3a779e64	0.0009445904
11	0xbad05ab2	-0.001589617
12	0xb9f18b03	-0.00046070674
13	0x3ab30d0d	0.0013660506
14	0xba845436	-0.0010095898
15	0x3980fec2	0.00024603872
16	0x3a068223	0.0005131086
17	0x3b187f18	0.0023269113
18	0xba774880	-0.00094331056
19	0xba93d388	-0.0011278251
20	0xba52306e	-0.0008018081
21	0x3ae274bd	0.0017277222
22	0xba1e1a7b	-0.00060311676
23	0xba8c8de4	-0.0010723439
24	0x3a7fcb26	0.00097577495
25	0x39e1b34b	0.00043048928
26	0xba895b52	-0.0010479486
27	0x3a24bfbc	0.0006284674
28	0xb7685769	-1.3848629e-05
29	0x3a7dd989	0.00096835993
30	0x3a782bf2	0.00094669976
31	0x3a3b9fec	0.0007157314
32	0xbb181e48	-0.0023211408
33	0xba993b77	-0.0011690696
34	0x3ae28d30	0.0017284509
35	0xba1dd4ff	-0.00060208136
36	0xba20a460	-0.00061280094
37	0x38110c0d	3.4581917e-05
38	0x3b03636a	0.002004827
39	0xb9845a1c	-0.0002524414
40	0xbaf8eef7	-0.0018992116
41	0x3ab5a4f0	0.0013858359
42	0x3b1420da	0.002260259
43	0x3a28dd92	0.0006441708
44	0x39e4fc61	0.00043675586
45	0xbaa24eed	-0.0012383141
46	0xbb3bbde1	-0.0028647112
47	0x3a3c540a	0.00071841537
48	0x3af674bc	0.00188031
49	0xba5b84a2	-0.0008373951
50	0x3a69783d	0.00089061615
51	0xba89a105	-0.0010500258
52	0x3a82ee60	0.0009989254
53	0x39b3da95	0.00034304397
54	0xb9ac0457	-0.0003280963
55	0x3b01ce78	0.0019806903
56	0xb93497a1	-0.00017222624
57	0x3a19fb3d	0.0005873924
58	0x3ab2044f	0.0013581606
59	0xbb046b1c	-0.0020205444
60	0xba9058aa	-0.0011012752
61	0xba963dc9	-0.0011462505
62	0x3b2355ee	0.0024923044
63	0xb9fe25d3	-0.00048474837

base.cnn.cnn.8.weight f4 [64]
0	0x3f801146	1.0005271
1	0x3f7f0314	0.9961407
2	0x3f7f80d1	0.99805933
3	0x3f7f7569	0.9978853
4	0x3f7f38aa	0.9969584
5	0x3f7ec61f	0.9952106
6	0x3f800e9b	1.0004457
7	0x3f7f25da	0.9966713
8	0x3f7fce76	0.9992441
9	0x3f7ee7b0	0.9957228
10	0x3f7f1a14	0.9964917
11	0x3f7ee839	0.99573094
12	0x3f7f5be9	0.9974962
13	0x3f7eef29	0.9958368
14	0x3f7f32b9	0.9968677
15	0x3f7f6a93	0.99771994
16	0x3f7eee68	0.9958253
17	0x3f7f35d1	0.9969149
18	0x3f7f071c	0.99620223
19	0x3f7f138a	0.9963919
20	0x3f7ee8e3	0.99574107
21	0x3f7f28de	0.99671733
22	0x3f7eec75	0.99579555
23	0x3f7ee273	0.99564284
24	0x3f7f50f1	0.9973288
25	0x3f7f4cc5	0.99726516
26	0x3f7ef163	0.99587077
27	0x3f7eee16	0.9958204
28	0x3f7f71d4	0.9978306
29	0x3f8011d6	1.0005443
30	0x3f7eef11	0.99583536
31	0x3f7ee71b	0.9957139
32	0x3f7f4595	0.9971555
33	0x3f7f0179	0.9961162
34	0x3f7eed12	0.9958049
35	0x3f7f7172	0.9978248
36	0x3f7f504a	0.99731886
37	0x3f7f0ad3	0.9962589
38	0x3f7f2093	0.9965908
39	0x3f7f516d	0.9973362
40	0x3f7eca77	0.99527687
41	0x3f7ef071	0.99585634
42	0x3f803467	1.0015992
43	0x3f7ef11b	0.9958665
44	0x3f800f78	1.0004721
45	0x3f7f84cb	0.99812
46	0x3f7ee5a6	0.99569166
47	0x3f7f7a96	0.99796426
48	0x3f7f41c6	0.9970974
49	0x3f7f1a09	0.996491
50	0x3f7f3225	0.9968589
51	0x3f7ed20c	0.99539256
52	0x3f7f435a	0.99712145
53	0x3f7eedb8	0.9958148
54	0x3f7ee592	0.99569046
55	0x3f7f4fee	0.9973134
56	0x3f7f855f	0.99812883
57	0x3f7f7fd6	0.9980444
58	0x3f7f0b7b	0.9962689
59	0x3f7ef8c2	0.99598324
60	0x3f7f1e71	0.99655825
61	0x3f7f39fd	0.9969786
62	0x3f7f6a5e	0.9977168
63	0x3f7f3988	0.9969716

base.cnn.cnn.8.bias f4 [64]
0	0x3b07283a	0.0020623342
1	0xb97a198a	-0.00023851372
2	0x390069ee	0.00012246493
3	0x398eadd1	0.00027213854
4	0x3a44de96	0.00075099745
5	0xbb28643c	-0.002569451
6	0x3a20ecd3	0.0006138805
7	0xbabeb5de	-0.001455005
8	0xb80f6fd1	-3.4197994e-05
9	0xb9cba063	-0.00038838675
10	0x3a0e4cd2	0.0005428317
11	0xbad5c438	-0.0016309088
12	0xba1bae39	-0.0005938742
13	0x392251ad	0.0001547995
14	0xbabd62a9	-0.0014448959
15	0x39b59bb1	0.0003463901
16	0xba0b1833	-0.0005306035
17	0x3b001cb9	0.001954837
18	0xbae227ee	-0.0017254332
19	0xbab89d60	-0.0014084987
20	0xbac35a10	-0.001490416
21	0x3a8119fb	0.0009849662
22	0xba659ee1	-0.00087593315
23	0xbaa7915d	-0.001278441
24	0x3a0f1da0	0.00054594316
25	0x3979c255	0.00023818885
26	0xbad4818d	-0.0016212926
27	0xb99342ee	-0.0002808789
28	0xb9554f01	-0.00020342694
29	0x3a59dd3c	0.00083108596
30	0x392576e6	0.0001577992
31	0x39118864	0.00013879087
32	0xbb23d134	-0.002499652
33	0xbae767c0	-0.0017654821
34	0x3a418de8	0.00073835114
35	0xba30d55d	-0.0006745661
36	0xb9d85ca4	-0.00041267753
37	0xb98e90ff	-0.0002719238
38	0x3ad2f551	0.0016094839
39	0xba163b75	-0.00057309057
40	0xbafcf6bc	-0.0019299607
41	0x39f711e3	0.00047124838
42	0x3ad7f7e5	0.0016477077
43	0x383792f6	4.3767468e-05
44	0x391f89e0	0.00015214784
45	0xbacc5372	-0.0015588833
46	0xbb55b8ee	-0.0032611447
47	0x3981f015	0.00024783672
48	0x3aa811ab	0.0012822648
49	0xbad7db9b	-0.0016468646
50	0x3a2d37a9	0.000660772
51	0xbacf6cb7	-0.0015825246
52	0x3a916da6	0.00110953
53	0xb9732e8e	-0.00023191629
54	0xba859b95	-0.0010193462
55	0x3ad0a4a8	0.0015918212
56	0xb9d15f03	-0.00039934376
57	0x3a07b043	0.00051761064
58	0x3a9f3ed1	0.0012149458
59	0xbb188a98	-0.0023275968
60	0xba9ecc9d	-0.0012115423
61	0xbac7e1e9	-0.0015249822
62	0x3af0246e	0.0018321404
63	0xba22d098	-0.00062108925

rnn.rnn.weight_ih_l0 f4 [192, 64]
0	0x3deebb03	0.116567634
1	0xbd81a30b	-0.06329926
2	0xbcf7db2a	-0.030255873
3	0xbe0e4179	-0.13892163
4	0xbd82bcc0	-0.063836575
5	0xbd9cee88	-0.07662684
6	0x3c9194fa	0.017771233
7	0xbdcf4ad1	-0.10121692
8	0x3da3108c	0.079621404
9	0xbe018293	-0.12647466
10	0xbdb98b9d	-0.09059832
11	0xbde0454a	-0.10950716
12	0xbd066ed8	-0.032820553
13	0xbe0f1fcb	-0.13976972
14	0xbde41a0a	-0.11137779
15	0xbb25f990	-0.0025325753
16	0xbafdff97	-0.001937854
17	0xbdcdea4b	-0.100544535
18	0x3cbbfca0	0.02294761
19	0xbdf1c3c9	-0.11804921
20	0xbdbda791	-0.092604764
21	0xbda3a1da	-0.07989855
22	0xbd7a4665	-0.06110229
23	0xbd5e6ca9	-0.054302845
24	0x3d041a47	0.032251623
25	0x3daab6ae	0.08335625
26	0xbdae3171	-0.08505524
27	0x3dbd3988	0.09239489
28	0xbe132d42	-0.14372733
29	0xbdd90ffc	-0.10598752
30	0x3dabd831	0.083908446
31	0x3e158483	0.1460133
32	0x3d24daaa	0.040247597
33	0xbca1010e	-0.019653823
34	0xbe0918f8	-0.13388431
35	0xbdb739d7	-0.08946579
36	0x3b8c9c09	0.004291062
37	0xbda6cca7	-0.08144503
38	0xbded0982	-0.11574079
39	0xbc88f408	-0.016717926
40	0x3ddf44c9	0.109017916
41	0x3cc6e052	0.024276886
42	0x3cb5e46b	0.022203645
43	0xbdfc39b7	-0.12315696
44	0x3e0be1e3	0.13660388
45	0x3d092d39	0.033490393
46	0x3d74db6c	0.05977957
47	0xbe14cb2a	-0.14530626
48	0x3d1a7280	0.037706852
49	0xbd1a9d73	-0.03774781
50	0xbd863735	-0.06553499
51	0x3cfae574	0.03062699
52	0x3d72055b	0.05908714
53	0xbdc0c5b3	-0.09412708
54	0xbd1544f4	-0.036442712
55	0xbd34f416	-0.04417809
56	0x3def13e8	0.11673719
57	0xbdb816b9	-0.08988709
58	0x3dab32de	0.083593115
59	0x3d0188c9	0.03162459
60	0x3cba40a4	0.022735901
61	0xbe07e22c	-0.13269871
62	0x3d511668	0.05104676
63	0x3d9d61d4	0.07684675
64	0xbcc019ca	-0.023449797
65	0x3db581cb	0.08862647
66	0x3c976301	0.018479826
67	0xbe160f75	-0.14654334
68	0x3ddf9905	0.10917858
69	0x3ddf92b3	0.109166525
70	0x3da8c76a	0.0824116
71	0x3e1706a0	0.14748621
72	0x3e02c088	0.12768757
73	0x3c3d3fd3	0.011550861
74	0x3dcf4e1b	0.10122319
75	0xbdbb177b	-0.09135338
76	0xbdd97482	-0.10617925
77	0xbdbaba7c	-0.091176
78	0xbca94520	-0.020662844
79	0xbd50e5f8	-0.051000565
80	0xbe146abe	-0.14493844
81	0x3c893ed7	0.016753597
82	0xbc8c8b37	-0.017156227
83	0xbb3161a7	-0.0027066262
84	0x3e0898d7	0.13339554
85	0xbd37fed6	-0.044920765
86	0xbe017d42	-0.12645438
87	0xbe0cebed	-0.13761874
88	0x3dea0032	0.114258185
89	0x3d589c98	0.052883714
90	0xbe031fa1	-0.12805034
91	0x3dc34ae2	0.09535767
92	0x3d86f8bf	0.06590413
93	0x3dc07568	0.093973935
94	0x3dd848a2	0.105607286
95	0x3ca7c1ab	0.02047809
96	0x3ca766a4	0.020434685
97	0x3da39715	0.07987801
98	0x3d53e30e	0.051730208
99	0xbdd19445	-0.10233358
100	0xbcdace6e	-0.026709761
101	0xbd36b273	-0.044603776
102	0xbe039dbc	-0.1285314
103	0xbd305b0d	-0.043055583
104	0x3d0c8cae	0.03431385
105	0x3d99bd10	0.07506764
106	0x3cd7135c	0.026254348
107	0x3df32d7e	0.11873911
108	0xbcb331b8	-0.021874294
109	0x3cf7f655	0.030268827
110	0xbdfb206f	-0.122620456
111	0x3c8ed133	0.017433738
112	0xbe057c7d	-0.1303577
113	0xbd8f188f	-0.06987106
114	0xbdd9b360	-0.10629916
115	0x3e165bce	0.14683458
116	0xbde78b8b	-0.113059126
117	0xbc2c0985	-0.0105003165
118	0x3d9d673d	0.07685707
119	0xbdc6f2b3	-0.0971426
120	0xbcfe1416	-0.031015437
121	0xbe166149	-0.14685549
122	0x3df431df	0.11923575
123	0x3d928cae	0.07155739
124	0x3e0a3d33	0.13499908
125	0xbce60570	-0.028078765
126	0x3d495e00	0.04916191
127	0xbcdecfb8	-0.027198657
128	0x3cfe745c	0.031061344
129	0xbd252e3e	-0.040327303
130	0x3d8ef039	0.069794126
131	0x3dc96322	0.09833361
132	0x3cbcaa5b	0.02303045
133	0x3e04c0bd	0.12964149
134	0x3ddd2454	0.10797945
135	0xbd29302e	-0.041305713
136	0x3d4493f0	0.047992647
137	0x3df33d48	0.11876923
138	0xbe0de431	-0.1385658
139	0xbd444d99	-0.047925565
140	0xbd8a3558	-0.06748456
141	0x3cb297b2	0.02180085
142	0xbd4ad71a	-0.049521543
143	0xbe1a1f3d	-0.15050979
144	0x3d28d47d	0.04121827
145	0xbd973bcf	-0.073844545
146	0xbbf62e84	-0.0075128693
147	0x3c94c086	0.018158209
148	0xbdc7487a	-0.09730621
149	0xbd8d2ed2	-0.06893696
150	0x3dc74d13	0.097314976
151	0xbdc4a418	-0.09601611
152	0x3d88bb48	0.06676346
153	0xbdb2ce9f	-0.08730816
154	0x3decc4bf	0.11560964
155	0xbd18e412	-0.03732688
156	0xbd5c77c9	-0.053825174
157	0xbd9d4fd9	-0.07681245
158	0xbe1055c9	-0.14095224
159	0x3e0c85ee	0.13722965
160	0x3da9be6a	0.08288272
161	0xbda8cbb9	-0.08241982
162	0xbcd6810e	-0.026184585
163	0xbc833b22	-0.016019408
164	0xbc311ea6	-0.01081053
165	0xbd0cf5b3	-0.034414005
166	0xbbc3b251	-0.0059721847
167	0xbdd80cd7	-0.10549324
168	0x3d59a254	0.053133324
169	0xbcbc8dc8	-0.023016825
170	0xbdd6f3af	-0.10495698
171	0x3ce557ad	0.027995909
172	0xbe0b2088	-0.13586628
173	0xbd71dda8	-0.05904928
174	0x3dccf587	0.10007768
175	0x3ddc9753	0.1077105
176	0x3e11b12e	0.14227745
177	0xbda6bc41	-0.08141375
178	0xbb7b8fe2	-0.0038385321
179	0x3ddd0555	0.10792033
180	0x3cefaf7a	0.029258478
181	0xbe15e9e1	-0.14639999
182	0xbd4858d4	-0.048912838
183	0xbd38a471	-0.0450787
184	0x3b0bc3c2	0.0021326398
185	0x3dbe3087	0.092865996
186	0x3dae3db1	0.085078605
187	0x3da9abe2	0.08284737
188	0xbd9a473b	-0.075331174
189	0x3dbd0077	0.09228604
190	0x3e076b2a	0.13224474
191	0x3e0d0f61	0.13775398
192	0x3df2c87d	0.11854646
193	0x3d2ba381	0.041903976
194	0xbe0fd889	-0.14047445
195	0x3dd42693	0.1035892
196	0x3dc52a28	0.09627181
197	0x3dd0f024	0.10202053
198	0xbd9305ce	-0.071788415
199	0xbd80292a	-0.062578514
200	0xbe09a3a1	-0.13441326
201	0xbdefb161	-0.11703754
202	0x3d0afcb1	0.03393239
203	0xbd75364a	-0.059866227
204	0x3d648f19	0.05580053
205	0xbcc86b04	-0.024465092
206	0x3d8338ab	0.06407293
207	0xbb8f95ca	-0.00438187
208	0xbdaf458e	-0.085581884
209	0x3c1d1f33	0.009589958
210	0xbd1f1472	-0.038837858
211	0xbcfc07ab	-0.030765375
212	0x3d5f410c	0.054505393
213	0xbdf8fefe	-0.12158011
214	0xbd65e2d0	-0.05612451
215	0xbd141e58	-0.03616175
216	0xbdfa97c3	-0.122359775
217	0xbd27426f	-0.04083484
218	0xbd92d903	-0.07170298
219	0x3d030809	0.031990085
220	0xbd6bfcdb	-0.05761419
221	0x3ded1e11	0.11578
222	0xbc49d8a1	-0.012319715
223	0x3df04900	0.11732674
224	0x3d9bd741	0.07609416
225	0x3ce53cdd	0.027983123
226	0xbde4b7a3	-0.111678384
227	0xbdbfb819	-0.09361286
228	0x3e0f7d76	0.14012703
229	0x3dc15c61	0.09441448
230	0x3dd91c8d	0.10601149
231	0x3d686cf3	0.056744527
232	0x3bea0186	0.007141295
233	0x3dad9a75	0.08476726
234	0x39df9ef0	0.00042652292
235	0x3d65fc0d	0.056148577
236	0xbc92626c	-0.017869197
237	0x3da3953a	0.07987447
238	0xbdaab34f	-0.08334982
239	0x3d51a55a	0.051183082
240	0xbdd6ad08	-0.10482222
241	0xbd65124b	-0.05592565
242	0x3d32a8a2	0.043617852
243	0x3de6f57b	0.112772904
244	0xbdf85c23	-0.12126949
245	0x3dc3881b	0.095474444
246	0x3c6d5ca6	0.014487421
247	0xbd0000a8	-0.031250626
248	0x3d83d890	0.064377904
249	0x3c325936	0.010885527
250	0x3e0a44ca	0.13502803
251	0x3e0f921b	0.14020579
252	0xbd8f6b5a	-0.070028976
253	0xbcc7d054	-0.02439133
254	0x3da3eacf	0.080037706
255	0x3dc3c4c1	0.09559012

rnn.rnn.weight_hh_l0 f4 [192, 64]
0	0xbd63f8d8	-0.055657238
1	0x3d41717c	0.047227368
2	0x3c50bc9e	0.012740282
3	0xbcb08525	-0.021547863
4	0xbe0f42ba	-0.13990298
5	0xbde64987	-0.11244493
6	0x3e046e83	0.12932782
7	0xbd915182	-0.070956245
8	0x3d163ed0	0.036680996
9	0x3e1a26a7	0.15053807
10	0x3e0ff7ed	0.1405942
11	0x3e02f08f	0.12787078
12	0x3d22f7f7	0.03978726
13	0x3d0c75e0	0.0342921
14	0x3d4f7fe7	0.050659087
15	0xbc97ad73	-0.018515324
16	0xbe07f617	-0.1327747
17	0xbd64a484	-0.055820957
18	0x3ceebf13	0.029143846
19	0x3e0f0047	0.1396495
20	0x3d0030f1	0.031296674
21	0xbc3ed596	-0.011647603
22	0xbd6fe639	-0.058569167
23	0x3da8b8a7	0.08238345
24	0x3d913272	0.070897
25	0x3d5be273	0.053682756
26	0x3d17616c	0.036958143
27	0xbe15d495	-0.14631875
28	0x3dd4ecc5	0.10396723
29	0xbc9bc17b	-0.019013157
30	0x3df063bb	0.11737772
31	0xbc1b44b9	-0.009476834
32	0xbda69677	-0.08134168
33	0x3e127bfa	0.14305106
34	0x3d567fbc	0.05236791
35	0xbc4c1ad9	-0.012457573
36	0xbd98d920	-0.07463288
37	0x3daa2b8f	0.083090894
38	0x3e00e420	0.12587023
39	0xbe17c88b	-0.14822595
40	0x3dd88aaa	0.10573323
41	0xbe0f4d17	-0.13994251
42	0x3bfd2ef7	0.007726546
43	0xbce723d2	-0.028215323
44	0xbc061d33	-0.008185673
45	0x3c739037	0.0148659265
46	0x3d8eb579	0.06968207
47	0x3c16d9a3	0.009207162
48	0xbc0ff6dd	-0.008786884
49	0xbdd3dc6f	-0.10344779
50	0xbe1715f0	-0.14754462
51	0xbe06a9cb	-0.13150708
52	0xbe19da05	-0.15024574
53	0xbe199fe0	-0.15002394
54	0xbddd30c4	-0.10800317
55	0xbd633427	-0.05546966
56	0xbcb080b5	-0.021545747
57	0xbd7f7acc	-0.062372968
58	0xbdc44e04	-0.09585193
59	0x3cf71bc1	0.030164601
60	0x3d994d7d	0.07485483
61	0x3e116ca9	0.14201607
62	0xbcc68e22	-0.024237696
63	0x3c4d3959	0.01252588
64	0xbde83e3c	-0.11339995
65	0xbd0a012f	-0.033692535
66	0x3db3e3ed	0.08783708
67	0xbdd88815	-0.105728306
68	0x3c797517	0.01522567
69	0x3d28ca56	0.041208588
70	0x3d406a4b	0.04697637
71	0x3d88c5d0	0.06678355
72	0xbcf3a4bc	-0.029741637
73	0xbdc1f0c7	-0.09469753
74	0x3c9ff757	0.01952712
75	0xbcb4424c	-0.022004269
76	0x3df80b01	0.12111474
77	0x3b8c8fe8	0.004289616
78	0xbd30d516	-0.043171965
79	0x3d922f88	0.07137972
80	0x3e159d69	0.14610828
81	0x3d477af6	0.04870125
82	0x3d8d9b58	0.06914395
83	0xbdf6edbb	-0.12057062
84	0xbdf5362e	-0.119732246
85	0x3d3cc8a7	0.046089794
86	0x3d53d508	0.051716834
87	0x3cbc3d04	0.022978313
88	0x3ca16479	0.01970123
89	0x3d44d501	0.0480547
90	0xbca0c045	-0.019622931
91	0x3d0d1efb	0.034453373
92	0xbdbe2386	-0.09284119
93	0xbd72af77	-0.059249368
94	0xbda14eca	-0.07876356
95	0x3df88537	0.12134784
96	0xbdf3cbf1	-0.11904133
97	0x3e13bfad	0.14428587
98	0x3ce9c297	0.02853517
99	0x3bfd0653	0.007721701
100	0xbe0f458e	-0.13991377
101	0xbd662269	-0.05618516
102	0x3ceb1a06	0.028698932
103	0x3c374f24	0.011188302
104	0x3debe110	0.11517537
105	0xbcead0f1	-0.028664084
106	0xbd322c61	-0.043499354
107	0xbb9b5a83	-0.0047410144
108	0xbcda156b	-0.026621541
109	0x3d1f63b3	0.03891344
110	0x3e0ce1fc	0.13758081
111	0xbe0f6ccb	-0.14006345
112	0xbb8cf9fb	-0.004302261
113	0x3e0ce664	0.13759762
114	0x3dcef1a5	0.10104684
115	0xbdcc1f1e	-0.09966873
116	0x3e0cb125	0.1373945
117	0xbdf98590	-0.12183678
118	0x3ca81c85	0.020521412
119	0x3d5913a4	0.052997246
120	0xbc9b20c3	-0.01893652
121	0x3caf66c9	0.021411316
122	0x3ca3f693	0.020015037
123	0xbdd7d811	-0.10539258
124	0x3dcba2b7	0.09943145
125	0x3d38a3e4	0.045078173
126	0xbc46bb5a	-0.012129629
127	0x3d35049a	0.04419384
128	0x3dd0e3f8	0.101997316
129	0xbd81b854	-0.06333986
130	0x3c1d553d	0.009602842
131	0xbdac2a16	-0.08406465
132	0x3d255ceb	0.040371817
133	0x3e0ba9cf	0.13638996
134	0x3d45ce18	0.04829225
135	0x3c442884	0.01197255
136	0x3ccd8d77	0.02509187
137	0xbc26ad22	-0.010173114
138	0x3df397c6	0.11894183
139	0x3dce5127	0.10074072
140	0x3e180154	0.14844257
141	0x3da9492e	0.08265911
142	0xbd9c9d2a	-0.07647164
143	0xbc683f7e	-0.014175294
144	0xbd01e8c0	-0.03171611
145	0x3e0b9f98	0.13635099
146	0x3c497d12	0.0122978855
147	0x3dd447f9	0.1036529
148	0xbdf23f58	-0.11828488
149	0xbd579a9b	-0.052637678
150	0x3dc4751b	0.095926486
151	0x3dec1654	0.11527696
152	0xbdbaf663	-0.09129026
153	0xbd404f02	-0.046950348
154	0x3c91594f	0.017742781
155	0xbd12783b	-0.035759192
156	0xbe0171ea	-0.12641111
157	0xbdf8c9f8	-0.121478975
158	0x3d733122	0.05937303
159	0xbde62df2	-0.11239232
160	0xbe0eafe9	-0.13934292
161	0x3c8697af	0.01642975
162	0xbe0030d7	-0.12518631
163	0x3ddfc5ea	0.10926421
164	0xb78c7956	-1.6745802e-05
165	0x3ba161c4	0.0049249846
166	0x3dfd4419	0.12366504
167	0x3c6b0349	0.014344045
168	0xbe192ae1	-0.14957763
169	0xbe0a5d3c	-0.13512129
170	0x3d52f2ac	0.05150096
171	0xbd608490	-0.05481392
172	0x3e0f7648	0.14009964
173	0x3d75ec42	0.060039766
174	0x3de9d04d	0.11416683
175	0x3e199e3a	0.15001765
176	0xbcf3039d	-0.029664809
177	0x3e10206f	0.14074872
178	0xbe008e4a	-0.12554279
179	0x3df546cb	0.11976393
180	0xbd80871e	-0.062757716
181	0xbd6af2ed	-0.05736058
182	0xbdbf2ee2	-0.09335114
183	0xbdbba9ca	-0.09163244
184	0x3d21ebb5	0.03953143
185	0xbdc3be0a	-0.095577314
186	0x3c03111f	0.007999687
187	0x3dfbc012	0.12292494
188	0xbda076ae	-0.07835136
189	0x3c637b0e	0.013884319
190	0x3e0ece02	0.13945773
191	0x3dff3329	0.1246093
192	0x3decca0f	0.11561977
193	0x3d09ca57	0.033640232
194	0x3bdb5bbc	0.006694285
195	0x3c9b2e64	0.01894302
196	0x3cfded0b	0.03099682
197	0x3dc0ed1a	0.094202235
198	0x3bfa4ade	0.0076383194
199	0xbdcabcb0	-0.098992705
200	0x3d822ffa	0.06356807
201	0x3e031db3	0.12804298
202	0xbdfd6658	-0.12373036
203	0xbd157c5f	-0.036495563
204	0x3d889051	0.06668151
205	0xbe017aaf	-0.12644456
206	0xbde7bcde	-0.113153204
207	0x3bf4dc6d	0.007472566
208	0x3db0272f	0.08601224
209	0x3ddb4d8f	0.107081525
210	0x3d2ac95e	0.041695945
211	0xbc93a029	-0.018020706
212	0x3d82eedc	0.06393215
213	0x3b93d6f3	0.004511708
214	0x3d988ef0	0.07449138
215	0x3de6eaf3	0.11275282
216	0xbd8ab0a1	-0.067719705
217	0x3e18d604	0.1492539
218	0x3db9da84	0.09074882
219	0x3d081cd3	0.033230614
220	0x3ddf976e	0.10917555
221	0xbe054fcc	-0.13018721
222	0x3df76fd0	0.120818734
223	0x3b1088d7	0.002205422
224	0xbce59bb0	-0.02802834
225	0x3c5476a2	0.012967737
226	0xbc82f469	-0.015985684
227	0xbdd3144a	-0.10306604
228	0xbd606343	-0.054782163
229	0x3d7519f4	0.059839204
230	0xbc05f985	-0.008177166
231	0x3cdddd13	0.027082955
232	0x3da5f1d0	0.08102763
233	0xbe1771f6	-0.14789566
234	0xbc9e12cb	-0.01929607
235	0x3dcc2584	0.09968093
236	0xbccc19b3	-0.024914598
237	0x3dc5157c	0.096232384
238	0xbd7454d9	-0.05965123
239	0xbb6fefa2	-0.0036611338
240	0x3dfc8693	0.123303555
241	0x3da3d6bf	0.07999944
242	0xbe0ff662	-0.14058831
243	0x3e0be070	0.13659835
244	0xbd61cdae	-0.055127792
245	0xbe1145ff	-0.14186858
246	0xbe0aa1e2	-0.13538316
247	0x3d6bc81c	0.057563886
248	0x3d4f3691	0.050589148
249	0xbdae5a5a	-0.08513327
250	0x3e06462b	0.13112704
251	0xbd20d49b	-0.039265256
252	0x3c5169a1	0.012781532
253	0x3e11fdcb	0.1425697
254	0x3d01b7ac	0.031669304
255	0x3dacc020	0.084350824
