MARL/MAPPO-ATTENTIOAN/onpolicy/scripts/results/Meltingpot/collaborative_cooking__circuit_0/territory__rooms/mappo/setting_3/run100/models/actor_agent2.pt (torch, 796137 bytes, 22 tensors)

base.cnn.cnn.0.weight f4 [32, 3, 3, 3]
000000 3f 71 a3 bc 67 72 cc 3c bd 31 8c bc 70 a8 e7 3d
       -0.01995146 0.024956895 -0.01711356 0.11311424
000010 bc d5 79 bd 03 6e 8e 3d 7d 20 29 3e 91 5a 0b 3e
       -0.06099485 0.06954577 0.165163 0.13608767
000020 2b 6a e4 bd cd 51 32 3d ac 58 9a 3d 33 63 99 3d
       -0.111530624 0.043535043 0.07536444 0.07489624
000030 da 15 a4 3c 4d 17 16 3e 6a bc 86 3a ca 92 99 bb
       0.02002995 0.14657326 0.001027954 -0.004686688
000040 1b a9 42 be 05 87 f4 bd f1 98 bf 3d be 4e 1a 3e
       -0.19009821 -0.119398154 0.09355343 0.150691
000050 4b 92 ec bc 45 98 a8 3d c7 8e 12 be 93 ce f0 bd
       -0.028878352 0.08232168 -0.14312278 -0.11758151
000060 ee 1f c9 3d 36 c0 3c 3e d0 05 87 bc 3f 38 17 be
       0.09820543 0.18432698 -0.016482264 -0.1476755
000070 41 58 e2 3d a1 cd f9 bc 44 4a 45 bd 3d 1c 40 3d
       0.11051989 -0.03049356 -0.04816653 0.04690193
000080 b6 81 b5 bd 38 14 ab 3d 0c 9e 4e bd f8 32 a0 bd
       -0.08862631 0.08353466 -0.050443694 -0.078222215
000090 9a 3f 1a 3e de df 98 bd c7 42 0f 3e 67 2c 2b be
       0.15063325 -0.07464574 0.13990317 -0.16716157
0000a0 15 88 3a be 15 54 30 3e 29 bd 0a 3e 47 21 0e 3e
       -0.18215974 0.17219575 0.13548721 0.13879882
0000b0 98 fc a2 bc 7d fc 35 3b a2 93 22 3e a8 b3 2e 3d
       -0.019895837 0.0027768903 0.1587663 0.042651802
0000c0 57 3f 32 3e fa 16 0b 3e 74 6e 45 be 17 e2 e4 3d
       0.17406975 0.13582984 -0.19280416 0.11175936
0000d0 1c 34 c7 bb 59 20 ec 3d a0 96 c8 bd 78 5a 06 3d
       -0.00607921 0.11529607 -0.097943544 0.03280112
0000e0 07 50 19 3e 4a cf 32 3d c4 a7 ed bd bd 65 35 bc
       0.14971934 0.043654718 -0.116042644 -0.01107162
0000f0 de 63 23 be 89 9d b2 bc 75 a4 0f be 32 c6 40 3e
       -0.15956065 -0.021803634 -0.14027579 0.18825606
000100 be 2f 3e be 23 9d f4 3d cd 6c 45 be cf d3 32 be
       -0.185729 0.11944034 -0.19279785 -0.17463611
000110 0c dc 4e bd ad 33 c5 3d 21 4d a5 bd be 2b bf 3d
       -0.05050282 0.09628997 -0.08071352 0.09334515
000120 ed 70 2e 3d 8e db 82 3d 14 03 fc bd 55 a5 08 3e
       0.042588163 0.06389533 -0.123052746 0.13344319
000130 80 26 0e be 43 c8 a5 bc 48 89 2b be f9 00 b6 bd
       -0.13881874 -0.020237094 -0.16751587 -0.08886904
000140 d2 ea b5 bd dd cc 24 3e 1d 33 21 3e b1 44 37 3d
       -0.08882679 0.16093774 0.15742154 0.044743244
000150 66 9b 14 be 5f d3 4f bc 2e c1 62 3c d4 86 fb bd
       -0.14512405 -0.012684672 0.013840003 -0.12281576
000160 26 1d cd bd b1 e1 a9 3d b1 12 e8 3d 20 a3 19 3e
       -0.10015325 0.08295 0.1133169 0.15003633
000170 af a9 98 3d 48 07 d8 bd a4 75 a3 3d 94 03 91 3c
       0.074542396 -0.10548264 0.079814225 0.017701901
000180 ac 33 05 be 32 5f 26 3e b5 f6 f5 bc 75 0c 24 be
       -0.13007993 0.16247252 -0.030024866 -0.16020377
000190 81 f3 89 bd c3 a8 26 be ca 6f 9e 3b d9 ca 09 3d
       -0.06735898 -0.16275315 0.0048351036 0.033640716
0001a0 7b d5 54 3a 98 f3 cf bd db 5c 61 bd ee 77 e7 3d
       0.0008118969 -0.10153884 -0.055020195 0.11302172
0001b0 9c 2a 23 3e 59 98 37 be a0 ed 26 bd fa 9d bd bd
       0.15934223 -0.1792921 -0.04075396 -0.09258647
0001c0 f7 ab 23 be 91 ee 2d 3d fa d9 8a bc 75 c5 58 bd
       -0.15983568 0.042463843 -0.016949642 -0.052922685
0001d0 aa 57 2f be 27 e1 0a be ed a1 12 bd e4 84 a4 bc
       -0.17123285 -0.13562451 -0.035798956 -0.020082898
0001e0 23 0f 3e be 16 b7 5a bd d9 28 7d bc 55 6f a3 bc
       -0.18560462 -0.05339726 -0.015451633 -0.019950548
0001f0 20 af 0b 3e b6 33 41 be 02 07 c5 bd 3c 1a bc bd
       0.13641024 -0.18867382 -0.09620477 -0.09184691
000200 5c b4 f9 3c c6 8c db 3d 00 3d 07 3e 86 b6 2b bd
       0.03048151 0.1072021 0.13206863 -0.041922115
000210 c3 59 36 bb e3 29 25 3c 83 7b 09 3e f3 73 2e bd
       -0.0027824498 0.010080787 0.13426022 -0.042591047
000220 51 c1 bb 3d 62 43 3f 3d 50 a1 2e be 1a 68 0c 3e
       0.091677316 0.04669512 -0.17053723 0.13711587
000230 5f 8b 66 bc c8 e3 2a be 19 e3 1c be ba 26 7e bd
       -0.014071315 -0.16688454 -0.15321006 -0.06204865
000240 04 f5 01 be 7e 79 ac 3c de 50 08 3c f9 eb 3a 3e
       -0.12691122 0.021054026 0.0083200615 0.18254079
000250 3b 07 bb bc d7 7c 28 be 26 e8 59 bd a6 ca af bc
       -0.022830596 -0.16453873 -0.05319991 -0.021458935
000260 f1 d5 3b 3e b7 d8 2d 3e 8c c3 dd 3d 28 2d 3f 3e
       0.18343331 0.16977201 0.10828313 0.1866957
000270 12 42 89 bc 34 47 04 3e 79 b9 57 bd 22 c0 b5 3d
       -0.016755138 0.12917787 -0.052667115 0.08874537
000280 1f 9d 33 3e 87 ee 26 be 99 87 89 3d 29 ae 05 be
       0.17540406 -0.16301928 0.06715316 -0.13054718
000290 10 19 c6 bd 3f 85 f3 bd b0 e8 1d be d2 4f d0 3d
       -0.09672749 -0.11890649 -0.15420794 0.101714745
0002a0 01 d9 29 3e b2 05 8c bd 43 ba c3 3d 99 cb f8 3c
       0.16586687 -0.06837024 0.09557011 0.03037052
0002b0 02 23 2c 3e c2 1d 67 3d b6 ea 1d 3e 68 8e b5 bd
       0.1681023 0.056424864 0.15421566 -0.088650525
0002c0 4d ed 8b bd da f8 e1 bd 75 f3 b3 bd 28 a1 09 3e
       -0.06832371 -0.11033793 -0.0878667 0.13440382
0002d0 ee 15 3a be d9 b8 a8 bd 0a 1b c5 bd 24 2b 43 be
       -0.18172428 -0.08238382 -0.09624298 -0.19059426
0002e0 a4 97 27 3e e4 15 0d 3e f6 fd 34 be 92 b3 10 be
       0.1636644 0.13777882 -0.17675003 -0.14131
0002f0 f0 c4 3d bc ed 84 34 3e 71 fd eb 3b 04 20 f5 3b
       -0.011582598 0.17628832 0.0072018434 0.007480623
000300 a0 d2 84 bd 03 cc 05 be 65 12 0b 3c 52 1b 9e 3d
       -0.06485486 -0.13066106 0.008488272 0.07720055
000310 b8 29 0f bc 26 23 63 3d 54 e0 bc bd ba 4a e8 3d
       -0.008737974 0.055453442 -0.09222475 0.11342378
000320 8a e1 3b 3e 4e 60 10 be 67 f5 65 bd 22 d6 2c be
       0.18347755 -0.14099237 -0.056142237 -0.1687856
000330 29 24 45 be 78 4e 4d 3d e8 0e 35 3e 97 cf d4 bc
       -0.19252075 0.05012366 0.17681468 -0.025977893
000340 b2 dd 5a 3d 65 1b 44 3e e4 db 1f 3c 9e b7 45 3e
       0.05343408 0.19151075 0.009757016 0.19308326
000350 f7 df 2b be 65 e6 ba 3d e3 54 33 be ec e5 ad bd
       -0.16784655 0.091259755 -0.1751285 -0.0849112
000360 85 3c 1f be 6e 50 89 3d 91 6a ee 3d 62 84 42 be
       -0.1555043 0.06704794 0.1164142 -0.18995813
000370 e6 48 3f 3e 11 e7 35 be c7 e8 f5 bd 89 e5 6f bd
       0.18680152 -0.17763926 -0.120072894 -0.05856851
000380 f9 c2 ac 3d e6 6d ad 3d 9c ce a5 3c 77 33 ae 3d
       0.084356256 0.08468227 0.02024012 0.0850591
000390 65 e4 3d 3d 8b 59 29 3e 8b 72 c4 3d 4d 25 59 bd
       0.046360392 0.16538064 0.0959216 -0.05301409
0003a0 9d 32 11 be 85 81 a0 bd e2 11 d2 3c af 1c 0d 3d
       -0.14179464 -0.07837204 0.025643293 0.034451183
0003b0 55 3c 43 be a3 76 7c bd f2 56 7e bd a6 c5 15 3e
       -0.19065984 -0.06163658 -0.062094636 0.14626178
0003c0 cf 3a a0 bd 17 e8 ca 3d 5b e8 8b 3d ad f2 37 be
       -0.07823717 0.09907549 0.06831428 -0.17963667
0003d0 21 4a dd 3d 97 d1 ac 3d 7c 32 ee 3d 70 79 de bd
       0.108051546 0.084384136 0.11630723 -0.10863006
0003e0 d4 ec c7 bd 2f c5 40 3d 0a 51 b7 bd a4 ac 5a bc
       -0.09761968 0.04706305 -0.08951004 -0.013346825
0003f0 86 b4 a8 3d 43 da 03 3e af ec 1c 3e 77 f4 48 be
       0.08237557 0.12876229 0.15324663 -0.19624506

base.cnn.cnn.0.bias f4 [32]
000000 a7 1c 83 b2 11 c5 00 b3 2e e2 ac b2 bd 50 b5 b2
       -1.5263437e-08 -2.9981553e-08 -2.012629e-08 -2.1107889e-08
000010 05 9f b3 b2 ef 31 65 31 c1 ab 58 33 6a 37 79 b2
       -2.0910656e-08 3.335227e-09 5.044763e-08 -1.4506307e-08
000020 af d3 38 b3 67 7a 2e 33 df 90 2a 33 e2 96 cd b2
       -4.3033364e-08 4.0623856e-08 3.971297e-08 -2.3933755e-08
000030 b5 6f 60 32 a3 c4 19 b3 be 98 0e b1 f4 e2 b4 b2
       1.3063915e-08 -3.580193e-08 -2.0750544e-09 -2.1057964e-08
000040 f5 5f 88 b3 b5 f3 b4 32 aa 8c 67 33 28 9f cb 33
       -6.350448e-08 2.1065583e-08 5.3911812e-08 9.4818745e-08
000050 f4 70 e6 31 d0 0f 11 31 c8 e8 28 b4 ff a7 cc 32
       6.7067223e-09 2.1109265e-09 -1.5730905e-07 2.3825121e-08
000060 4e ef 0e b2 a8 4f ca b3 0b bb c0 b3 c5 69 f5 b2
       -8.319899e-09 -9.4208474e-08 -8.9747196e-08 -2.8569852e-08
000070 0f e3 d2 b3 e4 db 5d 33 05 6b b4 b3 f8 25 64 b3
       -9.820189e-08 5.165556e-08 -8.40137e-08 -5.311992e-08

base.cnn.cnn.1.weight f4 [32]
000000 f9 35 7f 3f 9f fa 7f 3f e1 0f 7f 3f 4b 4c 7f 3f
       0.9969173 0.9999179 0.99633604 0.9972579
000010 62 0d 7f 3f 8e 60 7f 3f 15 03 7f 3f 9c 3e 7f 3f
       0.99629796 0.99756706 0.9961408 0.9970491
000020 65 29 7f 3f 4c 82 7e 3f 2f de 7f 3f 12 07 80 3f
       0.9967254 0.9941757 0.999484 1.0002158
000030 4a d6 7f 3f 1b 77 7f 3f 79 87 7f 3f 0f 61 7f 3f
       0.99936354 0.99791116 0.9981609 0.99757475
000040 6f 68 7f 3f 42 af 7f 3f c6 36 80 3f 29 00 80 3f
       0.9976873 0.998768 1.0016716 1.0000049
000050 0e ef 7e 3f 62 35 7f 3f 8a db 7f 3f 3c ae 7e 3f
       0.9958352 0.9969083 0.99944365 0.9948461
000060 64 bc 7f 3f e1 b7 7f 3f c0 e5 7e 3f f5 13 80 3f
       0.99896836 0.9988995 0.9956932 1.000609
000070 56 94 7e 3f 8a 67 80 3f 57 3c 7f 3f 64 1e 7f 3f
       0.9944509 1.0031598 0.99701446 0.9965575

base.cnn.cnn.1.bias f4 [32]
000000 cd 5b 12 39 90 a2 93 3a 18 1e af ba 77 71 19 3a
       0.00013957843 0.0011263657 -0.0013360409 0.00058533944
000010 b1 ea b3 ba 48 f8 95 3a 4b ba cd ba 9e 97 e7 ba
       -0.001372656 0.0011441791 -0.0015695778 -0.0017669087
000020 bd b2 18 bb 6d ca d3 ba 8c 98 73 3b 56 ba 3e 3b
       -0.0023299896 -0.001615835 0.0037169782 0.0029102764
000030 55 6b 96 3a 1b 82 93 b8 6d 0b c6 ba 3a 0a 83 ba
       0.0011476079 -7.03374e-05 -0.0015109606 -0.0009997555
000040 80 48 21 39 96 b6 af ba 34 7c 1c 3a e6 26 b0 3a
       0.00015381165 -0.0013405855 0.00059694354 0.0013439327
000050 09 bf 76 bb 44 56 c2 ba 30 19 b7 3a 42 d2 2a ba
       -0.0037650487 -0.0014826735 0.0013969298 -0.0006516316
000060 cd 20 48 39 ae 2d fd 39 c7 11 17 3a 45 3b 17 39
       0.00019085706 0.00048289954 0.0005762842 0.00014422562
000070 19 1f 9d bb 70 8f 85 3b b1 62 e6 b9 76 87 ab ba
       -0.004794967 0.004075937 -0.0004394255 -0.0013086635

base.cnn.cnn.1.running_mean f4 [32]
000000 7a f3 69 3d 61 6c 42 3d db ed 9b bd 49 b5 38 3a
       0.057116963 0.04746664 -0.07613727 0.00070460566
000010 67 73 98 bd f3 f3 9d 3c 77 12 42 bd 47 3b 07 3c
       -0.07443886 0.019281363 -0.04738089 0.008253879
000020 f1 f7 0c bc d1 3d a1 bc 89 28 7d bd 28 85 57 3b
       -0.008604036 -0.019682797 -0.061806235 0.0032885764
000030 3c f4 56 bd b1 13 36 bd de 7f 42 3d e3 72 56 bd
       -0.052479014 -0.044452373 0.047485225 -0.05235566
000040 1b bb 8c bd f6 2b 19 3d f0 77 03 3d 74 d5 24 bb
       -0.06871625 0.03739544 0.032096803 -0.0025151642
000050 a2 93 3a 3d c5 aa fd bc 00 9b 0e bc 46 0b 1c bc
       0.04555095 -0.030965218 -0.008703947 -0.009524172
000060 cd ad 30 3c 60 27 f4 bc fe a6 84 bd a3 fb 56 3d
       0.010783625 -0.029803932 -0.06477164 0.052486073
000070 22 24 fb bb af b2 fe 3c e1 d1 b6 bb a2 9c 85 bc
       -0.0076642195 0.031091062 -0.0055792187 -0.01631004

base.cnn.cnn.1.running_var f4 [32]
000000 18 18 c1 3b 1d 61 82 3b 1a 76 15 3c e3 0b 39 3b
       0.005892765 0.003978862 0.009122396 0.0028235845
000010 6c 5f f0 3b b2 b4 4e 3b 16 4c 9e 3b b3 68 2a 3b
       0.007335594 0.0031540808 0.0048308475 0.0026002347
000020 d8 a4 1b 3b ea ba 0f 3b 91 bf e4 3b cf c3 a4 3a
       0.0023749378 0.0021931478 0.0069808443 0.0012570563
000030 0d cb cc 3b 45 89 94 3b fc 32 98 3b 86 d8 8e 3b
       0.0062497915 0.0045329654 0.0046447497 0.0043593077
000040 91 ef 05 3c ae 49 9e 3b 0e 12 ac 3b bd 12 24 3b
       0.008174793 0.0048305606 0.0052511757 0.0025035583
000050 87 4f 9a 3b 00 56 5e 3b b1 8f f3 3a 47 d9 61 3b
       0.0047091874 0.0033925772 0.0018582252 0.0034461783
000060 33 86 13 3b ef 66 48 3b 29 6f d2 3b 75 fb aa 3b
       0.002251041 0.0030578931 0.0064219427 0.0052179643
000070 ff 8d a2 3a 73 d1 4b 3b 5d a3 73 3b 4f 1c 19 3b
       0.0012401937 0.0031100183 0.003717623 0.002336282

base.cnn.cnn.4.weight f4 [64, 2592]
000000 8b 5c 96 39 2c 8c f0 bc 01 6d 91 ba 51 c9 32 3d
       0.0002867918 -0.029363714 -0.0011095108 0.04364902
000010 52 21 83 bd b6 69 02 3d 56 ce b0 3b 15 87 bf 3c
       -0.0640284 0.031839095 0.005395691 0.023379842
000020 d3 7d 2c 3c 03 45 fa 3b ac 03 e8 bc db 15 83 bd
       0.010528046 0.0076376214 -0.028322063 -0.06400653
000030 40 47 77 bd 2c 21 09 bd ae 09 84 bd e9 71 3f bd
       -0.060370684 -0.0334789 -0.06447159 -0.046739493
000040 df c5 72 bd 6c 19 95 bc de fa 20 bd 18 2b 1d 3d
       -0.059270736 -0.018200599 -0.039301746 0.038371176
000050 45 56 46 39 80 90 74 3d c3 21 87 bd 81 7b 3d bd
       0.0001891489 0.05970812 -0.065982364 -0.04626036
000060 87 2f 6f 3d 9e af 8f bb 63 c6 96 bb 0b b2 81 3d
       0.058394935 -0.004384949 -0.0046012863 0.06332787
000070 c6 f7 19 3d 8f 1e a4 3c 56 24 55 3d 65 7a 57 3d
       0.03758981 0.020034103 0.052036606 0.05260696
000080 3c a8 50 bd 72 55 43 bd 33 ba 02 bd e4 a2 ed 3c
       -0.05094169 -0.04768891 -0.031915855 0.029008336
000090 b1 05 29 3d c3 de 33 bd c8 c2 80 bd 3a 4c 9a bc
       0.041265193 -0.043913614 -0.062871516 -0.018835176
0000a0 f2 eb b9 3b 3f 0c 88 3c 4e c3 ae bc 2a ae 48 bd
       0.005673879 0.016607402 -0.021333363 -0.04899422
0000b0 f4 6a 0e 3d fd fc 32 3d ea d1 5b bd 4f 1f 5d 3d
       0.034769967 0.0436983 -0.053666987 0.053984936
0000c0 52 50 dc bc 95 ac 2b bc ae 90 74 3b d8 f0 a2 bc
       -0.026893768 -0.0104781585 0.003731768 -0.019890234
0000d0 88 64 7c 3d 6d 7a fa 3c a3 2a 1d 3d 47 49 59 bd
       0.06161931 0.030575955 0.03837074 -0.0530484
0000e0 5e 88 34 bd 3b 2d 05 3d de c9 12 3c 71 bd 07 3d
       -0.044075362 0.03251384 0.008959262 0.03313965
0000f0 e5 37 69 3d 6e 1c 2b bc fa 6f c5 bc cc 23 61 bd
       0.05693807 -0.01044379 -0.024101246 -0.05496578
000100 8a 2b 08 bd 6d fb 83 3b a9 cf 68 3d 9c f3 c2 ba
       -0.033244647 0.004027775 0.056838665 -0.0014873627
000110 ee ea 51 3c 65 b7 46 3d 8a 4a cd 3b 0e cf 81 3c
       0.012812359 0.048514742 0.0062649893 0.015845802
000120 44 91 6f 3d 19 6f a3 3c 32 ee 68 bd ae cf 35 bd
       0.058488145 0.019950436 -0.056867786 -0.044387512
000130 d6 b5 59 bd 01 3d 79 3d b2 08 64 3d 65 92 2b 3c
       -0.053151928 0.060849193 0.055672355 0.010471915
000140 b8 1b 0e 3c 13 9c 3f bd 8a 63 44 bd 27 e7 75 bd
       0.008673601 -0.046779703 -0.04794649 -0.060034897
000150 ea 0e 1d bd cb 95 39 3d 9b 36 0f bd 64 30 6f 3d
       -0.0383443 0.04530887 -0.034964185 0.05839576
000160 a6 f0 27 bd 2c 27 a3 bc 4f 39 2c bd 73 56 19 3d
       -0.041000985 -0.01991614 -0.04204684 0.03743596
000170 b4 22 d7 3c e1 6e 5e bd 2d cf 5f 3b f4 01 66 bd
       0.026261665 -0.05430496 0.0034150586 -0.056154206
000180 3a 94 12 bd 02 92 41 3d ae 71 7a 3d 32 de 25 3d
       -0.03578589 0.047258385 0.06114357 0.040495105
000190 4c 49 86 bd 71 45 95 bc f8 82 6b 3d 7c 3a 5d 3d
       -0.06556949 -0.018221589 0.05749795 0.054010853
0001a0 53 5c cf bc cf 95 5b 3c e5 f7 e4 bc 69 58 0d 3c
       -0.025312578 0.013402416 -0.027950237 0.008627036
0001b0 2e ba 49 bd 95 c1 4f 3c ef c2 e0 bb bd 75 02 bc
       -0.04924982 0.012680431 -0.0068591754 -0.007962641
0001c0 ae a1 89 3c 6f 85 fa 3c d9 39 2d 3d 7f 08 4a bd
       0.016800728 0.030581204 0.042291496 -0.04932451
0001d0 5d f6 51 bc 74 a7 76 bd b2 00 fd 3a ac 75 24 bd
       -0.012815085 -0.06021829 0.0019302575 -0.040151283
0001e0 cc 83 67 bd aa 28 5e bd 00 72 84 3d 42 1d 5f bd
       -0.056522176 -0.054238 0.06467056 -0.05447126
0001f0 5e e3 43 bd a4 a6 e1 3c 77 b2 07 bd ec 1a b4 bb
       -0.047824256 0.02754528 -0.03312918 -0.0054963734
000200 34 86 d3 3c 6b a0 01 3d 5b 48 ce bc 37 4f 25 3d
       0.025820829 0.031647127 -0.025180986 0.04035875
000210 6e d2 1c bd d0 95 4b bd c8 df a8 3c 65 cb ac 3b
       -0.03828662 -0.04970342 0.02061452 0.00527327
000220 33 e1 57 3c c0 22 13 3d b6 27 1d bd a6 30 0b bd
       0.01317625 0.035921812 -0.03836795 -0.03398194
000230 86 d8 03 bd 6b 21 5a bd 9e 0a 60 bc c9 87 fa 3c
       -0.032188915 -0.053254526 -0.013674406 0.030582326
000240 65 e6 00 3c 13 ae 68 3d 96 ac 03 bd 10 76 30 bd
       0.00786743 0.056806635 -0.032147013 -0.043081343
000250 0c da 3b bc 1c 90 a2 3a a9 b1 37 bd 18 f1 13 bd
       -0.011465561 0.0012402567 -0.044847164 -0.036118597
000260 b1 af 80 3c fc 11 7a bd 7e 08 2d bd fb 98 b8 3b
       0.015708776 -0.061052307 -0.042244427 0.005633471
000270 70 87 2c bc 5c 1e 09 bd f7 d4 de 3c a1 91 93 3a
       -0.010530338 -0.03347622 0.027201159 0.0011258611
000280 7b 6f 4a 3c 52 a0 db bb ee 46 c5 3c 97 b7 83 bc
       0.012355681 -0.0067024613 0.024081673 -0.016078753
000290 e5 0a f3 3c 09 7d 8b 3d 35 20 bc 3c 55 de 2d 3d
       0.02966828 0.06810958 0.022964576 0.04244836
0002a0 e2 d8 a3 3c 2f d3 3d 3d af 87 a5 3c 6d 9d 4c 3c
       0.020000879 0.04634398 0.0202063 0.012488705
0002b0 27 c6 1c 3d 56 92 87 3d 4b 1a b9 3c e9 09 ee 3c
       0.03827491 0.06619708 0.022595545 0.02905746
0002c0 00 8b 93 bc 63 b6 6c 3d b7 ed 53 bd fa c0 81 bc
       -0.018010616 0.057791125 -0.051740374 -0.015839089
0002d0 e5 d1 31 3c 7e de af bc 05 0c db bc a4 77 a1 bc
       0.010853265 -0.021468397 -0.02673913 -0.01971037
0002e0 44 9f 6a bd 26 10 1b bd 75 b8 69 bc ea a3 77 3d
       -0.057280794 -0.037857197 -0.014265169 0.060459055
0002f0 6e 97 26 bd 56 1b e9 bc ab 14 1d 3c 44 79 1f 3d
       -0.04067176 -0.028455418 0.009587447 0.038934007
000300 11 e0 01 bd f4 61 88 3d 79 db 4e bc f0 32 cc 3c
       -0.031707827 0.06659308 -0.012625569 0.024926633
000310 65 9b fa 3c 77 b4 7f bd 1a 9a 8a bc 60 f6 14 ba
       0.030591676 -0.062427964 -0.016919184 -0.00056824647
000320 66 78 a6 3c 7e 37 01 3c dd 92 41 3d 53 f8 df bc
       0.020321082 0.0078867655 0.0472592 -0.02734009
000330 6f 2d a5 3c 97 a3 d1 bc 49 26 65 bc d7 58 2d bd
       0.020163266 -0.025590701 -0.013986179 -0.042321052
000340 ba 4c 5e bc d7 b1 7f bd fb 68 63 bd 06 3f 9a 3c
       -0.013568098 -0.06242546 -0.05552004 0.01882888
000350 c8 2d 88 bc 79 6b 7c bd 19 91 73 3d 02 63 47 3d
       -0.016623393 -0.06162593 0.059464548 0.048678406
000360 05 d1 a3 3c 65 6e 79 3d 80 7c 22 3d 6b 0f 2f 3d
       0.01999713 0.060896296 0.039669514 0.042739313
000370 cd d0 84 bd 51 34 00 3c c8 cc 82 3c 13 2d 80 bd
       -0.06485138 0.007824973 0.015966788 -0.06258597
000380 e2 c4 86 3d 84 e3 82 bb d9 b4 60 3c 09 2c 84 bc
       0.06580521 -0.003994407 0.013714992 -0.016134279
000390 91 19 e3 bc 92 b9 7a 3d 0a f9 2b 3d 4e 7e 55 3d
       -0.027722152 0.06121213 0.04198555 0.052122407
0003a0 d1 00 61 3d e9 f7 56 3d 44 db 33 bd 30 3c 1f bc
       0.05493242 0.05248252 -0.04391028 -0.00971894
0003b0 75 44 e6 bc 6a bf 5b 3d ac 0c 3b bd 87 71 40 3d
       -0.028108815 0.053649344 -0.04566638 0.046983268
0003c0 01 88 76 bd f6 2a 77 bd 78 84 77 bc bc a5 85 bd
       -0.060188297 -0.060343705 -0.015107267 -0.06525752
0003d0 d4 8a e6 bc d2 d8 37 bc 53 a3 51 bd 51 7d 4d bd
       -0.02814237 -0.011221128 -0.05118115 -0.05016834
0003e0 d4 80 30 3d 4a 89 39 3d 5f 22 2a 3a 98 26 43 3d
       0.04309161 0.045296945 0.0006490107 0.047644228
0003f0 92 d4 1d 3d b1 98 0d 3d b7 fc 83 3d f0 b5 c0 bc
       0.0385328 0.034569446 0.06444686 -0.023524255

base.cnn.cnn.4.bias f4 [64]
000000 16 f3 e5 3a 48 e2 43 ba 99 5b 95 b9 53 e6 78 37
       0.0017543759 -0.0007472378 -0.0002848774 1.4835578e-05
000010 b0 e3 0d 39 48 fb 08 3b fd b7 d7 3a 5f 37 cc 3a
       0.00013531628 0.0020901728 0.0016458031 0.0015580467
000020 bb 2a 5f 39 22 bf c6 b8 c0 3a a0 ba 83 26 93 3a
       0.00021282856 -9.476977e-05 -0.001222454 0.0011226687
000030 3d 72 9e 3a e4 18 03 bb bd 63 eb ba f3 c7 f3 b8
       0.0012088489 -0.002000385 -0.0017958801 -0.000116243864
000040 1f a0 c9 3a 0c 65 9b b9 eb e8 97 ba 4d 1b 0c 39
       0.0015382803 -0.0002963919 -0.0011589801 0.00013361611
000050 46 e7 54 b9 90 e5 23 3b e6 4d b2 ba 25 a6 36 3a
       -0.00020304052 0.0025008656 -0.0013603538 0.00069675065
000060 c4 c3 23 3a 36 05 e7 ba 7f 93 ab 39 f6 e3 08 ba
       0.0006247128 -0.0017625454 0.00032725555 -0.0005221957
000070 73 56 24 bb e6 e6 8a b9 b9 b2 1c bb 07 28 21 bb
       -0.0025075942 -0.00026493444 -0.0023910238 -0.0024590509
000080 35 fc 23 b9 be 0d ac 39 0c fe 1b b8 e5 17 8d b8
       -0.00015638846 0.00032816635 -3.719148e-05 -6.7278546e-05
000090 50 aa 14 3b 1f b8 f3 39 21 3c 9f 3a b7 6a cf ba
       0.0022684522 0.00046485753 0.0012148657 -0.001582465
0000a0 34 b4 4f 39 db 3b a5 3a 3b 5e a7 3a 34 93 83 3a
       0.00019808189 0.0012606339 0.0012769172 0.0010038377
0000b0 59 66 46 39 99 ce 20 ba e9 eb 50 3a e9 32 c5 39
       0.00018920879 -0.0006134301 0.00079697237 0.000376127
0000c0 22 0b 9b b8 d1 89 79 3a 33 35 bf 39 22 ee 6b 3a
       -7.3930496e-05 0.00095191324 0.00036469995 0.0009000023
0000d0 99 17 bd 3a f5 f6 9c ba 2b ae 52 ba 1e 93 8a 3a
       0.0014426588 -0.0011975454 -0.00080368173 0.0010572409
0000e0 eb 61 41 bb f3 e8 1c bb 0d 05 26 bb da bf 84 ba
       -0.0029507827 -0.002394256 -0.00253326 -0.0010127977
0000f0 04 96 03 3b 36 d7 8b ba 3d 17 88 3a 84 cd 47 3b
       0.002007843 -0.0010668996 0.0010382902 0.0030487487

base.cnn.cnn.5.weight f4 [64]
000000 68 84 7f 3f 84 10 7f 3f 42 7f 7f 3f e1 78 7f 3f
       0.9981141 0.99634576 0.99803555 0.9979382
000010 67 21 7f 3f c8 cf 7f 3f 14 e1 7f 3f 30 51 7f 3f
       0.9966034 0.99926424 0.99952817 0.9973326
000020 91 fc 7e 3f cf 6d 7f 3f cb 42 7f 3f 60 fd 7e 3f
       0.99604136 0.9977693 0.99711293 0.9960537
000030 86 f4 7e 3f 23 30 7f 3f 5c 95 7e 3f 28 c9 7f 3f
       0.99591863 0.99682826 0.99446654 0.99916315
000040 b7 d6 7f 3f 1f f6 7e 3f ee f9 7e 3f 02 53 7f 3f
       0.99937004 0.995943 0.9960011 0.99736035
000050 88 19 7f 3f 2f 92 7f 3f 6d e5 7e 3f 5c 25 7f 3f
       0.9964833 0.99832433 0.99568826 0.9966638
000060 3c 19 7f 3f f6 e7 7e 3f 2e b4 7f 3f da 14 7f 3f
       0.9964788 0.99572694 0.9988431 0.9964119
000070 4f bb 7e 3f 09 cc 7e 3f 0d e7 7e 3f da 07 7f 3f
       0.9950456 0.9953008 0.99571306 0.99621356
000080 24 16 7f 3f 19 65 7f 3f 5e 3c 7f 3f c8 18 7f 3f
       0.9964316 0.9976364 0.9970149 0.9964719
000090 6b 0a 80 3f 45 62 7f 3f 05 54 7f 3f e6 ea 7e 3f
       1.0003179 0.9975932 0.9973758 0.99577177
0000a0 6e 69 7f 3f 3a bc 7f 3f ed 4e 7f 3f f1 a7 7f 3f
       0.9977025 0.99896586 0.99729806 0.99865633
0000b0 38 31 7f 3f 39 f8 7e 3f 30 31 7f 3f 9d 00 7f 3f
       0.99684477 0.9959751 0.9968443 0.9961031
0000c0 5d 08 7f 3f ef fc 7f 3f c7 73 7f 3f 29 2a 7f 3f
       0.99622136 0.9999532 0.9978604 0.99673706
0000d0 f3 1e 7f 3f b3 f7 7e 3f 35 50 7f 3f 49 5e 7f 3f
       0.996566 0.9959671 0.9973176 0.9975324
0000e0 48 bb 7e 3f 51 b3 7f 3f e3 c0 7e 3f 9f e3 7e 3f
       0.9950452 0.9988299 0.9951307 0.9956607
0000f0 14 bc 7f 3f 10 0a 7f 3f 14 ab 7f 3f 07 22 80 3f
       0.9989636 0.9962473 0.9987042 1.0010384

base.cnn.cnn.5.bias f4 [64]
000000 66 f0 fa 3a 1c 83 50 ba f0 2f e7 37 b6 e2 14 39
       0.0019145131 -0.0007954107 2.7559669e-05 0.00014198836
000010 59 7e f2 39 c8 8c 0a 3b cf 0e 29 3b 0a be b5 3a
       0.00046251973 0.002114104 0.002579618 0.001386584
000020 04 9e b4 39 a2 40 75 39 f6 8f ac ba 49 ef de 3a
       0.00034450006 0.00023389098 -0.0013165462 0.0017008568
000030 b7 a7 9d 3a dc 35 e5 ba 6f 16 c9 ba 28 79 9f 37
       0.0012028132 -0.0017487365 -0.0015341769 1.9010695e-05
000040 0c d3 f0 3a ec 96 a2 b8 95 4a a7 ba 0e d6 5a 3a
       0.0018373444 -7.752873e-05 -0.0012763316 0.00083479367
000050 31 36 2d b9 be 5f 2a 3b 5e eb d8 ba f1 62 12 39
       -0.00016518754 0.0025997008 -0.0016549637 0.00013960504
000060 c4 3a 96 3a 53 d7 fc ba d4 b5 40 3a 83 b0 b7 b9
       0.0011461605 -0.0019290246 0.0007351313 -0.00035035991
000070 b5 ab 18 bb 86 6d 18 3a 95 98 32 bb 23 bb 5d bb
       -0.0023295705 0.000581466 -0.002725159 -0.0033833466
000080 48 68 b4 b9 4a 1c 2d 37 43 e2 d7 38 c7 48 9c 37
       -0.0003440997 1.031819e-05 0.000102941434 1.8630539e-05
000090 1b 2a 54 3b 0a 2f df 39 32 f5 f8 3a a9 07 10 bb
       0.003237373 0.0004256892 0.0018993972 -0.0021977222
0000a0 17 59 5a ba 21 e0 d4 3a 37 42 aa 3a 98 8e 22 3a
       -0.00083293155 0.0016241112 0.0012989704 0.00062010577
0000b0 8d 25 d9 39 51 79 b7 ba 3b b4 9a 3a 9f 76 03 3a
       0.00041417443 -0.0013997947 0.001180298 0.00050149293
0000c0 a7 60 5d 39 d7 09 e1 3a fb 39 51 3a 5b 70 82 3a
       0.00021112208 0.001716907 0.0007981357 0.0009951697
0000d0 c8 d5 c8 3a 78 6d d6 ba b0 1a 5f ba 52 11 dc 3a
       0.0015322501 -0.0016359529 -0.00085107516 0.001678983
0000e0 d3 0f 6a bb 71 33 0b bb 1a 28 3b bb c3 ff 93 ba
       -0.0035714998 -0.0021240378 -0.0028557838 -0.0011291433
0000f0 23 ec d3 3a 4a 0d ea ba 20 d4 fb 3a 09 34 69 3b
       0.0016168397 -0.0017856744 0.0019212998 0.0035583994

base.cnn.cnn.7.weight f4 [64, 64]
000000 3d 86 1f 3e 10 42 23 3e 5a bf d9 bd 4f 35 3e 3e
       0.15578552 0.1594317 -0.106322005 0.18575023
000010 03 07 75 be f9 40 c5 3c fb 64 98 3e bd 7e 06 3d
       -0.23928456 0.024078833 0.29764542 0.03283571
000020 42 9c 0b 3e c7 3d 9a be 9f 01 60 3e 76 3d 90 be
       0.13633826 -0.30125257 0.21875618 -0.2817189
000030 6f c2 5f 3e e0 4f 9b be f9 29 22 bd 34 26 af bc
       0.21851514 -0.30334377 -0.03959081 -0.021380521
000040 60 59 e3 bd 6d 86 66 bd 18 cb 96 be 15 52 94 be
       -0.11101031 -0.056280542 -0.29451823 -0.28968874
000050 04 b8 9b bc 91 96 08 be e9 1a 88 bd 89 0b 26 3d
       -0.019008644 -0.13338687 -0.06645758 0.040538345
000060 15 fe aa 3c a3 49 4b be e5 e1 02 be 04 18 37 be
       0.020873109 -0.19852309 -0.12781484 -0.17880255
000070 1d f3 3e 3e 80 ba 98 be 6c f4 7d 3e c5 87 7c be
       0.18647428 -0.29829788 0.24800271 -0.24661167
000080 fd e1 8a 3e fa 53 8f bd 47 8b 32 3e 88 bc 50 bd
       0.2712554 -0.06998439 0.17435943 -0.050961047
000090 50 5c 5d 3d db 3e 7f bd 18 2c 6a 3e e0 c5 41 3e
       0.054043114 -0.062315803 0.22868383 0.1892314
0000a0 ec 6f 1f 3e e6 a2 e3 bd 81 58 89 3e a4 32 24 be
       0.15570039 -0.11115055 0.26825336 -0.16034943
0000b0 eb eb a6 bd 01 85 fd bd 25 74 b4 3c 86 98 99 3e
       -0.081504665 -0.12378884 0.022028038 0.2999918
0000c0 19 4c 7e be de 0e f6 bd 4d 69 7c 3d fe 20 f3 bd
       -0.24833716 -0.120145544 0.06162386 -0.11871527
0000d0 4e ce 4d 3e 1e 06 1a be c4 f6 62 3d c5 e6 c1 bd
       0.2009823 -0.15041396 0.055411115 -0.09467844
0000e0 87 d7 26 3e 25 b9 e7 3d ca 40 8b be 81 8f 1b be
       0.16293155 0.113146104 -0.27197868 -0.15191461
0000f0 a4 74 aa bd 9b 03 04 3d d0 f1 39 3d 73 c7 ae bd
       -0.08323029 0.03223 0.045396626 -0.08534136
000100 2f 6c de 3d 68 2d 1d be 6c 20 26 3e 88 41 9b be
       0.10860478 -0.15349352 0.16223305 -0.30323434
000110 43 ed 2a be ac 50 11 be 03 df 98 be bb 50 16 3e
       -0.1669207 -0.1419093 -0.29857644 0.14679234
000120 86 2c 8c be 7c af 72 be d9 05 84 be 99 03 77 be
       -0.2737772 -0.23699754 -0.2578571 -0.24122466
000130 d5 98 40 be 34 81 90 be 0e f6 11 3e 10 35 9b be
       -0.18808301 -0.28223574 0.14254019 -0.3031392
000140 69 06 c1 3d 0c a2 16 be 32 06 7b be 4a ee 38 bd
       0.09425051 -0.14710253 -0.24514082 -0.045149125
000150 da c8 a3 3c b6 b6 68 bd fd 7e 47 3e 67 11 5f 3e
       0.019993234 -0.05681487 0.19482036 0.21783982
000160 b0 12 9e bc 72 62 5f be c5 32 12 3e e1 a8 cb bd
       -0.01929602 -0.21814898 0.1427718 -0.099443205
000170 3d 15 9a be 44 d8 e1 3d 9d c6 cf bc 21 31 92 3e
       -0.3009433 0.110275775 -0.02536326 0.28553107
000180 f7 bd 95 3e ad 73 7b bd 76 dd f8 bd 63 54 3a 3e
       0.29246494 -0.061389614 -0.12151615 0.18196253
000190 32 c5 df 3c 20 a4 a7 bc 17 51 8e be dd b7 9b bd
       0.02731571 -0.020464003 -0.27796242 -0.076034285
0001a0 09 45 ca 3c 2b f5 2f be 9d b5 22 be d6 33 88 3b
       0.024691122 -0.17183368 -0.15889592 0.00415657
0001b0 d3 de 09 3d 63 12 7b bd 03 d6 3d be 09 d8 db 3d
       0.033659767 -0.06129683 -0.1853867 0.10734565
0001c0 21 01 8f 3e be 26 51 be d5 b2 68 3e dd 42 35 3e
       0.2793055 -0.20424935 0.22724469 0.17701288
0001d0 19 9f 28 be 0a 08 c4 3d 42 51 19 3e 3d cd e7 bd
       -0.16466941 0.09571846 0.14972404 -0.11318443
0001e0 8b 8c fe bd 27 68 04 3e 55 45 2c 3e e6 6a 0b be
       -0.1242915 0.12930356 0.16823323 -0.13614997
0001f0 75 2f 84 3e 10 b6 c9 3b 40 7d 35 bd 0e 67 e7 bd
       0.25817457 0.0061557367 -0.0443089 -0.11298953
000200 34 76 8d be 06 cd 6c be 1e d1 21 be 9a 8c 0f be
       -0.27629244 -0.23125085 -0.15802428 -0.14018479
000210 4c 06 7e 3d d9 1c 02 3e 75 cc f0 3d 5f 1a fd bd
       0.062017724 0.12706317 0.11757747 -0.123585455
000220 3d eb 9b be f4 43 d7 3c b4 70 78 be 46 c3 3a bd
       -0.3045291 0.02627752 -0.24261743 -0.045596384
000230 bf bd ce bd 4b 3a 9c bd d1 13 46 3e 9b 33 b9 3c
       -0.10094785 -0.07628306 0.19343497 0.022607615
000240 29 ff 4d 3e 2b 3d 7d 3e eb 78 16 be a9 7c 47 be
       0.20116867 0.24730365 -0.14694564 -0.19481148
000250 2c 74 90 bd c7 7b 3c be 5a cd 1e be 37 82 78 3d
       -0.07053408 -0.18406592 -0.15508023 0.060671058
000260 78 b3 8f bd 13 5b f6 3c 24 d5 1c be 74 ad 57 be
       -0.07016653 0.030072724 -0.15315682 -0.21062261
000270 f7 e7 94 be 88 be 26 3d 1f 0f 50 3e b0 75 94 3e
       -0.29083225 0.04070905 0.20318268 0.28996038
000280 57 68 66 bd 04 ca 56 bd 86 b4 90 3e b9 29 47 3e
       -0.05625185 -0.05243875 0.28262728 0.1944951
000290 7b 47 ba bd f6 02 0d be 2c bf 44 3e 3d 4c 17 3e
       -0.09095665 -0.13770661 0.19213551 0.14775176
0002a0 18 a0 37 bd 72 4c bc 3d 8d 3f 03 3e 62 45 72 bd
       -0.04483041 0.09194268 0.12817211 -0.0591482
0002b0 31 89 65 3d f7 ad 58 3e eb 7c 1a be 04 bd 83 be
       0.05603904 0.21160112 -0.15086715 -0.25730145
0002c0 3f 3b 7d be a0 5c 22 be c6 bf d6 3d fb 24 6e 3e
       -0.24729632 -0.15855646 0.10485797 0.23256294
0002d0 0e 11 e3 bd ee 1d 98 be 50 2d ce bd ef a3 74 bd
       -0.11087237 -0.29710335 -0.100672364 -0.05972665
0002e0 65 87 34 be 25 65 06 3e 23 d8 86 3e 4c cf 39 bd
       -0.17629774 0.13124521 0.26336774 -0.04536371
0002f0 41 71 d0 3d b8 09 95 be c4 17 3a be 80 3e 93 3e
       0.101778515 -0.29108977 -0.18173128 0.2875862
000300 38 fc 12 3e d1 76 8d be f6 19 76 3e 53 46 7d be
       0.14354026 -0.27629712 0.24033341 -0.24733858
000310 50 f3 93 3e 27 81 26 bd ac a8 84 bc a8 f1 09 3e
       0.2889657 -0.040650513 -0.01619371 0.13471091
000320 e1 3d 99 3e 8b 36 87 be 27 5a 26 be a1 a6 71 3e
       0.29930022 -0.264088 -0.16245328 0.2359872
000330 95 e4 f6 3d eb be 87 3e 40 9e 85 3d 26 9d 20 be
       0.12055317 0.26512846 0.065243244 -0.15684947
000340 ea f5 d6 3d ec 30 01 be da a1 29 be 31 08 b2 3d
       0.10496123 -0.12616318 -0.16565648 0.08692969
000350 36 3a 4f 3e e5 57 0b 3e b7 65 87 3e a1 9c 8d be
       0.2023705 0.13607748 0.2644479 -0.2765856
000360 d2 9d 98 bc c5 59 68 be 62 cf 3c bc 8d b8 67 3e
       -0.018629942 -0.22690494 -0.011524053 0.22628994
000370 87 6d 8e 3d 1c a5 83 be ee ca 8e 3e 99 ff 8c 3c
       0.069544844 -0.25711906 0.27889198 0.017211722
000380 2d f2 06 3e 90 e0 d9 bd a5 31 91 be 8b ce 4c be
       0.1317832 -0.10638535 -0.28358188 -0.20000665
000390 fe 2a 43 be 2f 9c 4a 3d 41 8c 75 bc fe b3 f8 bd
       -0.19059369 0.049465355 -0.014987052 -0.12143706
0003a0 7f b7 41 be ff 40 88 be e7 58 36 3e 4d 61 59 3e
       -0.18917654 -0.26612088 0.17807351 0.21228524
0003b0 ee 35 65 3d 20 5e 07 be f3 eb 37 3d e6 59 10 be
       0.055959634 -0.132195 0.044902753 -0.14096794
0003c0 2e 73 00 3e d1 ce 2e be 45 b0 06 3e 38 b4 5b be
       0.12543938 -0.17071082 0.13153179 -0.21455467
0003d0 70 0e d5 bd 7a be 34 be 69 4c 8b be f5 db af bd
       -0.10403144 -0.17650786 -0.27206734 -0.08586875
0003e0 35 48 76 be 6d e1 28 3e 44 4b b0 3d d5 02 82 bd
       -0.24050982 0.16492243 0.08608106 -0.063481964
0003f0 c3 db 3b 3e 29 1b 45 be 16 b5 91 be bf c1 1b be
       0.18345551 -0.19248642 -0.2845847 -0.15210627

base.cnn.cnn.7.bias f4 [64]
000000 35 09 13 3a 8d 3f 93 ba 77 6c 7a ba b1 2a c5 b7
       0.0005608977 -0.001123415 -0.00095529057 -2.350411e-05
000010 a2 ca 24 3a 1e 25 47 b9 6a 24 71 ba 36 64 96 39
       0.0006286298 -0.00018991946 -0.00091988465 0.00028684892
000020 0a 10 bd 3a 39 8d 9f ba 20 03 f2 b9 1d e2 3c 3b
       0.0014424336 -0.0012172825 -0.00046160165 0.0028821297
000030 07 24 8a 3b 32 fd 90 ba 5c 4f f5 3a c6 ff 52 ba
       0.0042157206 -0.0011061786 0.0018715668 -0.00080489775
000040 bf 44 17 3b 0b 3d 46 3b 96 95 af 3a 9c 51 67 3a
       0.0023081747 0.0030248787 0.001339602 0.00088241114
000050 0e fa 02 bb 80 f8 16 bb 81 5e 97 39 f8 21 34 ba
       -0.001998547 -0.00230363 0.00028871375 -0.0006871517
000060 c5 91 1d bb 09 b8 a4 ba 96 53 ba ba 0c 1e ec ba
       -0.0024043184 -0.0012567054 -0.0014215584 -0.0018014326
000070 19 b2 f6 3a 18 26 9c 39 02 9e 3b 3b 7c 67 40 ba
       0.0018821388 0.0002978302 0.0028628116 -0.0007339639
000080 68 39 89 39 59 f2 10 38 7e f2 15 ba 8a 2c b9 39
       0.00026173447 3.455798e-05 -0.0005720033 0.00035319134
000090 16 c3 bd ba 9b 26 cb b9 b8 0d 22 bb e1 a3 db 39
       -0.0014477696 -0.0003874794 -0.0024727415 0.00041893034
0000a0 95 50 82 3a 03 13 c7 39 89 36 ac ba 1e 56 45 3a
       0.0009942228 0.00037970403 -0.0013138811 0.0007527786
0000b0 33 5b e8 ba 66 04 b3 3a e2 12 cb ba f3 d1 a8 3a
       -0.0017727375 0.0013657927 -0.0015493298 0.0012879953
0000c0 1e b5 90 3a aa 1e a3 3a ec b4 e5 b9 67 ea 68 39
       0.0011040305 0.0012445052 -0.0004381308 0.00022212566
0000d0 6c 59 33 3a 40 c6 be ba 97 27 07 ba ae 2e 4d ba
       0.0006841633 -0.0014554933 -0.00051557407 -0.0007827085
0000e0 2a 4c 91 3a 9b 8b 11 3b 39 6e ef ba d1 7b b5 39
       0.0011085321 0.0022208455 -0.0018267102 0.0003461526
0000f0 46 d5 71 39 ac 8b 33 39 d8 f9 04 3b a2 6b f0 ba
       0.00023063002 0.00017122802 0.002029052 -0.0018342624

base.cnn.cnn.8.weight f4 [64]
000000 97 38 7f 3f 19 24 7f 3f c0 0c 7f 3f a5 f3 7e 3f
       0.99695724 0.99664456 0.9962883 0.9959052
000010 ba a1 7f 3f d9 29 7f 3f fb 09 7f 3f c4 e9 7e 3f
       0.9985615 0.9967323 0.99624604 0.9957545
000020 fc 49 7f 3f 20 df 7e 3f 7e 30 7f 3f cc 30 7f 3f
       0.99722266 0.9955921 0.9968337 0.99683833
000030 9a 89 80 3f 30 7f 7f 3f 3f cb 7f 3f 1c e0 7e 3f
       1.0041993 0.9980345 0.99919504 0.99560714
000040 7d e8 7f 3f 5c 7a 7f 3f f5 42 7f 3f 86 30 7f 3f
       0.99964124 0.9979608 0.99711543 0.99683416
000050 03 ee 7e 3f 33 fd 7e 3f 5b fe 7e 3f 55 39 7f 3f
       0.9958193 0.996051 0.99606866 0.99696857
000060 40 09 7f 3f 9f f6 7e 3f 88 20 7f 3f 0a ea 7e 3f
       0.9962349 0.99595064 0.99659014 0.99575865
000070 2a 05 7f 3f b1 11 7f 3f 63 a7 7f 3f f8 46 7f 3f
       0.99617255 0.9963637 0.99864787 0.99717665
000080 0c 8a 7f 3f e4 4a 7f 3f 99 36 7f 3f eb 4f 7f 3f
       0.9982002 0.9972365 0.99692684 0.9973132
000090 a9 60 7f 3f ff dd 7e 3f ee ae 7e 3f 7f 1e 7f 3f
       0.99756867 0.9955749 0.9948567 0.9965591
0000a0 3f 31 80 3f 54 ea 7f 3f 02 50 7f 3f 93 e8 7e 3f
       1.0015029 0.9996693 0.9973146 0.9957363
0000b0 73 f2 7e 3f bf 6b 7f 3f b9 47 7f 3f 1d eb 7e 3f
       0.995887 0.9977378 0.99718815 0.99577504
0000c0 23 fa 7e 3f eb eb 7e 3f ad 18 7f 3f 0e 57 7f 3f
       0.9960043 0.9957873 0.9964703 0.9974221
0000d0 05 18 7f 3f 01 1c 7f 3f 0b 24 7f 3f f5 2b 7f 3f
       0.99646026 0.99652106 0.9966437 0.9967645
0000e0 60 63 7f 3f 47 27 7f 3f 9e 7c 7f 3f 16 ea 7e 3f
       0.9976101 0.9966931 0.99799526 0.99575937
0000f0 98 1e 7f 3f 61 74 7f 3f 2a b8 7f 3f 85 3d 7f 3f
       0.9965606 0.99786955 0.9989039 0.99703246

base.cnn.cnn.8.bias f4 [64]
000000 e3 6a 2b 39 8b ea c3 ba c5 f5 a8 ba 40 c1 cf b9
       0.00016347649 -0.0014947219 -0.0012890628 -0.000396261
000010 93 8a d5 39 34 3e 1b ba f3 cf 84 ba 36 47 aa b8
       0.00040729772 -0.000592205 -0.0010132774 -8.119496e-05
000020 af 87 8b 3a 77 5c e7 ba fa f2 37 ba a6 87 20 3b
       0.0010645295 -0.0017651458 -0.00070171023 0.0024494915
000030 3b b2 88 3b 6f 29 9c ba f5 c0 c6 3a 98 4c 9c ba
       0.0041716374 -0.0011914204 0.0015163707 -0.0011924682
000040 bf 17 f3 3a 41 46 1b 3b 81 31 89 3a 0d d0 a4 39
       0.0018546506 0.0023692998 0.0010467024 0.00031435527
000050 fb 64 0b bb cd f6 15 bb b8 04 e0 39 88 d1 4e ba
       -0.0021269906 -0.00228827 0.00042728125 -0.0007889499
000060 3a c5 2f bb db dd ac ba 6f 49 e8 ba b2 0c 18 bb
       -0.0026820437 -0.0013188677 -0.001772208 -0.0023200926
000070 c2 8c aa 3a 39 c0 11 b9 0c 10 18 3b 95 90 64 ba
       0.001301192 -0.00013899886 0.0023202924 -0.0008719054
000080 6f 8c 28 b8 bc 68 c9 b9 32 00 38 ba b2 f9 3b b8
       -4.018511e-05 -0.0003841574 -0.0007019072 -4.481682e-05
000090 f3 1a d0 ba f4 90 6f ba 5b 24 37 bb c3 29 ba 38
       -0.0015877172 -0.0009138726 -0.0027945254 8.87695e-05
0000a0 da 7d 2a 3a 1c 7c 03 38 35 f4 e5 ba 7b 81 ca b9
       0.00065037387 3.134842e-05 -0.0017544093 -0.00038624913
0000b0 f5 78 ff ba bd ab 44 3a 09 00 e3 ba 55 28 41 3a
       -0.0019491004 0.00075023976 -0.0017318736 0.00073683757
0000c0 28 ad 12 3a 84 6d 13 3a 0b 35 79 ba e6 65 16 39
       0.00055952603 0.0005623924 -0.00095065 0.00014343075
0000d0 6e fe dd 38 4b e8 cf ba 71 cd 2d ba 5e 87 87 ba
       0.000105854924 -0.0015862075 -0.00066300394 -0.0010340025
0000e0 b1 79 41 3a bc cf ee 3a 79 f6 f6 ba b8 af 45 b8
       0.0007380499 0.0018219869 -0.0018841765 -4.713211e-05
0000f0 fb 96 90 b9 01 55 b9 b8 0d 1c cc 3a c5 d7 ea ba
       -0.0002757831 -8.837321e-05 0.0015572325 -0.0017917088

rnn.rnn.weight_ih_l0 f4 [192, 64]
000000 43 1a bd 3d dd a6 5f bd be c1 07 3e 5f 9a 92 3d
       0.09233525 -0.054602493 0.132575 0.0715835
000010 68 f0 d7 3c cd 20 35 bb 6a c7 8e bd 34 7a ab bd
       0.026359752 -0.002763796 -0.06971629 -0.08372918
000020 f6 b3 0f be c2 c1 0d 3e 9a 03 c1 3c 0e e4 0f 3e
       -0.14033493 0.13843444 0.023561288 0.1405184
000030 f1 f3 08 be 03 3b 81 3d df 54 09 be c1 6d d1 bd
       -0.13374306 0.06310084 -0.13411282 -0.10226012
000040 56 54 19 3e 82 f8 00 be 5e 78 0d be c8 81 4a bd
       0.14973578 -0.12594798 -0.13815448 -0.049440175
000050 10 5a 7b bd d1 02 06 be 98 e9 b3 3c ff 47 16 bc
       -0.061365187 -0.13087012 0.021961972 -0.009172439
000060 a6 9b 01 be 32 69 e8 bd 01 42 10 3d 31 8d 3e 3d
       -0.12657031 -0.113481894 0.035219196 0.04652137
000070 60 99 a7 3c 69 ab 06 be 3b fb f5 bd dc 2f c8 bd
       0.020458877 -0.13151325 -0.12010809 -0.097747535
000080 92 97 bd bd a0 24 08 be 1b 7d d1 bd d6 57 13 be
       -0.09257425 -0.13295221 -0.1022894 -0.14388976
000090 43 34 93 bd 5e ae d2 3d a3 3c da 3b 93 a8 29 bd
       -0.071877025 0.10287164 0.0066600605 -0.04142053
0000a0 4c fd 7c bd 68 6b 7b bd ba d3 d8 bd 44 4e a3 bd
       -0.061765 -0.061381727 -0.10587259 -0.07973912
0000b0 57 52 07 be 47 63 e6 bd 68 6e 0d be f6 41 65 3d
       -0.13215004 -0.112494044 -0.13811648 0.05597111
0000c0 27 3c bf bc ef 11 0b 3d 77 d6 06 3e 79 2c e0 3d
       -0.023344113 0.03395265 0.1316775 0.109459825
0000d0 61 0d 06 3e a7 e4 2c 3d 1f e9 06 3e 19 01 a6 3d
       0.13091041 0.042210247 0.13174866 0.08105678
0000e0 15 43 ca bc 12 51 e3 bc 91 80 2e 3d 8e f5 92 3d
       -0.02469019 -0.027748618 0.04260308 0.07175742
0000f0 f8 35 ec bc 77 0d b0 bd 05 a1 fe 3d c9 6c 04 be
       -0.028834328 -0.08596318 0.12433056 -0.12932123
000100 b2 d8 a9 bd 7c fb f9 bc fc 57 d3 3a c4 e6 b5 3d
       -0.082932845 -0.030515425 0.0016124244 0.08881906
000110 78 4a 11 3e 76 7c ff 3d 0a 9d 18 bb 28 be c9 bd
       0.14188564 0.12474911 -0.0023286962 -0.098507226
000120 47 54 a0 3d 69 72 8e 3d 6a 75 b6 bd 5e e9 16 3e
       0.07828575 0.06955416 -0.08909114 0.1473746
000130 6e 80 8e 3d 9b bc af bd 95 f8 47 bd 57 49 06 bd
       0.0695809 -0.085808955 -0.04882105 -0.032784786
000140 d5 50 eb bd b4 8f 01 be 62 05 01 3e 03 cb 6b bd
       -0.11490027 -0.12652475 0.1259971 -0.057566654
000150 b0 8d ab 3d 9f b9 8b 3d 4f 82 5b bd b2 e4 0d be
       0.08376634 0.06822514 -0.05359107 -0.13856772
000160 ce fa 73 bc 27 ba 3f bd dc 02 a2 bb 0b b7 13 3e
       -0.0148913395 -0.046808388 -0.0049441885 0.14425294
000170 36 4c 69 bd ec 54 ad bd f5 d2 68 bd a6 1a 6a bd
       -0.056957446 -0.08463463 -0.05684181 -0.05715432
000180 73 09 dc 3d 29 3c b5 3c e9 98 f2 3d bc 90 0a 3e
       0.1074399 0.022123413 0.118455715 0.13531774
000190 1c 7e 04 3e 2b 40 09 3e 9d c4 c7 3d f3 89 1e bd
       0.12938732 0.13403384 0.09754298 -0.038705777
0001a0 de b1 49 3d dc 0c b7 bd 21 c7 a0 bd c8 21 cc 3d
       0.049241893 -0.089379996 -0.07850481 0.09967381
0001b0 5b a3 98 3d 9f a1 e7 3d da c3 de bd 3d 0a 93 bd
       0.074530326 0.11310124 -0.108771995 -0.07179687
0001c0 3f 8a 78 bd ce 4d aa bd a7 aa fb 3c ad cf f6 3d
       -0.060678717 -0.08315621 0.030721022 0.1205133
0001d0 46 18 a2 3d 03 0a 9e 3c ac 91 6a bd 4a bc bd 3c
       0.07914786 0.019291883 -0.05726783 0.023161072
0001e0 61 c0 9b 3d d0 59 3f 3c 93 01 0a be 60 4e 79 3d
       0.07605053 0.011679128 -0.13477163 0.06086576
0001f0 c6 93 7b 3d 77 99 06 3e d2 2f 16 3e 38 9c df bd
       0.061420225 0.1314448 0.1466668 -0.10918468
000200 9a 54 0d 3d dc db f9 3d bc 3d d9 bd 42 d6 1a be
       0.03450451 0.12200138 -0.10607478 -0.15120795
000210 1c 12 63 bd 02 c4 0d 3e 36 a4 6e bc ec 8e 1d bd
       -0.055437192 0.13844302 -0.014565518 -0.03846638
000220 e4 57 13 3e 34 ed 34 3d aa e1 9f 3c 48 7c 17 3d
       0.14388996 0.044171527 0.019516785 0.03698376
000230 b5 a3 fe bd 30 dc ec bd ab b9 e9 bd 09 cb d5 3d
       -0.124335684 -0.11565435 -0.114123665 0.104391165
000240 67 b2 aa bc 19 38 04 be ca c7 81 3d 52 8e 43 bd
       -0.020837022 -0.12912025 0.06336935 -0.04774315
000250 7d 5e 14 3e a9 6a 0f be 6d 00 3f bd 14 8f d0 3d
       0.1448917 -0.14005531 -0.046631265 0.1018354
000260 02 ce bc bd 44 fa 19 3e 31 86 03 3d 39 c4 f0 3d
       -0.0921898 0.15036875 0.032110397 0.117561765
000270 2a 75 00 be 80 0d 92 bd f3 13 16 be fb d8 eb 3c
       -0.12544695 -0.07131481 -0.14656048 0.028789988
000280 9b f6 11 be 59 85 a0 bd 57 66 f0 3d b8 ec 99 3d
       -0.14254229 -0.07837934 0.1173827 0.07515854
000290 6c 98 a1 3d ed fb 13 bc cf ff bf 3d fd bb 0c be
       0.078904 -0.009032232 0.093749635 -0.13743587
0002a0 ff 27 9c 3d 49 91 16 be 84 38 61 3d 39 e6 f5 3d
       0.07624816 -0.1470386 0.054985538 0.12006802
0002b0 9a 19 64 bd b2 65 ae bd 90 65 cd bc 85 a8 80 3c
       -0.055688478 -0.085154906 -0.025072843 0.015705356
0002c0 57 a2 f3 3d 09 69 ce bd 2a 7f 89 3c b8 28 93 3c
       0.11896198 -0.100786276 0.01678427 0.017963752
0002d0 5d b1 ec 3d fe 05 26 3c 3e c9 15 bb af f3 05 be
       0.11557267 0.010133265 -0.0022855545 -0.13081239
0002e0 f1 74 cf bc 06 a0 c9 bd 9f 7c 0e 3e 69 b0 a7 3d
       -0.025324317 -0.09844975 0.13914727 0.081879444
0002f0 69 39 0b 3e 43 be 1f bc 65 fb f7 bd a2 19 ff bc
       0.13596119 -0.009749952 -0.121084966 -0.031140152
000300 b3 f6 8d bd 09 4a 81 3d 98 4a c5 3d 18 48 e2 3d
       -0.0693182 0.06312949 0.09633368 0.11048907
000310 bc 98 02 3e 3b c0 09 be e2 40 fa bd d9 63 56 3d
       0.12753576 -0.13452236 -0.12219407 0.052341316
000320 e7 a5 b8 3d e8 4c 1a 3e 3c a0 08 be 52 5c 19 3e
       0.09016018 0.150684 -0.13342375 0.14976624
000330 81 98 85 bc d9 0d 27 bd bc b4 6f 3d fc 21 af bd
       -0.016308071 -0.04078469 0.05852197 -0.08551404
000340 24 b5 23 bd c3 70 a1 3d 1e 2b 63 bd a5 3a 15 3d
       -0.03996767 0.07882836 -0.05546104 0.03643288
000350 6b de c7 bc 43 85 dd 3c ca 24 08 3e 74 eb 08 3e
       -0.02439805 0.027041083 0.13295284 0.13371068
000360 bb 89 e3 3d 5e 60 03 be 3d 02 df 3d f0 ac 5b 3d
       0.111102544 -0.1282973 0.10889099 0.053631723
000370 f3 3c b8 3d f8 43 08 be 13 bd a1 3d 5f 55 25 bd
       0.08996 -0.13307178 0.07897391 -0.04036462
000380 2b fd a9 3c e2 ed 5a 3d fe 11 ef 3d cd b9 18 be
       0.020750603 0.05344952 0.116733536 -0.14914627
000390 87 4c ef bd 3b 55 17 be fe dc 25 3c 7b 7e a4 3d
       -0.11684518 -0.14778607 0.010123489 0.08031937
0003a0 28 e0 ea bd 78 fb 14 be e2 09 82 bd ec a4 e1 3d
       -0.11468536 -0.14549053 -0.06349541 0.110177845
0003b0 34 48 e2 bc ca 30 52 3c 60 cf f1 3d 86 fd 0d bd
       -0.02762232 0.012829015 0.11807132 -0.034665607
0003c0 ea b7 e4 3d 22 4f 0c 3e fd 79 12 be 12 0e 95 bd
       0.11167891 0.13702062 -0.14304347 -0.07278074
0003d0 f3 55 dd bd 0e ad 8f bb 56 93 1c bc 7c 87 ea 3d
       -0.10807409 -0.0043846434 -0.009556612 0.11451623
0003e0 6c 68 f4 3d 34 a7 08 3e 69 d2 ab 3d 26 e5 74 3d
       0.119339794 0.13345033 0.08389742 0.059788845
0003f0 80 ab 8f 3b 01 6c fd bc c5 c0 05 be e9 58 af bd
       0.004384458 -0.03093529 -0.13061817 -0.0856188
