MARL/MAPPO-ATTENTIOAN/onpolicy/scripts/results/Meltingpot/collaborative_cooking__circuit_0/territory__inside_out/mappo/check/run41/models/actor_agent2.pt (torch, 795666 bytes, 22 tensors)

base.cnn.cnn.0.weight f4 [32, 3, 3, 3]
-0.04638015 0.007721257 -0.030954516 0.07634492 -0.16305974 -0.02440376 -0.15612061 -0.07802013
0.12904295 0.124905944 -0.12528092 0.04221792 0.11364585 0.08563267 0.07811265 0.052967444
-0.018557146 -0.060913626 0.030934675 -0.16586503 0.048706274 -0.09315273 0.18585137 -0.114994146
-0.061217155 0.035741236 0.17131285 -0.09875767 -0.14468141 0.0017233666 -0.18290196 -0.1931225
0.17796215 -0.054200914 0.12672637 -0.12196989 0.15884508 -0.1577102 0.0048479773 -0.09895277
-0.16409703 -0.10877669 0.1271523 -0.16084686 -0.053890564 0.055142853 0.05712306 -0.022820327
-0.08526013 -0.09056112 0.18677016 0.05137513 -0.0803658 0.019355988 0.030257272 -0.117798924
0.027073832 -0.16601093 -0.034813873 -0.1839891 0.070803344 -0.07003513 0.13604571 -0.13626929
-0.037276413 0.0730956 -0.0543635 -0.1018026 0.12225823 0.15663008 0.02439364 0.029578397
0.0153556075 -0.09496119 0.1710524 -0.16206269 0.057299078 -0.15604143 -0.028694928 -0.004288913
-0.12745501 0.07273365 -0.12989934 0.09991293 0.14489013 -0.05161323 0.075170845 0.02025595
-0.024229016 0.10716531 -0.16693646 -0.19219688 -0.14181346 0.121012785 0.12044072 0.05766665
-0.05610421 -0.11898326 -0.061875824 0.04349093 -0.04019828 -0.072826475 0.18871602 -0.111537516
0.16797295 -0.08565004 -0.021177685 0.08287876 0.17419259 0.18366994 0.09914681 -0.08734198
-0.12877634 0.14572991 0.17792271 0.10409001 0.056410875 0.15877618 0.0936953 -0.0902471
-0.18331403 -0.005445924 -0.017131552 -0.19074708 0.14841747 0.12784517 0.15354542 -0.042605672
-0.0045860778 0.17914353 0.1488031 0.17343852 -0.15956464 -0.08761852 -0.023826621 -0.13205647
0.16913158 -0.14229557 -0.09707367 -0.059529282 0.090565994 -0.07804369 -0.035442635 0.051502787
0.07821327 -0.08405996 -0.007414636 -0.13231431 -0.042285666 -0.084486604 -0.18500812 -0.07353537
-0.081879795 -0.12183028 0.009233042 -0.051166907 -0.043902665 -0.006845402 -0.14244507 0.1760982
0.089249656 0.07736906 0.16381483 -0.032033946 0.110255845 -0.0712492 0.070330516 0.12784229
0.106658034 -0.015185056 0.11887215 -0.039825693 0.14145477 -0.031338964 0.0775809 0.114371374
0.028308813 0.09010106 -0.13358416 -0.051506158 0.062857516 -0.09760831 0.10407436 -0.13841203
-0.102401786 -0.18697688 0.09180506 -0.057404883 -0.065128416 -0.17813171 0.015540653 -0.18544206
0.13160115 -0.034047782 -0.1898147 0.1917194 0.11625364 -0.04383971 0.19338496 0.030906517
-0.124970436 -0.1897877 0.007123166 -0.14004576 -0.090149164 0.13512854 0.053170297 -0.06824592
0.14592223 0.07059872 0.093202874 0.054021288 -0.0056346124 0.15526257 -0.14895032 0.03546233
-0.1680987 -0.057516944 -0.047361534 0.09589481 0.15098736 0.01252577 0.14404432 -0.12103437
-0.09687656 -0.18713081 -0.13701192 0.15088986 -0.1136185 -0.16234136 0.020142125 0.11979013
-0.15944456 -0.12837593 -0.10323932 -0.06463344 0.07568372 0.0062521887 0.08055888 -0.037428066
-0.0919468 0.052107055 0.1698175 -0.09264667 -0.1592702 0.16086411 0.07762561 0.110271655
0.16047879 -0.016852695 -0.18806702 -0.14312726 -0.17396851 -0.12998295 0.030717945 -0.096087486
00000000: 1df9 3dbd 9902 fd3b 5394 fdbc ba5a 9c3d
00000010: 22f9 26be 65ea c7bc 15de 1fbe 05c9 9fbd
00000020: d623 043e b0ce ff3d a449 00be b3ec 2c3d
00000030: 28bf e83d 2e60 af3d 86f9 9f3d 64f4 583d
00000040: 2805 98bc 9180 79bd b76a fd3c 86d8 29be
00000050: 3b80 473d dcc6 bebd d24f 3e3e 0d82 ebbd
00000060: d7be 7abd 6765 123d a36c 2f3e 7641 cabd
00000070: 5d27 14be 96e2 e13a a74a 3bbe e8c1 45be
00000080: b63b 363e c701 5ebd 8fc4 013e 5acb f9bd
00000090: 49a8 223e c87e 21be c8db 9e3b c0a7 cabd
000000a0: 0d09 28be 50c6 debd 3634 023e 0ab5 24be
000000b0: 5abc 5cbd 79dd 613d dff9 693d b2f1 babc
000000c0: dd9c aebd 1c78 b9bd ad40 3f3e ba6e 523d
000000d0: d396 a4bd 7390 9e3c 19de f73c 9040 f1bd
000000e0: f1c9 dd3c c5fe 29be fe98 0ebd a367 3cbe
000000f0: 5801 913d 946e 8fbd 914f 0b3e 2d8a 0bbe
00000100: 27af 18bd 25b3 953d 43ac 5ebd e27d d0bd
00000110: 8662 fa3d a363 203e 2cd5 c73c 654e f23c
00000120: 1696 7b3c 037b c2bd 5c28 2f3e c3f3 25be
00000130: 70b2 6a3d 53c9 1fbe a011 ebbc 038a 8cbb
00000140: 9183 02be 61f5 943d 5504 05be 269f cc3d
00000150: 145e 143e 6568 53bd 2cf3 993d ceef a53c
00000160: ee7b c6bc 7c79 db3d 64f1 2abe 42cf 44be
00000170: 8c37 11be 8dd5 f73d a0a9 f63d dd33 6c3d
00000180: 87cd 65bd 7fad f3bd 8171 7dbd 8c23 323d
00000190: f4a6 24bd 0c26 95bd c63e 413e c86d e4bd
000001a0: 1a01 2c3e 4a69 afbd d37c adbc 57bc a93d
000001b0: 8b5f 323e f913 3c3e 7c0d cb3d 5ae0 b2bd
000001c0: f2dd 03be 393a 153e 5f31 363e 252d d53d
000001d0: 170f 673d 3996 223e 52e3 bf3d 79d3 b8bd
000001e0: acb6 3bbe b973 b2bb 7857 8cbc 3453 43be
000001f0: c0fa 173e d8e9 023e 033b 1d3e 4983 2ebd
00000200: cf46 96bb 6771 373e d75f 183e de99 313e
00000210: ea64 23be 5771 b3bd 0c30 c3bc d039 07be
00000220: d430 2d3e eeb5 11be 8fce c6bd fad4 73bd
00000230: aa7a b93d 5fd5 9fbd 4c2c 11bd 96f4 523d
00000240: 472e a03d a127 acbd 7af6 f2bb 677d 07be
00000250: bc33 2dbd 5007 adbd c572 3dbe b699 96bd
00000260: 98b0 a7bd 2782 f9bd 2f46 173c 6494 51bd
00000270: 48d3 33bd 654f e0bb 1fdd 11be 1653 343e
00000280: 86c8 b63d ab73 9e3d 13bf 273e 0736 03bd
00000290: d1cd e13d 1aeb 91bd 7209 903d 17e9 023e
000002a0: 876f da3d beca 78bc 3e73 f33d 4420 23bd
000002b0: 85d9 103e 495d 00bd bce2 9e3d 8a3b ea3d
000002c0: e2e7 e73c e886 b83d 49ca 08be 1ff8 52bd
000002d0: 71bb 803d dee6 c7bd f024 d53d e2bb 0dbe
000002e0: 07b8 d1bd de76 3fbe 4b04 bc3d 6221 6bbd
000002f0: 0c62 85bd 2968 36be 399e 7e3c 86e4 3dbe
00000300: 74c2 063e b075 0bbd c95e 42be 1752 443e
00000310: 6316 ee3d 4591 33bd b506 463e aa2f fd3c
00000320: 80f0 ffbd b557 42be 7369 e93b 2868 0fbe
00000330: 20a0 b8bd 235f 0a3e 19c9 593d 84c4 8bbd
00000340: a36c 153e 1096 903d 26e1 be3d 6d45 5d3d
00000350: 8ea2 b8bb 27fd 1e3e 6f86 18be f340 113d
00000360: 1122 2cbe e396 6bbd 2bfe 41bd 8064 c43d
00000370: 6e9c 1a3e e338 4d3c 5b80 133e dee0 f7bd
00000380: 3867 c6bd 389f 3fbe da4c 0cbe df82 1a3e
00000390: d1b0 e8bd d03c 26be 1901 a53c 8754 f53d
000003a0: 6f45 23be fb74 03be 236f d3bd 895e 84bd
000003b0: 1100 9b3d 29df cc3b 0efc a43d 2c4e 19bd
000003c0: 9b4e bcbd 356e 553d a4e4 2d3e 8abd bdbd
000003d0: ba17 23be 90b9 243e 2dfa 9e3d 1bd6 e13d
000003e0: 8d54 243e aa0e 8abc a494 40be f48f 12be
000003f0: cd24 32be 401a 05be 33a4 fb3c 84c9 c4bd

base.cnn.cnn.0.bias f4 [32]
1.4148462e-07 6.5483476e-07 -1.8063939e-06 -1.5652127e-10 5.876619e-08 -2.4344868e-06 5.879204e-08 3.9682737e-07
2.7462735e-07 -2.2540159e-07 7.6544626e-07 1.937166e-07 4.41721e-06 2.540331e-07 -9.321232e-07 -5.407665e-07
7.2225454e-08 1.2696603e-07 1.2507437e-07 -8.9615344e-07 -4.323128e-07 -6.877878e-07 4.2526356e-09 -7.286273e-08
-1.0823641e-06 5.9635695e-08 -6.289083e-07 -5.8295245e-07 2.5023618e-07 2.1249038e-07 -1.3862856e-07 -2.4736197e-08
00000000: ffea 1734 e7c7 2f35 3973 f2b5 d218 2caf
00000010: 1c66 7c33 2a60 23b6 8882 7c33 8a0b d534
00000020: 7f70 9334 eb05 72b4 1179 4d35 6a00 5034
00000030: 8c37 9436 0b62 8834 0537 7ab5 3129 11b5
00000040: 5d1a 9b33 2854 0834 2e4c 0634 328f 70b5
00000050: 9e18 e8b4 6ba0 38b5 941e 9231 b678 9cb3
00000060: bf45 91b5 1211 8033 40d2 28b5 307c 1cb5
00000070: 3358 8634 e928 6434 eed9 14b4 797b d4b2

base.cnn.cnn.1.weight f4 [32]
1.0009257 1.0001 1.000184 1.0007632 0.99949884 1.001424 0.9982481 1.0006639
1.0012462 1.0001508 0.9974451 0.99856126 0.9985676 0.9984854 1.000196 0.9981447
1.0012511 0.99952054 1.0005641 0.9992453 0.99991447 1.0013211 0.9967208 1.0028865
1.0017328 0.99860466 0.999744 1.0010568 1.0004032 1.00207 1.0006543 0.9991881
00000000: 551e 803f 4703 803f 0806 803f 0219 803f
00000010: 28df 7f3f a92e 803f 308d 7f3f c115 803f
00000020: d628 803f f104 803f 9058 7f3f b6a1 7f3f
00000030: 20a2 7f3f bd9c 7f3f 6c06 803f 6986 7f3f
00000040: ff28 803f 94e0 7f3f 7c12 803f 8ace 7f3f
00000050: 65fa 7f3f 4a2b 803f 1829 7f3f 965e 803f
00000060: c838 803f 8ea4 7f3f 39ef 7f3f a122 803f
00000070: 360d 803f d443 803f 7115 803f cbca 7f3f

base.cnn.cnn.1.bias f4 [32]
0.0009456918 0.0018305675 -0.0006235948 -0.0006984985 -0.001115337 0.0004289836 -0.0010529566 0.00075256405
0.00036713807 0.00055068836 0.00058956293 -0.0016594914 -0.0009766604 -0.0005786184 -0.00012781704 -0.0013042857
0.00032363614 -0.0005176618 0.0010054789 0.0011072784 0.00036953783 -0.0015475827 -0.0031386362 0.0011705153
0.00089377706 0.0003719489 0.0006549222 0.0031439327 -0.0007860429 -0.0021463244 0.0015226129 -0.0008328182
00000000: 4de8 773a a7ef ef3a bd78 23ba 711b 37ba
00000010: 8030 92ba 34e9 e039 5c03 8aba b847 453a
00000020: 707c c039 125c 103a e68c 1a3a 4b83 d9ba
00000030: 4903 80ba 6cae 17ba a006 06b9 91f4 aaba
00000040: b5ad a939 b2b3 07ba 46ca 833a 1922 913a
00000050: 87be c139 42d8 caba 94b1 4dbb fa6b 993a
00000060: 5d4c 6a3a 2302 c339 16af 2b3a 700a 4e3b
00000070: 720e 4eba 59a9 0cbb 6992 c73a 7c51 5aba

base.cnn.cnn.1.running_mean f4 [32]
-0.0017616285 -0.098252505 -0.06919211 0.014069937 0.13866223 -0.0924656 0.050715916 -0.0037947982
-0.05952845 -0.02649844 -0.07933883 0.10700551 -0.019613853 -0.056684256 -0.0011119415 0.005655751
-0.10099317 0.034681592 -0.008214971 -0.08635465 0.083843924 0.00036872498 0.009045536 0.0013242698
-0.046949226 0.038824685 -0.018992687 -0.009635071 0.021165643 0.1155143 0.02752939 0.0072987266
00000000: 72e6 e6ba 9c38 c9bd 98b4 8dbd 9885 663c
00000010: 79fd 0d3e 9b5e bdbd 7ebb 4f3d 26b2 78bb
00000020: 1bd4 73bd 4213 d9bc 667c a2bd b425 db3d
00000030: 3bad a0bc c02d 68bd 91be 91ba e153 b93b
00000040: 82d5 cebd 490e 0e3d 1698 06bc b5da b0bd
00000050: 5db6 ab3d 6e51 c139 ba33 143c 1f93 ad3a
00000060: d54d 40bd a206 1f3d 8d96 9bbc 6bdc 1dbc
00000070: 9263 ad3c c392 ec3d 5185 e13c 282a ef3b

base.cnn.cnn.1.running_var f4 [32]
0.0024334395 0.008640031 0.005921984 0.005484972 0.010196579 0.0053998074 0.0034191334 0.0048910184
0.0052330433 0.0065395907 0.009034043 0.008371005 0.0024584802 0.003446169 0.0040726666 0.0030639006
0.00717122 0.003473334 0.003966616 0.006728851 0.006392784 0.0055241534 0.006120009 0.002480692
0.0044585825 0.0024293046 0.0029795915 0.0033704205 0.0024273787 0.007890197 0.0058885794 0.0030887965
00000000: 577a 1f3b eb8e 0d3c 340d c23b 48bb b33b
00000010: 8d0f 273c def0 b03b 8a13 603b d644 a03b
00000020: f379 ab3b 104a d63b 8603 143c 8a26 093c
00000030: 741e 213b 1fd9 613b 0174 853b b9cb 483b
00000040: 8efc ea3b e0a0 633b 63fa 813b b17d dc3b
00000050: 8f7a d13b f503 b53b 5b8a c83b 1b93 223b
00000060: 4d19 923b f834 1f3b 4045 433b 46e2 5c3b
00000070: a814 1f3b e345 013c fcf4 c03b 686d 4a3b

base.cnn.cnn.4.weight f4 [64, 2592]
0.04627746 0.018517455 0.041366518 0.018890876 0.015934745 -0.021921463 0.035527315 -0.049369153
0.06220208 -0.044175286 -0.051476296 0.062029567 -0.004504351 -0.0006503385 -0.016985083 -0.049601715
0.011780959 0.01573651 -0.054707665 -0.003785627 0.03291404 -0.029009033 0.03569925 -0.0033162823
-0.02390639 -0.003789674 0.0035286443 0.0418924 0.039798584 0.023297828 -0.05864855 0.035819456
0.00047608852 0.06181044 -0.03741744 -0.05277392 -0.012988679 0.017437305 -0.03990616 -0.023274608
-0.056147985 -0.026635597 0.03464788 0.035683587 0.041458324 -0.0021480308 -0.01435321 -0.04560967
-0.034596268 -0.010229394 -0.030334827 -0.028757144 0.024994137 -0.06638813 0.024766227 -0.036354914
-0.0022527685 -0.011241944 0.051253706 0.0011853476 0.01586496 -0.034915846 -0.018586442 -0.03660386
0.0545175 0.061007768 -0.05048712 0.060875874 0.010579948 0.0017463018 -0.011165109 -0.04938801
0.058001045 0.0025177803 0.01281241 -0.014737538 -0.035298593 -0.026319893 0.0017575494 0.007166515
-0.034614343 -0.053692073 -0.051744357 -0.02523373 0.060231686 -0.058945607 -0.056363598 -0.060598273
0.036388233 -0.04043469 -0.047864426 -0.004799568 0.01484634 -0.030070927 0.011495199 -0.019637149
-0.057020295 0.0630362 0.039839588 -0.042520776 0.0028975022 -0.05660571 -0.04545337 0.02222509
0.061734222 -0.0070525156 0.0020074951 0.050137915 -0.06583361 -0.04360017 0.029196719 -0.029583052
-0.04352038 -0.05666032 0.051520187 0.05208552 0.022174178 -0.03570182 0.016158758 -0.0063680275
-0.013383673 0.049386606 0.03450566 -0.029610857 0.049797706 0.05829509 0.06265532 -0.0024454745
0.049712084 -0.015747042 0.006556301 0.04118515 -0.059261255 0.034850873 -0.030307816 -0.04489455
-0.053701654 -0.03935288 0.010074318 -0.04931617 -0.041274868 0.027226033 -0.012636713 0.036938064
-0.056735493 -0.014051734 0.032128867 -0.046692394 -0.010629938 0.06479278 0.03691456 -0.05663083
-0.061297942 -0.05497539 0.045689166 0.015889555 -0.049010366 -0.053473957 0.03260384 -0.054630768
0.023285516 0.058985338 0.019997668 -0.004518766 0.06069499 0.053710777 0.0584037 0.060834285
0.010092234 0.0058991667 -0.013588469 0.014302144 -0.049527157 -0.032820262 0.011147391 0.0016456903
0.039427627 -0.045889143 -0.016542215 -0.013217013 0.047977403 0.035228916 -0.0622571 0.046364844
0.0031721846 0.022125946 -0.065307155 0.05575464 0.01161783 -0.028383039 0.029652689 0.039481495
-0.04943067 0.026427437 -0.035041578 0.014153459 0.014994904 -0.043889925 -0.06744618 0.026380818
-0.031045651 -0.054333553 0.0573491 -0.022938283 0.06656849 0.013711309 -0.041436203 -0.043016586
0.05884274 0.014502668 -0.010296707 0.010072937 -0.021400398 0.065209895 -0.005189401 -0.019209491
0.03588973 0.062812306 0.0020144426 0.051468126 -0.007615241 -0.035661966 0.036485996 0.042813648
0.034023806 -0.034076117 -0.057491113 0.043944053 0.05745908 0.046594962 -0.01885667 0.015311526
0.011821773 -0.056563523 -0.040274944 0.061825972 -0.0077056745 -0.06340096 0.05525843 -0.04361717
0.01834778 0.016804006 0.005708633 0.017761683 0.055026285 -0.05798368 -0.06178441 0.040215682
0.01402661 -0.032390606 -0.045652036 -0.029463418 0.022975987 -0.03083012 0.04894274 0.021716595
00000000: 6f8d 3d3d ebb1 973c f06f 293d 0ac1 9a3c
00000010: 9589 823c a494 b3bc 1785 113d 4f37 4abd
00000020: 9cc7 7e3d 25f1 34bd cfd8 52bd b712 7e3d
00000030: 3c99 93bb 7a7b 2aba 4d24 8bbc 2b2b 4bbd
00000040: ec04 413c dae9 803c 2515 60bd 4818 78bb
00000050: dfd0 063d 5aa4 edbc 6039 123d fc55 59bb
00000060: 55d7 c3bc 2e5c 78bb d440 673b 5d97 2b3d
00000070: d703 233d 16db be3c 7639 70bd 6cb7 123d
00000080: 859b f939 f22c 7d3d 0843 19bd 7729 58bd
00000090: 78ce 54bc aed8 8e3c a474 23bd 64aa bebc
000000a0: 6efb 65bd e532 dabc efea 0d3d f428 123d
000000b0: 34d0 293d fac5 0cbb ba29 6bbc 35d1 3abd
000000c0: d1b4 0dbd 3099 27bc be80 f8bc 1a94 ebbc
000000d0: 81c0 cc3c 80f6 87bd 8be2 ca3c e4e8 14bd
000000e0: 2fa3 13bb 2130 38bc 68ef 513d aa5d 9b3a
000000f0: 3cf7 813c eb03 0fbd 9842 98bc eeed 15bd
00000100: be4d 5f3d 48e3 793d 95cb 4ebd fb58 793d
00000110: 8557 2d3c 2ae4 e43a dded 36bc 154b 4abd
00000120: 8192 6d3d 5801 253b 24eb 513c b775 71bc
00000130: 4295 10bd d19c d7bc 925d e63a 16d5 ea3b
00000140: c5c7 0dbd 38ec 5bbd e4f1 53bd f8b6 cebc
00000150: 80b5 763d f370 71bd 84dd 66bd e535 78bd
00000160: d40b 153d d89e 25bd 7d0d 44bd b245 9dbb
00000170: 103e 733c 4e57 f6bc 5c56 3c3c 16de a0bc
00000180: 1d8e 69bd 2019 813d d62e 233d 442a 2ebd
00000190: 05e4 3d3b 64db 67bd 502d 3abd 6411 b63c
000001a0: 06dd 7c3d ca18 e7bb 2e90 033b 6a5d 4d3d
000001b0: c6d3 86bd 1896 32bd f52d ef3c 2858 f2bc
000001c0: 6d42 32bd a714 68bd d506 533d a057 553d
000001d0: 9fa6 b53c 123c 12bd 5f5f 843c e3aa d0bb
000001e0: 3147 5bbc 9c49 4a3d cf55 0d3d 7892 f2bc
000001f0: aef8 4b3d d5c6 6e3d 6f51 803d 4144 20bb
00000200: e69e 4b3d f1ff 80bc 3dd6 d63b c3b1 283d
00000210: eebb 72bd cabf 0e3d 1948 f8bc 59e3 37bd
00000220: 44f6 5bbd 7c30 21bd c10e 253c c1ff 49bd
00000230: d60f 29bd 2109 df3c 370a 4fbc 5e4c 173d
00000240: 7a63 68bd 3e39 66bc 8f99 033d 8640 3fbd
00000250: 3129 2ebc 14b2 843d b933 173d bbf5 67bd
00000260: 8d13 7bbd e02d 61bd 9024 3b3d d02a 823c
00000270: 18bf 48bd 8207 5bbd 9b8b 053d 83c4 5fbd
00000280: 44c1 be3c 9c9a 713d 26d2 a33c 2812 94bb
00000290: 4f9b 783d d5ff 5b3d b838 6f3d 5f2d 793d
000002a0: e659 253c cc4d c13b 2ba2 5ebc 8a53 6a3c
000002b0: fddc 4abd 8a6e 06bd 8ca3 363c 34b4 d73a
000002c0: dd7e 213d 41f6 3bbd 8a83 87bc 2c8c 58bc
000002d0: f483 443d 324c 103d 4d01 7fbd 10e9 3d3d
000002e0: 6de4 4f3b 7941 b53c c2bf 85bd fa5e 643d
000002f0: b658 3e3c 8c83 e8bc 32ea f23c 59b7 213d
00000300: d077 4abd 5a7e d83c c287 0fbd e9e3 673c
00000310: 30ad 753c ecc5 33bd 3921 8abd 961c d83c
00000320: 7353 febc dc8c 5ebd e4e6 6a3d 11e9 bbbc
00000330: 0f55 883d 66a5 603c 02b9 29bd 2932 30bd
00000340: 1605 713d 999c 6d3c 85b3 28bc f608 253c
00000350: e34f afbc c48c 853d da0b aabb 395d 9dbc
00000360: 1c01 133d bda3 803d bd04 043b 3ed0 523d
00000370: 4689 f9bb 4812 12bd 5772 153d 5d5d 2f3d
00000380: 8c5c 0b3d 6693 0bbd cd7b 6bbd aefe 333d
00000390: 365a 6b3d 5cda 3e3d 4e79 9abc 32dd 7a3c
000003a0: 1cb0 413c 27af 67bd 57f7 24bd 3b3d 7d3d
000003b0: e27f fcbb 5dd8 81bd aa56 623d eba7 32bd
000003c0: 154e 963c 8ea8 893c 7c0f bb3b f380 913c
000003d0: 3e63 613d 4c80 6dbd a611 7dbd 33b9 243d
000003e0: decf 653c 03ac 04bd a1fd 3abd 445d f1bc
000003f0: 2338 bc3c 738f fcbc 2f78 483d 00e7 b13c

base.cnn.cnn.4.bias f4 [64]
-0.0017403322 -0.00072254636 0.00088417734 0.0013021718 -8.40439e-05 0.0008236081 -0.00044919993 0.0017852087
0.003078499 -0.0018472057 9.386333e-05 -0.0016100311 -0.00053593307 0.0008343603 0.0006997226 -0.0020888878
0.0003720353 0.00066754187 -0.0016945516 7.123038e-05 -0.0019579537 -0.0005256507 -0.001055765 -0.0008350298
0.0012737466 0.0003840272 0.00036492955 -0.0007002284 -0.0019682182 0.0017653289 0.00096590456 0.0015933579
-0.00085063267 -0.0008611429 -0.00081071607 0.00021692336 -0.0005921159 0.0012564942 -0.00080678356 -0.0016141926
-0.0004308772 -0.001712825 0.0024057627 0.00036202336 0.0012146701 0.0026555262 -0.0017863566 0.00030289387
0.0014878175 0.00019352419 0.00019289007 0.0016600494 0.0014814989 0.0006354403 0.00090724987 -0.0008526495
0.001319711 0.0022922372 0.00034647642 0.0007259563 0.001909563 -0.00055968465 -0.00039704083 0.0017675002
00000000: dc1b e4ba 4469 3dba 23c8 673a a3ad aa3a
00000010: ba40 b0b8 67e7 573a 9882 ebb9 aafd e93a
00000020: a5c0 493b f01d f2ba 7ed8 c438 ae07 d3ba
00000030: dc7d 0cba f9b8 5a3a 976d 373a b9e5 08bb
00000040: bc0d c339 fafd 2e3a b71b deba 8561 9538
00000050: 0351 00bb d2cb 09ba 9861 8aba e7e5 5aba
00000060: d8f3 a63a 4257 c939 0454 bf39 888f 37ba
00000070: 39fd 00bb 9c62 e73a c234 7d3a 38d8 d03a
00000080: fefc 5eba 52be 61ba 3c86 54ba ec75 6339
00000090: 3a38 1bba f3b0 a43a 547e 53ba 5193 d3ba
000000a0: 5ce7 e1b9 df80 e0ba 00aa 1d3b f4cd bd39
000000b0: 9135 9f3a 5608 2e3b 2e24 eaba bacd 9e39
000000c0: df02 c33a c1ec 4a39 8942 4a39 0496 d93a
000000d0: db2e c23a ad93 263a 82d4 6d3a 5784 5fba
000000e0: 27fa ac3a 5c39 163b 47a7 b539 1a4e 3e3a
000000f0: 4d4a fa3a cdb7 12ba eb29 d0b9 77ab e73a

base.cnn.cnn.5.weight f4 [64]
0.99839497 0.99989384 1.0000739 1.0006149 1.0008374 1.0022486 0.9996296 1.0004977
1.0001422 0.9989073 0.9989422 0.99711597 0.9986023 0.99878234 0.9977414 0.99812245
1.000024 1.0014697 0.9969133 0.9996568 0.9963967 1.000131 0.99812144 0.99843574
1.0020937 1.0030464 0.99873567 1.0007924 0.9990229 1.0002135 1.001161 1.0010141
0.9977665 0.9987218 0.9973313 1.0015888 1.0011824 1.0011631 0.9993915 0.99842006
0.9979783 0.99889386 1.000659 0.99861825 1.002027 1.0027275 0.9976617 1.0018013
1.0005052 0.99926513 0.99814975 1.0021005 1.0022954 1.000181 0.999639 1.0014997
1.0024773 1.0015969 0.99909335 0.9989528 1.0005851 1.0001383 0.9982811 1.0018711
00000000: d096 7f3f 0bf9 7f3f 6c02 803f 2614 803f
00000010: 711b 803f af49 803f bae7 7f3f 4f10 803f
00000020: a904 803f 64b8 7f3f adba 7f3f fe42 7f3f
00000030: 66a4 7f3f 33b0 7f3f fb6b 7f3f f484 7f3f
00000040: c900 803f 2930 803f b635 7f3f 82e9 7f3f
00000050: db13 7f3f 4b04 803f e384 7f3f 7c99 7f3f
00000060: 9b44 803f d363 803f 24ad 7f3f f719 803f
00000070: f7bf 7f3f ff06 803f 0b26 803f 3b21 803f
00000080: a06d 7f3f 3bac 7f3f 1b51 7f3f 1034 803f
00000090: bf26 803f 1d26 803f 1fd8 7f3f 7598 7f3f
000000a0: 827b 7f3f 82b7 7f3f 9815 803f 72a5 7f3f
000000b0: 6c42 803f 6059 803f c266 7f3f 063b 803f
000000c0: 8e10 803f d7cf 7f3f be86 7f3f d444 803f
000000d0: 374b 803f ee05 803f 57e8 7f3f 2431 803f
000000e0: 2d51 803f 5434 803f 95c4 7f3f 5fbb 7f3f
000000f0: 2c13 803f 8804 803f 5a8f 7f3f 503d 803f

base.cnn.cnn.5.bias f4 [64]
-0.0019582193 -0.0005851312 -0.00015666749 0.0007070591 -0.00022261168 0.00095969415 -0.00048739984 0.0012203169
0.0023763354 -0.0018004299 -0.00042872204 -0.0019017096 -0.00086553267 -0.0010123934 0.00018804174 -0.001557204
-2.1162616e-05 0.0012767005 -0.001866236 0.0001459209 -0.0025420086 -0.00016147998 -0.0013452789 -0.0011725171
0.0016408879 -0.00015095015 0.00058676023 -0.0006130305 -0.0013351073 0.0012361722 0.0005048901 0.0016546061
-0.0009377248 -0.001398806 -0.0022472388 -0.00018146183 -0.0003789784 0.0005467477 -0.00046033156 -0.002398495
-0.00027863975 -0.0018934455 0.0018866363 6.200866e-05 0.0008973249 0.002250512 -0.0024246573 0.0008015085
0.0020408025 -0.00012555736 -0.00086181983 0.0022096224 0.0007455899 0.0002443663 0.00051349436 -0.00035214124
0.0011300697 0.0023337964 0.0003071871 0.0007441683 0.0002764282 -0.00041423502 -0.0013155596 0.0019500572
00000000: 7855 00bb 7d63 19ba 1c47 24b9 ef59 393a
00000010: de6c 69b9 fc93 7b3a b389 ffb9 0af3 9f3a
00000020: 4bbc 1b3b 67fc ebba 19c6 e0b9 c942 f9ba
00000030: eae4 62ba 49b2 84ba 122d 4539 191b ccba
00000040: 5f86 b1b7 f656 a73a 7d9c f4ba 5802 1939
00000050: d497 26bb f452 29b9 1254 b0ba 25af 99ba
00000060: 1013 d73a 5f48 1eb9 d0d0 193a c8b3 20ba
00000070: c4fe aeba 0e07 a23a 9a5a 043a 5edf d83a
00000080: a5d1 75ba 2458 b7ba 6946 13bb ca46 3eb9
00000090: 9fb1 c6b9 9e53 0f3a a858 f1b9 1230 1dbb
000000a0: 6516 92b9 7d2d f8ba 0249 f73a a50a 8238
000000b0: 743a 6b3a 537d 133b 00e7 1ebb 531c 523a
000000c0: fcbe 053b 0ca8 03b9 c0eb 61ba 50cf 103b
000000d0: b173 433a 4a1e 8039 069c 063a 999f b8b9
000000e0: d91e 943a 9bf2 183b f40d a139 4a14 433a
000000f0: 91ed 9039 af2d d9b9 db6e acba 1099 ff3a

base.cnn.cnn.7.weight f4 [64, 64]
0.050470624 -0.16359548 -0.1254814 0.05884019 -0.13353755 0.29103538 -0.19953325 0.12714711
-0.14800715 0.20566362 0.26423115 -0.032748017 0.24885806 0.09415803 -0.18568864 0.2586709
0.24247473 -0.23876613 -0.21031405 -0.06937019 0.035816476 -0.2540734 -0.11323718 -0.11362849
-0.2717204 -0.1894968 0.21887735 0.24191353 0.19556172 0.1976915 0.059990034 0.26582125
-0.07578712 0.0880437 0.08873545 0.27996272 0.034531012 -0.241172 -0.0602564 0.22050175
-0.26086804 0.23156902 0.16697691 -0.085760295 -0.060626365 -0.16016044 0.07828442 -0.051236995
-0.20885423 0.2843988 0.058137916 0.16355747 0.05328665 0.1638878 -0.18581496 0.3049197
0.27428204 -0.1509806 -0.037238352 0.135756 -0.14929545 -0.25881878 -0.24032407 -0.016462458
-0.048756413 0.12376029 0.1986629 0.12407588 -0.06138933 -0.24046072 0.10006685 0.08875972
-0.013559576 0.30151218 0.2137411 0.117594115 0.24043834 0.06862889 -0.07801459 -0.17862684
-0.039195895 0.016830837 -0.17475738 0.1276188 -0.17941146 -0.049992308 0.04110342 -0.19275089
0.1965346 0.005936963 0.24191363 -0.22184594 -0.021814292 0.06621617 0.0889218 -0.15960069
0.26800075 0.23818697 0.20286179 -0.06538865 -0.06912921 0.18199424 0.15122128 -0.2520997
0.06120134 -0.14024092 -0.27318808 0.2805567 -0.11667148 0.13910194 -0.1084748 0.035653416
-0.25845706 0.24716735 0.114995815 -0.20691241 -0.16561586 -0.24132347 0.18806532 -0.1622686
-0.21764202 -0.059777554 0.020278579 -0.1629658 0.152956 0.106902674 0.006394124 0.022910254
0.21607023 -0.06347592 -0.030150076 0.089885004 0.25242046 0.13686416 -0.11517899 -0.008125351
0.040735383 -0.23004024 -0.28185284 0.2895099 0.17431 0.06873619 -0.23378527 0.046134267
-0.2638479 -0.13356179 -0.0885794 -0.11372298 0.19747607 0.050664138 -0.120965384 -0.010193173
0.1568241 0.17399502 -0.12665968 0.057222027 -0.042148154 0.004613674 0.27233204 -0.011758157
0.08802175 -0.14271803 -0.17236638 -0.12773915 0.29436976 0.056961715 0.11963749 0.071552
-0.05927147 0.07470257 0.29609403 0.076117046 -0.20817773 -0.11657254 -0.08903727 -0.11170686
-0.21170992 -0.17718878 -0.05679746 0.26316983 -0.17764865 -0.1394875 -0.11089287 0.074986115
-0.113327205 0.21401425 0.23338777 -0.16386731 -0.24238911 -0.02202589 -0.17482129 0.24754661
-0.25422326 -0.076334655 -0.0068568266 -0.22004144 0.056969617 0.070222415 0.09381336 0.21614592
0.23683757 0.23001367 0.0018866389 -0.29488865 -0.16636576 -0.17369135 -0.037112057 0.18236758
0.29989243 -0.21754615 0.0003993306 -0.21622954 0.1799052 0.29345512 -0.07437171 0.16874002
-0.010295859 0.19352087 -0.13399811 0.057882622 -0.26757574 -0.16233337 0.2336295 -0.22680187
0.028871574 0.18456692 -0.09400691 0.22109346 0.20319866 -0.12565488 0.20998643 0.058172267
-0.07145107 -0.22975515 0.1597503 -0.1967757 -0.13491568 -0.28850803 0.060936764 0.17308497
-0.10233426 0.04575545 -0.17280911 0.06973409 0.1922569 0.14356084 -0.1639129 0.14584573
0.26178145 0.0007401961 0.14205357 0.21705215 -0.13548358 0.29662904 0.017040076 -0.26344272
00000000: 49ba 4e3d 9385 27be 327e 00be 6902 713d
00000010: 11be 08be 9702 953e 7252 4cbe da32 023e
00000020: 308f 17be 7c99 523e 4e49 873e c922 06bd
00000030: a6d4 7e3e edd5 c03d 2a25 3ebe 8370 843e
00000040: 4c4b 783e 1c7f 74be 915c 57be f511 8ebd
00000050: 4cb4 123d e915 82be e5e8 e7bd 0eb6 e8bd
00000060: f01e 8bbe 730b 42be 6221 603e 2eb8 773e
00000070: 5541 483e a46f 4a3e 1cb8 753d b919 883e
00000080: 4736 9bbd 4150 b43d eeba b53d 4657 8f3e
00000090: 6470 0d3d cbf5 76be 6acf 76bd 36cb 613e
000000a0: 7f90 85be 6e20 6d3e fffb 2a3e 18a3 afbd
000000b0: 5a53 78bd 1901 24be 9553 a03d e2dd 51bd
000000c0: e2dd 55be b89c 913e 0622 6e3d 9c7b 273e
000000d0: 1a43 5a3d 34d2 273e 4746 3ebe 6f1e 9c3e
000000e0: b26e 8c3e a99a 1abe 3e87 18bd 9f03 0b3e
000000f0: e8e0 18be e583 84be 8317 76be 47dc 86bc
00000100: ceb4 47bd 0976 fd3d 4a6e 4b3e 7f1b fe3d
00000110: 6173 7bbd 563b 76be d9ef cc3d a8c7 b53d
00000120: fc28 5ebc ce5f 9a3e f2de 5a3e 2fd5 f03d
00000130: 7835 763e 4e8d 8c3d 1dc6 9fbd f4e9 36be
00000140: e08b 20bd d3e0 893c 99f3 32be 81ae 023e
00000150: a3b7 37be bcc4 4cbd 0f5c 283d 7d60 45be
00000160: 5e40 493e db8a c23b 35b8 773e 952b 63be
00000170: e3b3 b2bc 589c 873d a21c b63d 5d6e 23be
00000180: 6537 893e 49e7 733e 00bb 4f3e 7cea 85bd
00000190: 9e93 8dbd b35c 3a3e c0d9 1a3e 3613 81be
000001a0: 42ae 7a3d 519b 0fbe 4fdf 8bbe 21a5 8f3e
000001b0: 75f1 eebd bd70 0e3e 0928 debd 5109 123d
000001c0: 7c54 84be 7019 7d3e ed82 eb3d d9e0 53be
000001d0: 3497 29be 801d 77be 3294 403e bd29 26be
000001e0: 8ddd 5ebe 4fd9 74bd 431f a63c 82e0 26be
000001f0: 7fa0 1c3e caef da3d cd85 d13b 49ae bb3c
00000200: 8441 5d3e aaff 81bd 4bfd f6bc a115 b83d
00000210: 413d 813e 1e26 0c3e f6e2 ebbd 3120 05bc
00000220: 25da 263d ab8f 6bbe 044f 90be a43a 943e
00000230: 527e 323e 8fc5 8c3d 6865 6fbe 49f7 3c3d
00000240: 1217 87be 6cc4 08be 1e69 b5bd 98e7 e8bd
00000250: 2b37 4a3e 3385 4f3d b3bc f7bd 4401 27bc
00000260: 7f96 203e c02b 323e 13b3 01be a561 6a3d
00000270: 8ba3 2cbd 4d2e 973b 1b6f 8b3e 49a5 40bc
00000280: bf44 b43d ad24 12be d080 30be 0dce 02be
00000290: a2b7 963e b050 693d 8004 f53d db89 923d
000002a0: a4c6 72bd a9fd 983d a399 973e 41e3 9b3d
000002b0: 8b2c 55be 95bd eebd 2c59 b6bd 91c6 e4bd
000002c0: 7cca 58be fa70 35be 74a4 68bd 32be 863e
000002d0: 87e9 35be d0d5 0ebe cd1b e3bd 5292 993d
000002e0: 1818 e8bd 8d26 5b3e 34fd 6e3e d5cc 27be
000002f0: da34 78be a46f b4bc 5a04 33be dc7c 7d3e
00000300: 8d29 82be 5855 9cbd 3baf e0bb 8b52 61be
00000310: f958 693d c5d0 8f3d 3821 c03d 5b55 5d3e
00000320: 8c85 723e b488 6b3e 1949 f73a a5fb 96be
00000330: c95b 2abe 25dc 31be d002 18bd 91be 3a3e
00000340: 808b 993e 6bc4 5ebe 3f5d d139 476b 5dbe
00000350: 1239 383e c03f 963e 3250 98bd 2fca 2c3e
00000360: f6af 28bc 562a 463e cd36 09be 5416 6d3d
00000370: b0ff 88be b83a 26be 923c 6f3e c03e 68be
00000380: 1484 ec3c 1cff 3c3e b286 c0bd 5366 623e
00000390: 4f13 503e acab 00be af06 573e 0b46 6e3d
000003a0: f054 92bd ef44 6bbe 9595 233e 927f 49be
000003b0: 5627 0abe 53b7 93be d498 793d 303d 313e
000003c0: a094 d1bd 116a 3b3d dff4 30be bfd0 8e3d
000003d0: fede 443e 9d01 133e c9d8 27be 9558 153e
000003e0: 3808 863e b809 423a 7e76 113e eb42 5e3e
000003f0: 35bc 0abe c3df 973e a197 8b3c f7e1 86be

base.cnn.cnn.7.bias f4 [64]
-0.0011213563 -0.0011088413 0.0006789067 0.0004445846 8.235202e-06 -0.0017740026 0.0013046556 -0.00084410945
0.0020928867 -6.476801e-05 0.0008815985 -0.0019485306 0.0009175865 -0.00039420233 -0.0005334141 -0.0014944399
0.0002399468 -0.000270726 -0.0019310573 5.075948e-05 0.0014075972 0.002321938 0.0006768987 0.0008546176
-0.0023615942 -0.0016443236 0.0014367886 0.0014250535 -0.00059538125 0.0017093368 0.002819516 -0.00037188537
-0.00017887028 0.00045581526 -0.003080706 0.0013336628 0.0027887826 -0.0016045568 -0.000577052 0.0006377569
0.0014433318 -0.00045096397 -0.0012619356 -0.0013576144 -0.0004760683 -0.0011660842 -0.0016371638 0.0010453267
-0.00036282314 0.004417874 -0.0001051243 0.0034423477 -0.00015825014 0.0018400125 -0.0011317936 0.0015130064
0.0005274458 0.00035127692 -0.0007320416 0.001994299 0.00030818867 0.00017693531 0.00089360477 0.0009455063
00000000: 79fa 92ba 8a56 91ba a8f8 313a 2317 e939
00000010: ec29 0a37 a685 e8ba fa00 ab3a 3a47 5dba
00000020: d028 093b 10d4 87b8 131b 673a d665 ffba
00000030: 308a 703a f1ac ceb9 d0d4 0bba 15e1 c3ba
00000040: 3b9a 7b39 3bf0 8db9 881b fdba 94e6 5438
00000050: 207f b83a a82b 183b e771 313a 6b08 603a
00000060: fac4 1abb 5886 d7ba a052 bc3a dcc8 ba3a
00000070: 5c13 1cba d30b e03a a1c7 383b 9cf9 c2b9
00000080: 208f 3bb9 7dfa ee39 ace5 49bb 4cce ae3a
00000090: 02c4 363b fe4f d2ba 4e45 17ba 242f 273a
000000a0: 2e2e bd3a 5c6f ecb9 8867 a5ba fbf1 b1ba
000000b0: ce98 f9b9 4bd7 98ba 1a96 d6ba 5803 893a
000000c0: 4c39 beb9 d0c3 903b 2e76 dcb8 0399 613b
000000d0: f3ef 25b9 932c f13a b158 94ba 1250 c63a
000000e0: 4a44 0a3a 972b b839 7be6 3fba c9b2 023b
000000f0: 6294 a139 b687 3939 cd40 6a3a dbdb 773a

base.cnn.cnn.8.weight f4 [64]
0.99971694 0.9985982 0.99968827 1.0000736 0.9959208 0.99824405 1.0027075 0.997017
1.0009894 1.0002333 1.0020274 0.998171 1.001415 1.0008612 0.99933004 0.99812704
0.99918354 1.002358 0.9986513 1.0004843 1.0014926 1.0003287 1.0017163 1.000937
0.99657243 0.9970846 1.0003371 1.0009348 1.0010369 1.0014474 1.0038075 0.9998078
1.0002426 0.9998933 0.99650997 0.9998736 1.002287 0.9994057 0.9991783 1.0000414
0.99919707 0.99932283 0.999161 0.9979549 1.0007154 0.9986918 0.9974171 1.0016865
0.99973905 1.0035206 0.9997124 1.0030284 0.9995332 1.0005786 0.99952984 1.0003258
0.9981169 1.0000086 0.99863404 1.0023875 1.000903 0.9995422 1.0002909 0.9981747
00000000: 73ed 7f3f 22a4 7f3f 92eb 7f3f 6902 803f
00000010: aaf4 7e3f ec8c 7f3f b858 803f 823c 7f3f
00000020: 6c20 803f a507 803f 6f42 803f 2288 7f3f
00000030: 5e2e 803f 381c 803f 18d4 7f3f 4185 7f3f
00000040: 7eca 7f3f 444d 803f 9da7 7f3f df0f 803f
00000050: e930 803f c50a 803f 3d38 803f b41e 803f
00000060: 5f1f 7f3f f040 7f3f 0c0b 803f a21e 803f
00000070: fa21 803f 6e2f 803f c47c 803f 67f3 7f3f
00000080: f307 803f 02f9 7f3f 471b 7f3f b7f7 7f3f
00000090: f14a 803f 0dd9 7f3f 26ca 7f3f 5b01 803f
000000a0: 61cb 7f3f 9fd3 7f3f 04c9 7f3f f979 7f3f
000000b0: 7117 803f 44aa 7f3f ba56 7f3f 4337 803f
000000c0: e6ee 7f3f 5d73 803f 27ed 7f3f 3c63 803f
000000d0: 68e1 7f3f f612 803f 30e1 7f3f ad0a 803f
000000e0: 9784 7f3f 4800 803f 7ba6 7f3f 3c4e 803f
000000f0: 971d 803f ffe1 7f3f 8809 803f 6188 7f3f

base.cnn.cnn.8.bias f4 [64]
-0.001051268 -0.0011641583 0.0009824251 0.0006399061 -0.00029737435 -0.0014970786 0.0012382612 -0.0010126875
0.001655533 0.0002649025 0.0006599559 -0.0020227986 0.0010531943 -0.0004384776 -0.0004203857 -0.0015968552
0.00037709635 -0.00026994 -0.0018737005 0.0005378951 0.0014438331 0.0026856659 0.0008109154 0.00093299826
-0.002268726 -0.0018822392 0.0015733811 0.0012092389 -0.00092975853 0.0016323861 0.002959798 -0.0004096467
-0.00023957276 0.00026399092 -0.0027456188 0.0009886797 0.0023386073 -0.0014291292 -0.0006104154 0.0006316699
0.0015221945 -0.000438728 -0.0010301087 -0.001405999 -0.00058246526 -0.00121709 -0.0015436299 0.0006002286
0.0002310791 0.004274046 -0.00022956326 0.003461232 -0.00010398949 0.0014557993 -0.00091324927 0.0016062803
0.0002707329 0.00016298676 -0.0007945986 0.002037743 0.0004534134 5.5609147e-05 0.001074945 -9.071778e-05
00000000: b3ca 89ba ac96 98ba b7c4 803a 5fbf 273a
00000010: e9e8 9bb9 9f39 c4ba 274d a23a 27bc 84ba
00000020: 78fe d83a 9de2 8a39 e400 2d3a ee90 04bb
00000030: 560b 8a3a 78e3 e5b9 3767 dcb9 924d d1ba
00000040: 04b5 c539 bc86 8db9 f596 f5ba 8701 0d3a
00000050: 003f bd3a ff01 303b 9c93 543a 7494 743a
00000060: e8ae 14bb 78b5 f6ba e939 ce3a 537f 9e3a
00000070: 0abb 73ba caf5 d53a 2cf9 413b d9c5 d6b9
00000080: d335 7bb9 4368 8a39 d7ef 33bb 9696 813a
00000090: 5243 193b 9e51 bbba 4904 20ba a696 253a
000000a0: 5f84 c73a 1305 e6b9 b604 87ba 7f49 b8ba
000000b0: 95b0 18ba c386 9fba a053 caba a958 1d3a
000000c0: d34d 7239 4c0d 8c3b ebb6 70b9 d6d5 623b
000000d0: ef14 dab8 85d0 be3a 1f67 6fba d389 d23a
000000e0: 28f1 8d39 6de7 2a39 9c4c 50ba a88b 053b
000000f0: 1eb8 ed39 de3d 6938 2be5 8c3a bd3f beb8

rnn.rnn.weight_ih_l0 f4 [192, 64]
-0.04671733 -0.10162413 0.106778845 -0.02152028 -0.11291942 0.06389211 0.14867043 -0.074533105
0.035391644 0.057935737 0.10106707 0.047234643 0.0030944613 -0.042919658 -0.08244925 0.025359746
-0.026929228 -0.09321573 0.039941587 -0.12415136 0.028404221 -0.11757497 -0.09177769 0.14076553
-0.12027629 0.068046786 -0.13250017 0.00025748395 -0.060442265 0.09968241 0.12896462 0.08730869
-0.09186727 0.012542988 -0.09498897 0.10178135 0.002151964 -0.052921575 -0.14247759 -0.093847804
0.029805182 0.08799077 -0.092525244 -0.014358608 -0.04686348 -0.117952876 -0.07866467 0.09152114
0.03151256 -0.14232391 0.13832645 0.047299527 -0.06333669 -0.09878787 -0.13783593 0.0075777327
0.13554011 -0.073436774 -0.066446595 -0.063406266 -0.09065922 -0.04958489 -0.11287087 -0.12438735
-0.046982724 0.077981666 0.00013578092 0.094786346 0.038923103 0.080714054 0.08098938 0.11313989
-0.0775529 -0.01783581 -0.019064333 0.14576028 -0.034036983 0.039648917 0.12630856 0.112891994
-0.11657687 0.13091539 -0.016707914 -0.054666165 0.086284794 -0.005172386 0.04566369 0.029827297
-0.11216641 -0.06956255 -0.13891734 0.11083354 0.06463633 0.058447838 -0.13325605 -0.11396538
0.04734376 0.0010975082 0.089749634 -0.07119844 0.09492615 0.12228591 -0.055183765 0.021441003
0.10621375 0.08026496 -0.1233903 -0.045448035 -0.03399377 0.028712183 0.12897657 0.022441257
0.030141978 0.097504236 0.13355882 -0.051736347 -0.06920391 -0.114457816 0.04556597 -0.015042573
-0.023175921 -0.09281376 0.06735227 -0.121947795 0.025732977 0.017594399 -0.124265626 -0.110037126
0.10228489 0.094047 -0.09045749 0.07665758 0.10457169 0.09949177 0.019096559 -0.009606415
0.13211197 0.0067842393 0.12334663 0.14357571 0.018317083 -0.030632714 -0.1463066 0.084389836
0.033220377 0.08471789 0.07503217 -0.04350929 -0.12945403 0.09680446 -0.08786225 -0.1168571
0.11019875 0.0018734735 -0.024485642 -0.06212165 0.06301317 -0.110493794 -0.09504117 -0.111747906
0.07015064 -0.015460167 -0.12828784 -0.094887435 -0.12406514 0.01919921 -0.13312677 0.10010214
-0.024806844 -0.03338414 -0.054578304 -0.02885775 0.14402424 -0.010062007 -0.11789793 0.15061349
-0.018812248 -0.08342397 -0.10787153 -0.0009799051 0.038249217 0.10897829 0.0861506 0.025059858
0.12590997 0.051453054 0.04646552 0.012126144 -0.02007365 0.08925807 0.10501176 -0.005754668
-0.07532231 -0.0087984195 0.10364576 -0.12833397 0.015044021 0.023262888 -0.008779168 0.08077056
0.12889864 -0.054153696 -0.007162293 -0.04547647 -0.052009016 0.032647025 -0.03748187 0.14629017
0.015191558 0.10064522 -0.14150807 0.12165653 0.066329785 0.1240085 -0.11565274 0.023068542
-0.07167841 0.12318658 0.021355659 0.024209226 -0.095885746 0.011469987 0.099363916 -0.08093269
0.10155994 -0.127041 -0.035877146 -0.04176977 0.13277322 0.1299785 0.10152216 0.009018869
0.056066494 0.10861009 -0.06575577 0.0004531242 0.012226099 -0.11905953 0.022658175 -0.061824147
0.1430225 -0.070080735 0.016213046 -0.05949 0.114108376 0.12579325 0.12915954 -0.07550368
0.08041387 -0.044182822 0.01294225 -0.13817295 0.09299445 -0.110620536 0.0965156 -0.0556224
00000000: ac5a 3fbd 5020 d0bd deae da3d 4c4b b0bc
00000010: 4c42 e7bd ded9 823d 103d 183e d0a4 98bd
00000020: d4f6 103d 064e 6d3d 41fc ce3d 1d79 413d
00000030: 72cc 4a3b 86cc 2fbd 27db a8bd 3ebf cf3c
00000040: af9a dcbc e3e7 bebd ca99 233d 1143 febd
00000050: f8af e83c 25cb f0bd f1f5 bbbd d724 103e
00000060: 6a53 f6bd 1d5c 8b3d 20ae 07be e9fe 8639
00000070: 4f92 77bd 4b26 cc3d 4d0f 043e e6ce b23d
00000080: e824 bcbd 1b81 4d3c 9489 c2bd be72 d03d
00000090: f707 0d3b 4bc4 58bd a5e5 11be 4733 c0bd
000000a0: ff29 f43c 8134 b43d e07d bdbd 5e40 6bbc
000000b0: ecf3 3fbd 4791 f1bd f11a a1bd 6f6f bb3d
000000c0: 5013 013d 5cbd 11be 73a5 0d3e 26bd 413d
000000d0: abb6 81bd 4b51 cabd dd24 0dbe a14e f83b
000000e0: 07cb 0a3e 0566 96bd 2715 88bd 25db 81bd
000000f0: 8bab b9bd 8719 4bbd d828 e7bd ccbe febd
00000100: f570 40bd dab4 9f3d 6a60 0e39 581f c23d
00000110: d56d 1f3d 694d a53d c3dd a53d e3b5 e73d
00000120: 0ed4 9ebd 681c 92bc ce2c 9cbc 2f42 153e
00000130: 5d6a 0bbd e766 223d 0857 013e eb33 e73d
00000140: dbbf eebd af0e 063e 09df 88bc a1e9 5fbd
00000150: 15b6 b03d 1e7d a9bb d909 3b3d 6058 f43c
00000160: 81b7 e5bd cf76 8ebd 5940 0ebe b2fc e23d
00000170: 0d60 843d 0067 6f3d 4674 08be ae66 e9bd
00000180: 88eb 413d 44da 8f3a a8ce b73d 7dd0 91bd
00000190: a468 c23d 0971 fa3d 5f08 62bd 0ba5 af3c
000001a0: 9886 d93d f561 a43d 0eb4 fcbd b827 3abd
000001b0: 0d3d 0bbd d035 eb3c 6f12 043e bad6 b73c
000001c0: 4fec f63c 4db0 c73d a5c3 083e 7ee9 53bd
000001d0: c8ba 8dbd dc68 eabd 62a3 3a3d 2075 76bc
000001e0: 6edb bdbc 2415 bebd fdef 893d c4bf f9bd
000001f0: f7cd d23c 2122 903c fa7e febd 255b e1bd
00000200: be7a d13d b79b c03d c741 b9bd a6fe 9c3d
00000210: af29 d63d 57c2 cb3d 6370 9c3c 3a64 1dbc
00000220: 5c48 073e 534e de3b 289d fc3d 8305 133e
00000230: b50d 963c 75f1 fabc 66d1 15be 94d4 ac3d
00000240: 1712 083d 9380 ad3d 77aa 993d cc36 32bd
00000250: 998f 04be 6b41 c63d 20f1 b3bd c652 efbd
00000260: e2af e13d 578f f53a 1d96 c8bc 4573 7ebd
00000270: 0d0d 813d 924a e2bd f2a4 c2bd 16dc e4bd
00000280: 24ab 8f3d a44c 7dbc e35d 03be 5854 c2bd
00000290: dd15 febd a947 9d3c 6252 08be 5a02 cd3d
000002a0: b937 cbbc cfbd 08bd 808d 5fbd 1767 ecbc
000002b0: 177b 133e 1edb 24bc 7874 f1bd 6c3a 1a3e
000002c0: 251c 9abc 30da aabd c0eb dcbd 2970 80ba
000002d0: 36ab 1c3d 0230 df3d ba6f b03d 554a cd3c
000002e0: 8bee 003e 70c0 523d a152 3e3d bcac 463c
000002f0: 7f71 a4bc efcc b63d 6810 d73d a791 bcbb
00000300: 9542 9abd 3f27 10bc 3a44 d43d fb69 03be
00000310: 337b 763c d091 be3c 80d6 0fbc 096b a53d
00000320: 01fe 033e 44d0 5dbd abb1 eabb 8945 3abd
00000330: 6807 55bd e3b8 053d 9786 19bd 17cd 153e
00000340: 03e6 783c 151f ce3d 7ee7 10be 0f27 f93d
00000350: e9d7 873d 2bf8 fd3d 58db ecbd 3dfa bc3c
00000360: 21cc 92bd 3f49 fc3d 10f2 ae3c 6d52 c63c
00000370: bf5f c4bd 9dec 3b3c 4f7f cb3d 0ac0 a5bd
00000380: a8fe cf3d 0917 02be eaf3 12bd c716 2bbd
00000390: b4f5 073e 1519 053e daea cf3d e1c3 133c
000003a0: fba5 653d f86e de3d f6aa 86bd 4d91 ed39
000003b0: fa4f 483c 7cd5 f3bd a39d b93c 513b 7dbd
000003c0: 7e74 123e 7d86 8fbd 39d1 843c c9ab 73bd
000003d0: a7b1 e93d f2cf 003e 6642 043e aca1 9abd
000003e0: 07b0 a43d 0cf9 34bd bb0b 543c 367d 0dbe
000003f0: e073 be3d 058d e2bd f9a9 c53d 50d4 63bd

rnn.rnn.weight_hh_l0 f4 [192, 64]
0.09426812 0.10064692 -0.06829712 -0.13704534 -0.03396365 -0.059981674 0.06646772 -0.016973838
0.03067939 -0.09044801 0.14719799 -0.028112302 0.06461432 0.1111113 -0.15138215 0.045464195
0.08167887 -0.14651626 0.12109641 0.14239901 -0.06257656 -0.07474253 0.025372146 0.1183264
0.055791203 -0.030943813 -0.034353327 -0.084858015 -0.056666143 0.066869915 0.13568507 -0.11962569
0.1511339 0.14254636 -0.096679725 -0.1473983 -0.022418808 -0.0021699504 0.04611 -0.051264826
-0.01261909 0.113547504 -0.0460315 0.026650663 0.037171714 -0.14476983 0.101206094 -0.08005576
0.04243417 -0.00056873827 -0.098743245 -0.0022326051 -0.03167248 0.11165335 -0.13572189 -0.12915505
0.020186067 0.001707767 -0.122639954 -0.043341164 -0.10646638 0.10912814 0.10803183 0.09204742
0.07336074 -0.13142002 -0.08255659 0.11182949 -0.072801426 -0.07011474 -0.13759668 -0.10041128
-0.055164248 -0.0335774 -0.12044188 0.001119599 -0.124113254 0.051158674 -0.1440661 -0.10659995
-0.11296433 0.049367268 -0.07177316 0.13806775 -0.09713106 -0.009424055 0.109440506 -0.038293768
0.08028447 -0.13886978 0.13083798 0.10198072 -0.011742386 -0.1248411 0.029658023 0.1515807
-0.03707216 0.0709142 -0.08398501 -0.014923178 -0.11509695 -0.09518154 0.09448558 -0.0051294384
0.14366531 0.13044673 -0.1410795 -0.124703676 -0.058328517 0.12912591 0.08225024 -0.14009805
-0.052090656 0.12556097 -0.09915393 -0.09395368 0.1471987 0.10120119 0.042444732 0.06539442
-0.15082903 0.026016038 0.102037564 0.0600501 -0.12470253 -0.024426386 -0.08280965 0.032625508
-0.0722091 -0.12014191 0.1445121 0.045847524 0.057225067 -0.005320822 0.021626504 0.12807213
-0.043407388 0.0030163247 0.07513297 -0.015421005 -0.10798564 0.07009621 0.13814147 0.07920911
-0.044771764 0.077631615 -0.13277008 0.0040357476 0.11726194 -0.009105958 0.11843992 -0.05573622
0.071219385 0.036260895 -0.113675736 0.115842156 -0.070877 0.055240907 0.026291609 0.14277557
0.1267147 -0.095147274 -0.020875968 -0.09632527 -0.0943776 -0.092107005 0.049844828 0.021276895
0.0105224475 0.111881316 0.11854484 0.03807078 0.10137758 0.13605037 0.13608615 -0.049435355
0.058837876 0.12191458 0.012055978 -0.07797626 0.06275643 0.079235196 0.14385273 -0.058661353
-0.0666126 -0.13256143 0.09621355 0.1178444 0.10133376 -0.08901872 0.09032021 0.14691348
0.079523936 -0.011824193 0.057188097 0.11700522 -0.06934687 -0.07683136 0.0027491897 -0.008778556
-0.13394381 -0.029852735 -0.07842606 -0.08200317 0.07286821 -0.08993048 -0.123037055 0.11840727
0.112098694 -0.08457052 0.11532057 0.047566302 -0.014641689 0.014711066 -0.050149217 -0.12809929
0.03792165 0.094158 0.034077317 -0.14399338 0.1458554 -0.056796063 -0.02903692 0.0034780225
-0.04514298 -0.066183165 0.13546169 -0.04330337 0.051553648 0.03074487 0.054383148 0.13678244
0.03569942 0.115191706 -0.14417103 -0.07300914 -0.0910638 -0.11453535 0.078886576 0.06630794
-0.0024148205 0.0768884 -0.019471537 0.10267887 -0.001663432 -0.004364788 -0.11373941 -0.14981511
0.1163538 0.12903516 -0.10260237 -0.07213164 -0.11072062 -0.11991131 -0.012369097 0.077336416
00000000: a50f c13d f91f ce3d 5cdf 8bbd 9d55 0cbe
00000010: 781d 0bbd 58af 75bd 3a20 883d b80c 8bbc
00000020: 5853 fb3c ce3c b9bd 12bb 163e c54b e6bc
00000030: 8354 843d 528e e33d ec03 1bbe aa38 3a3d
00000040: 4047 a73d 5c08 16be 6501 f83d 0cd1 113e
00000050: 2428 80bd 9d12 99bd 3fd9 cf3c 1d55 f23d
00000060: 5185 643d e17d fdbc 13b6 0cbd 0aca adbd
00000070: c21a 68bd 18f3 883d 07f1 0a3e 50fe f4bd
00000080: d8c2 1a3e acf7 113e 0500 c6bd 94ef 16be
00000090: a6a7 b7bc ba35 0ebb d7dd 3c3d 11fb 51bd
000000a0: 4dc0 4ebc 988b e83d 878b 3cbd 7e52 da3c
000000b0: 5e41 183d 8b3e 14be 2445 cf3d 46f4 a3bd
000000c0: 74cf 2d3d 6117 15ba e639 cabd e650 12bb
000000d0: 01bb 01bd 83aa e43d aefa 0abe 3941 04be
000000e0: 405d a53c 27d7 df3a a82a fbbd 8186 31bd
000000f0: 0c0b dabd 937e df3d cb3f dd3d 5c83 bc3d
00000100: 283e 963d f892 06be 6e13 a9bd dc06 e53d
00000110: ea18 95bd 5198 8fbd 25e6 0cbe 6ea4 cdbd
00000120: e8f3 61bd 7588 09bd 3baa f6bd 82bf 923a
00000130: 172f febd c28b 513d 1086 13be 1351 dabd
00000140: d859 e7bd 5535 4a3d cefd 92bd a261 0d3e
00000150: a6ec c6bd 5a67 1abc 5822 e03d edd9 1cbd
00000160: 2f6c a43d e133 0ebe 64fa 053e 45db d03d
00000170: 2363 40bc b1ac ffbd 62f5 f23c f937 1b3e
00000180: fad8 17bd 773b 913d 5500 acbd 5880 74bc
00000190: f3b7 ebbd 8aee c2bd a881 c13d d914 a8bb
000001a0: 001d 133e d493 053e 2577 10be a464 ffbd
000001b0: e2e9 6ebd 9539 043e d072 a83d dd75 0fbe
000001c0: 035d 55bd 0e93 003e 3711 cbbd c96a c0bd
000001d0: 42bb 163e 9242 cf3d 87da 2d3d 82ed 853d
000001e0: ed72 1abe 961f d53c 12f9 d03d 18f7 753d
000001f0: 0a64 ffbd d819 c8bc 1b98 a9bd 53a2 053d
00000200: 5de2 93bd f60c f6bd fbfa 133e 9dca 3b3d
00000210: d564 6a3d 4a5a aebb 112a b13c 5725 033e
00000220: f2cb 31bd 88ad 453b 51df 993d 62a8 7cbc
00000230: 9327 ddbd 9a8e 8f3d f574 0d3e 6338 a23d
00000240: 9962 37bd 53fd 9e3d e1f4 07be 4e3e 843b
00000250: 0727 f03d 2831 15bc a190 f23d aa4b 64bd
00000260: 78db 913d 4e86 143d d3ce e8bd a73e ed3d
00000270: f627 91bd 4a44 623d 8061 d73c c233 123e
00000280: 80c1 013e 93dc c2bd 1404 abbc 2f46 c5bd
00000290: 0b49 c1bd 99a2 bcbd 172a 4c3d e24c ae3c
000002a0: 5866 2c3c 0822 e53d a3c7 f23d 1bf0 1b3d
000002b0: 0c9f cf3d ca50 0b3e 2b5a 0b3e ba7c 4abd
000002c0: fcff 703d 5aae f93d 7086 453c 04b2 9fbd
000002d0: 7186 803d 1046 a23d 214e 133e e346 70bd
000002e0: 306c 88bd 2fbe 07be 9c0b c53d 6858 f13d
000002f0: 1388 cf3d 724f b6bd cdf9 b83d 7d70 163e
00000300: 72dd a23d 43ba 41bc 113e 6a3d 6fa0 ef3d
00000310: bb05 8ebd c359 9dbd c02b 343b efd3 0fbc
00000320: 9128 09be b98d f4bc d89d a0bd 47f1 a7bd
00000330: ee3b 953d 792d b8bd dafa fbbd 837f f23d
00000340: 0094 e53d 4f33 adbd 312d ec3d e2d4 423d
00000350: b2e3 6fbc af06 713c 4469 4dbd 762c 03be
00000360: bb53 1b3d e9d5 c03d a894 0b3d 0073 13be
00000370: 1e5b 153e fda2 68bd d6de edbc 89ef 633b
00000380: d8e7 38bd 0a8b 87bd 78b6 0a3e e05e 31bd
00000390: eb29 533d aadc fb3c ddc0 5e3d b210 0c3e
000003a0: 8e39 123d a1e9 eb3d 92a1 13be d185 95bd
000003b0: a87f babd 8291 eabd 498f a13d 75cc 873d
000003c0: f741 1ebb aa77 9d3d c682 9fbc 4d49 d23d
000003d0: 8407 daba 7f06 8fbb 35f0 e8bd 2269 19be
000003e0: e74a ee3d cb21 043e 3121 d2bd c1b9 93bd
000003f0: 7ec1 e2bd 1094 f5bd c1a7 4abc 8e62 9e3d

rnn.rnn.bias_ih_l0 f4 [192]
-7.4891764e-06 -1.5922478e-05 -2.4148341e-05 5.4264783e-05 -3.0163832e-05 0.00017422042 -2.7090671e-05 1.5619611e-05
-1.1133498e-05 2.3125045e-05 -4.6417376e-06 -2.4153416e-05 4.28239e-06 5.250214e-06 1.3396601e-05 7.459716e-06
2.0347847e-05 5.217432e-08 -9.758949e-06 1.5411695e-05 -1.0261369e-05 -2.134958e-05 -4.7377002e-06 1.4713459e-05
2.4639772e-05 -3.085056e-05 -1.0291168e-05 2.4267056e-05 -2.9944135e-06 -4.7800346e-05 1.8006052e-05 -7.72657e-06
8.784318e-06 -9.0461335e-06 3.2651817e-05 1.0037444e-05 1.673886e-05 -2.1419426e-06 -1.3312472e-05 1.0498444e-05
-3.938979e-07 -3.3061988e-06 4.1715357e-05 -9.563284e-06 0.00013508264 2.35585e-05 2.6630789e-05 3.7606824e-05
2.9090723e-05 -1.7969827e-06 -1.0280284e-06 7.958731e-06 2.410502e-05 0.00010781467 3.361136e-05 5.8979263e-06
1.4607282e-05 0.00013478466 9.793311e-06 3.4400386e-05 9.021416e-06 2.9449166e-05 6.2935766e-07 1.4426721e-05
0.0014929217 0.0010577316 -0.0004057537 -0.00078838674 -0.00072503666 0.0010920247 -0.0023355125 0.0015707049
0.000520957 -0.00042492998 -0.001391962 0.0013448097 -0.0022377383 0.0021576448 0.0009940689 -0.0011826659
0.0015843553 0.001024107 -0.00052403467 -0.0015002198 -0.0004376096 0.00097248715 -0.000851495 -0.0009331194
0.00021029742 -0.00050910685 2.3097906e-05 0.0029450236 1.9690819e-05 0.00083381194 -0.0016403702 -0.0019192306
0.002412383 -0.00030113233 -0.0003279712 0.0019122241 0.0022589476 9.0855756e-05 0.0019339346 0.0010108526
0.0017652789 0.00021057791 0.0015498692 -0.0024459793 0.0021454636 -0.002192572 -0.00046912924 -0.0029520325
0.00091952574 -0.0003703487 -0.00075294735 0.00025382877 0.0027257984 0.0025407877 -0.0029520404 0.00021961147
-0.0014163705 -0.00060711656 -0.00089343166 -0.0017424093 0.002124367 -0.0003235464 -0.0023151236 -0.0022439237
-0.0008627451 0.00012545125 0.00041972555 -0.0028056726 -0.00065710384 -0.0042667715 -0.0013681522 0.0025115516
2.0388514e-05 -0.0014098714 -0.0005815661 0.0011188694 -0.0001725487 0.0020712912 0.0013687926 -0.0016640039
-0.0014827844 2.402156e-05 -0.00017405444 0.0020522317 0.0001488494 0.0010085804 0.0007202512 0.0024043578
-0.0015047963 0.00018426459 0.0007516392 0.0018988412 0.0006700622 -0.0005469288 -0.0016344461 -0.0007335802
0.0010565156 -0.0011759094 0.002344952 0.0018135158 0.0024133462 0.0005352079 -0.0015730016 0.002199756
-0.0021649378 0.0013721721 -0.0029701777 -3.904981e-05 0.0021852364 -0.0017671835 0.0020215907 0.0018110889
0.0019078881 0.0009841245 0.00083624857 -2.0457703e-05 0.0010811108 -0.0026085977 -0.0031180957 -0.00087902707
0.00089497434 0.0035195274 -0.0023886908 -0.002987082 -0.0003266156 -0.000605194 -0.00046251065 -0.001025744
00000000: 894b fbb6 4391 85b7 2b92 cab7 5e9a 6338
00000010: 5608 fdb7 f0ae 3639 c640 e3b7 dc06 8337
00000020: 03ca 3ab7 a8fc c137 39c0 9bb6 119d cab7
00000030: 73b1 8f36 ff2a b036 f7c1 6037 794e fa36
00000040: abb0 aa37 4616 6033 5eba 23b7 5d48 8137
00000050: 3f28 2cb7 e017 b3b7 89f8 9eb6 d3d9 7637
00000060: 82b1 ce37 8965 01b8 3ba8 2cb7 1b91 cb37
00000070: a2f3 48b6 3b7d 48b8 b40b 9737 5ea1 01b7
00000080: 5c60 1337 d9c4 17b7 9ff3 0838 7e66 2837
00000090: 6e6a 8c37 4bbe 0fb6 a258 5fb7 7922 3037
000000a0: ea78 d3b4 10e0 5db6 86f7 2e38 fe71 20b7
000000b0: f8a4 0d39 7e9f c537 2f65 df37 05bc 1d38
000000c0: da07 f437 db2f f1b5 c9fa 89b5 7d86 0537
000000d0: 2335 ca37 8f1a e238 ecf9 0c38 cde6 c536
000000e0: cc11 7537 fb54 0d39 f34d 2437 2249 1038
000000f0: b05a 1737 9a09 f737 21f1 2835 4b0a 7237
00000100: 24ae c33a 95a3 8a3a 57bb d4b9 bdab 4eba
00000110: 6310 3eba 4522 8f3a 660f 19bb 1ce0 cd3a
00000120: d590 083a 23c9 deb9 7f72 b6ba 5344 b03a
00000130: 05a7 12bb 4667 0d3b 6b4b 823a af03 9bba
00000140: 24aa cf3a 543b 863a 5f5f 09ba 06a3 c4ba
00000150: f76e e5b9 82ee 7e3a dd36 5fba 959c 74ba
00000160: 4983 5c39 9575 05ba 60c2 c137 4c01 413b
00000170: b62d a537 2c94 5a3a b101 d7ba b18e fbba
00000180: 1219 1e3b 4ce1 9db9 8df3 abb9 98a3 fa3a
00000190: da0a 143b d089 be38 147c fd3a 967e 843a
000001a0: ee60 e73a 94ce 5c39 fb24 cb3a b94c 20bb
000001b0: e89a 0c3b 41b1 0fbb 76f5 f5b9 e376 41bb
000001c0: 540c 713a 5c2b c2b9 7161 45ba 5214 8539
000001d0: 4fa3 323b 5883 263b 0577 41bb 8147 6639
000001e0: 82a5 b9ba e726 1fba 2f35 6aba 8e61 e4ba
000001f0: f738 0b3b aaa1 a9b9 54b9 17bb cb0e 13bb
00000200: d829 62ba 908b 0339 9c0e dc39 60df 37bb
00000210: 7e41 2cba 46d0 8bbb 9253 b3ba d898 243b
00000220: 0008 ab37 6fcb b8ba 3e74 18ba 07a7 923a
00000230: 30ee 34b9 80be 073b 0f69 b33a b51a daba
00000240: fd59 c2ba e881 c937 6282 36b9 bc7e 063b
00000250: 7514 1c39 5832 843a 3dcf 3c3a 6e92 1d3b
00000260: 963c c5ba 2637 4139 a709 453a 8ae2 f83a
00000270: 1da7 2f3a c55f 0fba e93a d6ba bc4d 40ba
00000280: c87a 8a3a f920 9aba c4ad 193b 7eb3 ed3a
00000290: 3b29 1e3b 324d 0c3a 2d2d ceba c829 103b
000002a0: a1e1 0dbb 75da b33a 50a7 42bb 6ac9 23b8
000002b0: 2f36 0f3b d7a0 e7ba aa7c 043b 0f62 ed3a
000002c0: 1a12 fa3a bdfd 803a b137 5b3a 959c abb7
000002d0: 0fb4 8d3a 02f5 2abb f758 4cbb 826e 66ba
000002e0: b69c 6a3a dfa7 663b 958b 1cbb ecc2 43bb
000002f0: 9b3d abb9 e2a5 1eba 217d f2b9 4272 86ba
