MARL/MAPPO-ATTENTIOAN/onpolicy/scripts/results/Meltingpot/collaborative_cooking__circuit_0/territory__inside_out/mappo/setting_3/run101/models/actor_agent0.pt (torch, 796137 bytes, 22 tensors)

base.cnn.cnn.0.weight f4 [32, 3, 3, 3]
0	0xbdbdaa42	-0.0926099
1	0x3e23b774	0.1598795
2	0xbd41ded6	-0.047331654
3	0x3c01536b	0.007893424
4	0xbe3afde0	-0.18260908
5	0xbbfd9f6b	-0.0077399514
6	0xbd5df12d	-0.05418508
7	0xbe0003fc	-0.1250152
8	0x3e1bb290	0.15204835
9	0xbe21561a	-0.15755501
10	0xbceaf113	-0.028679406
11	0xbc5ad1df	-0.013355701
12	0xbe33fe2a	-0.17577425
13	0x3df032f0	0.117284656
14	0xbd7a82ac	-0.061159775
15	0x3db573d7	0.08859985
16	0x3de104d5	0.1098725
17	0x3e31295f	0.17300938
18	0x3d48e01a	0.049041845
19	0x3e152da9	0.14568199
20	0x3e39256d	0.18080683
21	0x3d2232b1	0.039599124
22	0xbd262d34	-0.040570453
23	0xbd570442	-0.052494295
24	0x3d057333	0.032580566
25	0x3d91bb2d	0.07115779
26	0xbe3baa85	-0.18326767
27	0x3e15f8a6	0.14645633
28	0x3d00dbed	0.031459738
29	0xbe398df4	-0.18120557
30	0x3d80c174	0.06286898
31	0x3dff3dfc	0.124629945
32	0x3d96f7df	0.073714964
33	0x3e23c53e	0.1599321
34	0x3b969180	0.0045949817
35	0xbe2531e6	-0.16132316
36	0xb99ea579	-0.00030259395
37	0x3e11bd9d	0.14232488
38	0xbdbeeb76	-0.09322254
39	0x3dab3968	0.08360559
40	0x3d3b75d2	0.04576666
41	0xbcfce60c	-0.030871414
42	0x3b03906a	0.002007509
43	0x3daaea39	0.08345456
44	0xbe085fd4	-0.13317806
45	0x3dfaf463	0.12253644
46	0x3e06e026	0.13171443
47	0x3de172d3	0.11008229
48	0x3e4733bc	0.19453329
49	0xbc064556	-0.008195242
50	0xbe0c5f0c	-0.13708133
51	0x3c19f866	0.009397602
52	0xbd67f64d	-0.056631375
53	0x3d8dd867	0.06926041
54	0x3e29081e	0.16507003
55	0xbddc4bba	-0.10756631
56	0x3c043898	0.008070134
57	0x3e427827	0.18991147
58	0xbe1feac9	-0.15616907
59	0xbd0bfa3d	-0.034174193
60	0x3e414201	0.18872835
61	0x3e0ad459	0.13557567
62	0x3d6528ac	0.05594699
63	0xbdacb027	-0.08432036
64	0xbc9b954a	-0.018992085
65	0xbe335d1a	-0.17515984
66	0xbe3c5030	-0.18389964
67	0xbe3bd935	-0.18344577
68	0x3e3f79af	0.18698762
69	0x3e1d412b	0.15356891
70	0x3d9cd9b2	0.076587096
71	0xbd4ba900	-0.049721718
72	0x3e2b9a22	0.16758016
73	0xbd566216	-0.052339636
74	0x3e0ae54b	0.13564031
75	0xbbbdef02	-0.005796314
76	0xbdbd6616	-0.09247987
77	0xbd5f3aee	-0.05449956
78	0xbd2dc2e2	-0.042422183
79	0xbe37b1b3	-0.1793888
80	0x3d6dc2a6	0.05804696
81	0xbd6fee33	-0.058576774
82	0x3db96e8d	0.09054289
83	0x3e004c1a	0.1252903
84	0xbcf95179	-0.030434357
85	0x3dc34eb8	0.09536499
86	0x3d23079b	0.039802175
87	0x3e07219c	0.13196415
88	0xbdfffcde	-0.124994025
89	0xbc8532c9	-0.016259568
90	0xbd83598d	-0.06413565
91	0x3e30035e	0.17188784
92	0xbe328a16	-0.17435488
93	0xbddfd6af	-0.109296195
94	0x3cba8b93	0.022771632
95	0x3e324b3c	0.17411512
96	0x3e081a26	0.13291225
97	0xbe3a241d	-0.18177839
98	0xbe0b9f7a	-0.13635054
99	0x3e42bd59	0.19017543
100	0x3cf052f1	0.029336425
101	0xbe2a4aa6	-0.16630039
102	0xbd799775	-0.060935456
103	0x3db02c0a	0.0860215
104	0xbd23a36a	-0.039950766
105	0xbe18a344	-0.14906031
106	0xbdf51f0c	-0.11968812
107	0xbdcd4238	-0.10022396
108	0xbbf3cd82	-0.00744027
109	0x3d9e3cac	0.07726416
110	0x3dc1db6e	0.09465681
111	0xbdc14867	-0.09437638
112	0xbd04937c	-0.032367215
113	0xbe196754	-0.14980823
114	0x3e17dcd3	0.14830332
115	0x3e47950b	0.19490449
116	0x3e433c30	0.19065928
117	0x3da39fdc	0.07989475
118	0xbd272c3b	-0.040813666
119	0xbb8092a7	-0.0039237323
120	0x3d912b9f	0.07088398
121	0xbe2cc056	-0.16870245
122	0x3c54c815	0.012987156
123	0xbe21bd3a	-0.1579484
124	0xbe477225	-0.19477136
125	0xbbb697c0	-0.005572289
126	0xbd7c3e8e	-0.061583094
127	0xbdfb8cac	-0.122826904
128	0x3d082fdf	0.03324878
129	0x3c09d78b	0.008413206
130	0x3cf7370e	0.03017762
131	0xbdddf147	-0.108370356
132	0xbe430842	-0.19046119
133	0x3b97cdf1	0.0046327044
134	0xbda134c2	-0.07871391
135	0xbd88af4e	-0.06674062
136	0x3e13c317	0.1442989
137	0x3cfdf8fd	0.031002516
138	0x3db4b9df	0.088245146
139	0xbd62853b	-0.05530284
140	0xbe1f63d8	-0.15565431
141	0x3d1c33ed	0.038135458
142	0xbe05235a	-0.13001767
143	0x3cc1fa5a	0.023678947
144	0xbe1ceaa4	-0.15323883
145	0x3e1754ec	0.14778489
146	0xbe0908cf	-0.13382266
147	0x3e2c98d3	0.16855173
148	0x3e0c5fe3	0.13708453
149	0x3e166d00	0.14690018
150	0x3dee7ee2	0.11645295
151	0x3d35e6df	0.04440963
152	0xbc220371	-0.009888516
153	0xbb81dac2	-0.0039628455
154	0xbd9db19c	-0.07699892
155	0xbe389820	-0.18026781
156	0x3e3533a2	0.17695478
157	0x3c1845e9	0.009294012
158	0x3dbbdbcc	0.09172782
159	0x3bd33fec	0.006446829
160	0x3d629436	0.055317126
161	0xbdf79526	-0.12088995
162	0xbe1c2676	-0.15249047
163	0x3e186c4a	0.14885059
164	0x3d997fc6	0.07495074
165	0x3dc63ba5	0.09679345
166	0xbe4571e3	-0.19281726
167	0x3c65529f	0.013996749
168	0xbe39cd9a	-0.18144837
169	0xbcafa06f	-0.021438805
170	0xbc20ca6a	-0.009813884
171	0xbe0d6d5f	-0.13811253
172	0xbe467037	-0.19378744
173	0x3b11c19e	0.002224065
174	0x3e334482	0.17506602
175	0x3e35063d	0.17678161
176	0xbdf1c630	-0.118053794
177	0xbd0e05c0	-0.034673452
178	0xbe263a85	-0.16233261
179	0xbe1b5eaa	-0.1517283
180	0xbd5e6cb6	-0.054302894
181	0x3e41465a	0.18874493
182	0xbd4cacd5	-0.049969513
183	0x3c33531a	0.010945106
184	0x3e3cdac9	0.18442835
185	0x3d1040cd	0.03521805
186	0x3e20814c	0.15674323
187	0x3e05b274	0.13056356
188	0x3e3bc508	0.1833688
189	0x3d05c65d	0.032659877
190	0xbe228ff6	-0.15875229
191	0xbe2cd3b4	-0.16877633
192	0xbdd0012a	-0.10156472
193	0x3e240990	0.16019273
194	0x3de3ed91	0.111292966
195	0x3d67a838	0.05655691
196	0xbe191895	-0.14950784
197	0xbe142169	-0.1446587
198	0x3e223c18	0.15843236
199	0xbcad68b8	-0.021168098
200	0xbe47e889	-0.19522299
201	0xbccc104f	-0.02491012
202	0xbd439f42	-0.047759302
203	0x3b028cca	0.0019920343
204	0x3da5eb9e	0.08101581
205	0x3d9810c9	0.074250765
206	0xbe19de63	-0.1502624
207	0xbb40336f	-0.0029327532
208	0xbdc7efd0	-0.097625375
209	0x3e064207	0.13111125
210	0x3dc41db6	0.095759794
211	0x3dd97f3d	0.10619972
212	0x3e34b940	0.17648792
213	0x3dc2d432	0.09513129
214	0xbe4891f0	-0.1958692
215	0x3d45ef53	0.04832394
216	0xbe09b6e8	-0.1344868
217	0x3cd8ea59	0.026478933
218	0x3b3da6ff	0.0028938649
219	0x3e471be3	0.19444232
220	0xbe07ad20	-0.13249636
221	0xbe42fce3	-0.19041781
222	0xbd52a366	-0.05142536
223	0x3d047886	0.032341503
224	0x3e134131	0.14380337
225	0x3e216405	0.1576081
226	0x3e1a4468	0.15065157
227	0x3d7f7a8f	0.06237274
228	0xbd60ccb4	-0.05488272
229	0xbd25a862	-0.040443785
230	0xbdd90c0b	-0.10598
231	0x3d1f8692	0.038946696
232	0xbe0a17c7	-0.13485633
233	0x3d8b34ec	0.067972034
234	0x3e0085ac	0.12550992
235	0x3e290b3e	0.16508195
236	0xbe44fe21	-0.19237567
237	0x3e24d232	0.16095808
238	0xbdfa4646	-0.12220435
239	0xbc7af4f5	-0.015317191
240	0x3e36fc5c	0.17869705
241	0x3dda197a	0.106493905
242	0xbd7a57e8	-0.06111899
243	0x3debedb6	0.11519949
244	0xbe4254f9	-0.18977727
245	0x3e1c57db	0.15267889
246	0x3e413e9c	0.1887154
247	0xbc1d90f4	-0.009617079
248	0x3d014284	0.031557575
249	0xbd3cf9ca	-0.046136655
250	0xbdfdef32	-0.123991385
251	0xbdb4db50	-0.08830893
252	0xbc526f69	-0.012843945
253	0xbe235b66	-0.15952834
254	0xbe21308e	-0.15741178
255	0x3caa32ec	0.020776235

base.cnn.cnn.0.bias f4 [32]
0	0xb1c8f5bc	-5.848703e-09
1	0x31aa0d52	4.9491655e-09
2	0x324e1238	1.1994921e-08
3	0x33e73694	1.07667034e-07
4	0x33a08b2e	7.475897e-08
5	0x31f3c820	7.0949824e-09
6	0x30bf34c2	1.3912074e-09
7	0x3149d80f	2.9372165e-09
8	0xb069a436	-8.4998264e-10
9	0x324d3293	1.194407e-08
10	0x317409de	3.5512282e-09
11	0xb13c266d	-2.7379443e-09
12	0x30dc079f	1.6009273e-09
13	0x32046259	7.705773e-09
14	0xae89af09	-6.261131e-11
15	0xb2f80962	-2.8875267e-08
16	0x3087b133	9.872906e-10
17	0xafe9a478	-4.2499315e-10
18	0x33372651	4.2642856e-08
19	0xb24c6fc2	-1.1899774e-08
20	0xb40d85fe	-1.3180394e-07
21	0x32b8b651	2.1503327e-08
22	0xb16f5105	-3.4825132e-09
23	0xb1963bb4	-4.372362e-09
24	0x329ee3da	1.8497236e-08
25	0xb1ab358b	-4.982842e-09
26	0xace70380	-6.5658035e-12
27	0x31b02744	5.126738e-09
28	0x332caecf	4.0205858e-08
29	0x32639ef7	1.32492834e-08
30	0xb1196d23	-2.2326467e-09
31	0xb0b57d58	-1.3205108e-09

base.cnn.cnn.1.weight f4 [32]
0	0x3f7fcf91	0.99926096
1	0x3f7fcd56	0.9992269
2	0x3f7fcc73	0.9992134
3	0x3f7fec7b	0.99970216
4	0x3f8006e2	1.00021
5	0x3f7ff9a1	0.9999028
6	0x3f800fef	1.0004863
7	0x3f7fcfb7	0.9992632
8	0x3f80148e	1.0006273
9	0x3f7ff2ad	0.9997967
10	0x3f8012f7	1.0005788
11	0x3f7fe16d	0.9995335
12	0x3f7fdbe0	0.9994488
13	0x3f7fe56f	0.9995946
14	0x3f80064a	1.0001919
15	0x3f7fc61a	0.99911654
16	0x3f7fe50c	0.9995887
17	0x3f7ff9e4	0.9999068
18	0x3f801501	1.000641
19	0x3f801300	1.0005798
20	0x3f7fd30c	0.99931407
21	0x3f7fe3fc	0.9995725
22	0x3f7fd35f	0.999319
23	0x3f7fe357	0.9995627
24	0x3f7fd5e4	0.99935746
25	0x3f7ffbe6	0.9999374
26	0x3f7fcf86	0.9992603
27	0x3f7fcfee	0.9992665
28	0x3f800dfa	1.0004265
29	0x3f7fce0a	0.99923766
30	0x3f7fd794	0.9993832
31	0x3f7fd88e	0.9993981

base.cnn.cnn.1.bias f4 [32]
0	0xb9598d16	-0.00020747291
1	0xb9fd1562	-0.00048271852
2	0xb9ee5778	-0.00045460067
3	0xba41355d	-0.00073703175
4	0x3a22e756	0.00062142813
5	0x3742667a	1.1587161e-05
6	0x39da091d	0.0004158699
7	0x3a470509	0.0007591998
8	0x3a20153d	0.00061066804
9	0x3a08fc73	0.0005225606
10	0x39838e1f	0.00025092156
11	0x3896d632	7.192454e-05
12	0xb944fa45	-0.00018785249
13	0xb98570a1	-0.00025451652
14	0xb9906fa9	-0.00027549014
15	0xba64df25	-0.0008730761
16	0x39ea415c	0.00044680655
17	0x39587b02	0.00020645189
18	0x3a636e1e	0.00086757715
19	0x3a192348	0.0005841744
20	0x3a1ff85a	0.0006102376
21	0xb9dba040	-0.0004189033
22	0x39f452e1	0.00046601056
23	0xb9c39935	-0.00037307446
24	0xb9ac79f1	-0.0003289725
25	0xb9aac2e4	-0.00032570132
26	0xba263b4b	-0.0006341233
27	0xb9d422df	-0.00040461772
28	0x3a36d88a	0.0006975016
29	0xba4d5795	-0.000783318
30	0xba0e53fe	-0.0005429386
31	0xba18a0ff	-0.000582233

base.cnn.cnn.1.running_mean f4 [32]
0	0x3b15d9b5	0.002286536
1	0x3c8cd18f	0.01718977
2	0x3b4ff0e7	0.0031729282
3	0xbbb46b0c	-0.005505925
4	0xbc1d6d33	-0.009608555
5	0x3bd9e548	0.006649647
6	0x3b1a8244	0.002357618
7	0xbb8c70a3	-0.0042858883
8	0x3be97b57	0.007125299
9	0xbc454364	-0.012039993
10	0x3c0065b9	0.007836753
11	0x3c30b677	0.0107856905
12	0xbc15080a	-0.009096155
13	0x3cb7e5c3	0.022448426
14	0x3b0135e7	0.0019715966
15	0xba67e02f	-0.00088453566
16	0xbc8164d1	-0.015795143
17	0x3cec1df9	0.028822886
18	0xbcbe6396	-0.023240846
19	0x3c3f3f55	0.011672814
20	0xbb963165	-0.004583525
21	0xbcade00f	-0.021225004
22	0x3bb7b80c	0.005606657
23	0x3b97317b	0.004614053
24	0xbc3fda5b	-0.011709775
25	0x3cb14cc0	0.021643043
26	0x3c2d9690	0.010594979
27	0x3bebc20f	0.0071947644
28	0xbb52a5a9	-0.0032142198
29	0xbcbbae5d	-0.022910291
30	0x3c8034e7	0.015650226
31	0xbc12e8d7	-0.008966646

base.cnn.cnn.1.running_var f4 [32]
0	0x3e535892	0.20639256
1	0x3e55b932	0.20871428
2	0x3e53bf92	0.20678547
3	0x3e53db1d	0.20689054
4	0x3e53b6c8	0.20675194
5	0x3e53f023	0.20697074
6	0x3e535c0d	0.20640583
7	0x3e53e62e	0.20693275
8	0x3e541c33	0.20713882
9	0x3e5484e6	0.20753822
10	0x3e540c7b	0.20707886
11	0x3e53caed	0.20682879
12	0x3e5394df	0.20662259
13	0x3e560985	0.20902069
14	0x3e532931	0.20621182
15	0x3e535f65	0.20641859
16	0x3e54b5f2	0.20772532
17	0x3e57f755	0.21090443
18	0x3e56667f	0.20937537
19	0x3e5482ea	0.20753065
20	0x3e53a029	0.20666565
21	0x3e563924	0.20920235
22	0x3e537ee2	0.2065387
23	0x3e538714	0.20656997
24	0x3e543ea5	0.20727022
25	0x3e55cb73	0.20878391
26	0x3e53f614	0.2069934
27	0x3e53d740	0.2068758
28	0x3e53588b	0.20639245
29	0x3e561aaf	0.20908616
30	0x3e55268e	0.20815489
31	0x3e53af47	0.20672332

base.cnn.cnn.4.weight f4 [64, 2592]
0	0xbd636433	-0.05551548
1	0x3ca79220	0.02045542
2	0xbcd740f8	-0.026276097
3	0x3ce38eac	0.027777992
4	0x3af18828	0.0018427419
5	0xbd5a4d49	-0.05329636
6	0xbd4b7ddc	-0.049680576
7	0xbc833dd8	-0.0160207
8	0xbd3ea33f	-0.046542402
9	0x3d315211	0.043291155
10	0xbd8888cf	-0.06666719
11	0xbd30a5c6	-0.043126844
12	0x3cf5622e	0.029954042
13	0x3c783e76	0.015151611
14	0xbd2fa339	-0.04288027
15	0x3d722018	0.05911264
16	0xbc19a402	-0.009377481
17	0x3c310957	0.010805449
18	0x3d64faed	0.055903364
19	0x3ccd0c41	0.025030257
20	0x3a49bed3	0.00076959765
21	0xba171fa9	-0.00057649106
22	0x3d229adb	0.039698463
23	0x3c9e3602	0.019312862
24	0x3d393bde	0.04522311
25	0xbd4035cf	-0.046926316
26	0xbd20ef2d	-0.039290596
27	0x3d7120a1	0.058869008
28	0x3c96aa01	0.018391611
29	0xbd85b10e	-0.06527911
30	0x3d036baf	0.032085117
31	0xbc7a30bf	-0.015270411
32	0x3d0c5a7c	0.03426598
33	0x3d650862	0.055916198
34	0x3d43db0b	0.047816318
35	0x3ce6b7f0	0.02816388
36	0xbd7537d1	-0.059867684
37	0xbd06fe61	-0.03295744
38	0x3cd74fda	0.026283193
39	0xbcd53b6e	-0.026029315
40	0x3ce2cb40	0.027684808
41	0xbcade7e5	-0.02122874
42	0x3d888167	0.066653065
43	0x3d8a1fd4	0.06744352
44	0x3d2d4ab3	0.042307567
45	0xbc9dd9e2	-0.019268934
46	0x3ce5559b	0.027994921
47	0xbd1d63a6	-0.03842511
48	0x3c292924	0.01032475
49	0x3b306770	0.0026917122
50	0xbca13a74	-0.019681193
51	0x3ca94dcc	0.02066698
52	0xbd423615	-0.047414858
53	0xbd8766a7	-0.06611376
54	0xbca933a4	-0.020654507
55	0x3d734481	0.059391502
56	0xbd1e14b6	-0.03859397
57	0x3c69e2f1	0.014275298
58	0xbd410c66	-0.047130965
59	0xbd113cdf	-0.03545844
60	0xbd7afa05	-0.061273593
61	0xbd82bcfb	-0.063837014
62	0x3d2aa69c	0.041662797
63	0xbd87c5b8	-0.06629509
64	0x3d6d3f51	0.05792171
65	0x3cde3d97	0.027128978
66	0xbd85cea2	-0.06533553
67	0xbce23c64	-0.027616687
68	0x3d672cbb	0.056439143
69	0xbcfa7a23	-0.030575817
70	0xbd0d2c46	-0.03446605
71	0x3d6367f2	0.05551905
72	0x3d80a1bd	0.06280849
73	0xbb7f20ea	-0.003892953
74	0x3c7ff792	0.01562299
75	0xbd4698ee	-0.04848569
76	0x3d1199af	0.035546955
77	0xbc6f58f3	-0.0146086095
78	0x3c17c817	0.009264014
79	0xbcca587e	-0.0247004
80	0x3cc79ed0	0.02436772
81	0xbd523791	-0.051322524
82	0xbd1455df	-0.036214706
83	0x3d11966b	0.03554384
84	0xbd286aa1	-0.041117314
85	0x3c183793	0.009290594
86	0x3c97a81c	0.018512778
87	0xbc0c3c4f	-0.008559301
88	0xbcea75c1	-0.028620603
89	0xbd30c159	-0.04315314
90	0xbc874349	-0.016511576
91	0x3d70542b	0.05867402
92	0x3cc7b7e6	0.024379682
93	0x3d832c6f	0.064049594
94	0xbd33194f	-0.043725308
95	0x3cdb6862	0.026783172
96	0xbd68f881	-0.056877617
97	0xbd514fb2	-0.051101394
98	0x3cd44574	0.025912024
99	0x3af574ea	0.001872686
100	0xbd480045	-0.048828382
101	0xbd2e990a	-0.04262642
102	0x3cc6bb0d	0.024259115
103	0x3d1399f8	0.036035508
104	0x3ceeeb6c	0.029164992
105	0x3d6764d3	0.056492638
106	0x3beedddc	0.0072896313
107	0xbc6f20ae	-0.014595194
108	0x3d423151	0.047410313
109	0x3bb444e2	0.0055013755
110	0xbb6a8fe7	-0.003579134
111	0x3d17920b	0.03700451
112	0x3ba7dc40	0.0051226914
113	0x3cc572c0	0.024102569
114	0x3d1c23b7	0.038119998
115	0xbc37d8ac	-0.011221092
116	0x3c953440	0.018213391
117	0xbd663c8c	-0.056210086
118	0xbca99ba2	-0.020704094
119	0x3b278336	0.0025560386
120	0xbd37d47a	-0.044880368
121	0x3c3b71e1	0.011440725
122	0x3d840cc1	0.06447745
123	0x3cbbc823	0.022922581
124	0xbc405027	-0.01173786
125	0x3d7c856b	0.061650675
126	0x3d65c97d	0.056100357
127	0xbd3ba1b8	-0.045808524
128	0xbce1d423	-0.027566975
129	0x3c5b9bbb	0.013403828
130	0x3c99cc64	0.018774219
131	0x3d26e693	0.040747236
132	0x3be9b396	0.007132004
133	0x3bf477a7	0.0074605527
134	0xbcefa36b	-0.029252728
135	0x3afa72de	0.0019107719
136	0x3d34a5c8	0.044103414
137	0xbc51ddb3	-0.012809205
138	0x3cacd913	0.021099603
139	0xbd2ef1ef	-0.042711195
140	0xbd76f8b9	-0.060295794
141	0xbd2f23ac	-0.04275863
142	0xbbf4b25a	-0.00746755
143	0xbd8772c0	-0.06613684
144	0xbc41a0c1	-0.011818112
145	0x3d5193c4	0.05116631
146	0x3d0baa0b	0.034097712
147	0xbd327aff	-0.04357433
148	0xbd52baab	-0.05144755
149	0xbbd4dd6d	-0.0064961226
150	0xbd8936a1	-0.06699873
151	0x3d86b023	0.06576564
152	0x3b8836f8	0.0041569434
153	0x3c8b5d41	0.01701224
154	0x3d16696f	0.036721643
155	0xb90390b3	-0.00012547038
156	0xbd65c4ac	-0.056095764
157	0x3d1b4f88	0.037917644
158	0x3d743ac8	0.05962637
159	0x3c99b009	0.018760698
160	0x3cebf46c	0.028803073
161	0x3d07b3f9	0.03313062
162	0xbbc25c01	-0.005931378
163	0xbbe68169	-0.00703447
164	0xbb7b3e4e	-0.0038336697
165	0x3cf64bfa	0.030065525
166	0xbcba5d1b	-0.022749474
167	0xbc67e509	-0.014153727
168	0x3d608296	0.054812036
169	0x3c300bff	0.010745048
170	0xbd3bdad5	-0.04586299
171	0xbd28bd81	-0.04119635
172	0xbc96ba21	-0.0183993
173	0x3c404965	0.011736249
174	0xbcafd3a9	-0.021463232
175	0x3d52bf84	0.051452175
176	0x3c8710a4	0.016487427
177	0xbd20b454	-0.039234474
178	0xbd1ec677	-0.03876349
179	0x3d07e0b9	0.033173297
180	0x3d164d23	0.036694657
181	0x3d6ebe3e	0.058286898
182	0xbd50cdf5	-0.050977666
183	0xbd5f2507	-0.05447867
184	0xbd621221	-0.05519307
185	0xbd80e1bd	-0.06293056
186	0xbceea644	-0.029132016
187	0x3d6ca522	0.05777467
188	0xbc5f09b2	-0.013613151
189	0xbcdb3715	-0.026759664
190	0xbc7ff6fa	-0.015622849
191	0x3bdc2d7b	0.006719289
192	0xbcf0c7b6	-0.029392105
193	0xbd367c1f	-0.044551965
194	0xbd8706e5	-0.06593112
195	0xbcec2d8b	-0.02883031
196	0x3d49cae2	0.04926575
197	0x3cf471e6	0.029839467
198	0xbd242f7f	-0.04008436
199	0x3d550e31	0.052015487
200	0xbd364d52	-0.044507332
201	0x3d5c5221	0.05378926
202	0x3c8564d3	0.016283428
203	0xbd35a895	-0.044350225
204	0x3d7df9b1	0.062005702
205	0xbd11f3c1	-0.035632852
206	0x3cde7e70	0.0271599
207	0xbd6a5683	-0.05721141
208	0xbc63a84c	-0.013895106
209	0x3c97f97f	0.018551586
210	0x3d176b66	0.036967658
211	0xbcfa65c8	-0.030566111
212	0x3d09eb56	0.0336717
213	0x3d87b292	0.066258565
214	0x3d4f5a05	0.05062296
215	0x3d7c3524	0.061574116
216	0x3cd648c4	0.026157744
217	0xbd05f1a6	-0.032701157
218	0xbcf16a99	-0.029469775
219	0xbbac351d	-0.005255355
220	0xbcb609a5	-0.022221396
221	0x3d5bef30	0.053694904
222	0x3c9492f9	0.018136488
223	0x3d73f09d	0.05955564
224	0xbd0a733c	-0.033801302
225	0xbcd86a8b	-0.026417991
226	0xbd283368	-0.04106465
227	0x3d1988c8	0.03748396
228	0x3d011df7	0.031522717
229	0xbb7c5d4c	-0.0038507758
230	0x3d6209ee	0.05518525
231	0xbd652a53	-0.055948567
232	0x3c012060	0.007881254
233	0xbd01910d	-0.03163247
234	0xbd71c653	-0.059027027
235	0x3cc7d5a3	0.024393862
236	0xbd2f8604	-0.042852417
237	0xbd15b83c	-0.036552653
238	0xbb4e9297	-0.003152048
239	0xbbf90538	-0.007599499
240	0x3bd6660e	0.0065429276
241	0x3cbb678b	0.022876522
242	0x3d295f1c	0.04135047
243	0x3cfc2547	0.030779494
244	0x3d7898f5	0.060692746
245	0xbc531635	-0.012883713
246	0x3d24383f	0.040092703
247	0xbcb0dc9a	-0.021589566
248	0xbd2f4a48	-0.04279545
249	0xbd49d24d	-0.049272824
250	0x3d1ad6bc	0.037802443
251	0x3ca7d313	0.02048639
252	0x3ceb3607	0.028712286
253	0x3d107eac	0.035277054
254	0xbd1666ec	-0.036719248
255	0x3d358923	0.044320237

base.cnn.cnn.4.bias f4 [64]
0	0xba2c29da	-0.00065675157
1	0x3a41b729	0.0007389659
2	0xba0f5bbe	-0.0005468688
3	0x3a284f86	0.00064205413
4	0x39e1e558	0.0004308622
5	0xba351774	-0.0006908097
6	0x388d5f0b	6.741107e-05
7	0xb8fb5128	-0.00011983729
8	0x39fea381	0.00048568475
9	0x39ec0bea	0.00045022304
10	0xba48af77	-0.0007655541
11	0xba2ad533	-0.00065167545
12	0xb91d766d	-0.00015016804
13	0xb54d038c	-7.637361e-07
14	0x39a519cd	0.00031490476
15	0xba19cce5	-0.00058670185
16	0x3a071613	0.00051531306
17	0x39b04dfc	0.0003362744
18	0x3a1f6789	0.00060807966
19	0xb9c1e459	-0.0003698196
20	0x3a1f1170	0.0006067967
21	0xb9a17822	-0.0003079782
22	0xb9f5b372	-0.0004686374
23	0x399b04c1	0.00029567446
24	0xb6ced1ac	-6.1636874e-06
25	0x398bdbfd	0.0002667605
26	0x399c8985	0.000298571
27	0x39e144cc	0.00042966602
28	0x3a1a13b1	0.0005877568
29	0x3a2a5ed3	0.0006499115
30	0xb90823a1	-0.00012983244
31	0x39a5fe03	0.00031660506
32	0x39e96d23	0.00044522536
33	0x39d4d0ab	0.0004059126
34	0x3a15f64b	0.00057205994
35	0x3a04e90d	0.00050701277
36	0x3a3f1eb6	0.0007290648
37	0x39ce4440	0.00039342232
38	0xba2d476f	-0.00066100707
39	0x39222a7e	0.00015465353
40	0xba337365	-0.0006845503
41	0xba096c67	-0.00052422885
42	0x39eec735	0.00045543318
43	0x39ab5bb7	0.00032683995
44	0x39c5ab7a	0.00037702528
45	0xba1db628	-0.0006016218
46	0xba0e7aa4	-0.0005435145
47	0xba0c5f6d	-0.0005354796
48	0xb993f8b3	-0.0002822332
49	0x395f7c6d	0.0002131329
50	0xb8329224	-4.257461e-05
51	0xba0f8654	-0.00054750335
52	0x399bb216	0.00029696588
53	0x396e2b72	0.00022713633
54	0xba03f77f	-0.0005034133
55	0xb7b245cd	-2.1251757e-05
56	0x3a2cbe46	0.0006589632
57	0x39d43aa9	0.00040479496
58	0x39f137e6	0.0004600875
59	0xba44271d	-0.0007482635
60	0x3a3d7a36	0.00072279887
61	0xb9c5854d	-0.00037674085
62	0xba5dcd66	-0.0008461088
63	0x3a076d62	0.00051661406

base.cnn.cnn.5.weight f4 [64]
0	0x3f7fd432	0.9993316
1	0x3f800ba3	1.0003551
2	0x3f7fd3b8	0.9993243
3	0x3f800935	1.000281
4	0x3f7fe27a	0.9995495
5	0x3f7fd614	0.9993603
6	0x3f7fd820	0.99939156
7	0x3f7ff904	0.9998934
8	0x3f7fee61	0.9997311
9	0x3f7fe580	0.99959564
10	0x3f7fd455	0.9993337
11	0x3f7fcd4c	0.99922633
12	0x3f7fd022	0.9992696
13	0x3f7fd0a5	0.9992774
14	0x3f800103	1.0000309
15	0x3f7fce99	0.9992462
16	0x3f8009be	1.0002973
17	0x3f7fe28c	0.9995506
18	0x3f8001a5	1.0000502
19	0x3f7fcdb4	0.99923253
20	0x3f800e4a	1.0004361
21	0x3f7fd8c0	0.9994011
22	0x3f7fdc2f	0.9994535
23	0x3f7fef76	0.99974763
24	0x3f7fd990	0.9994135
25	0x3f7fdd76	0.999473
26	0x3f7fe3d8	0.99957037
27	0x3f7ff422	0.9998189
28	0x3f7fdd30	0.9994688
29	0x3f800bcd	1.0003601
30	0x3f7fd0b3	0.99927825
31	0x3f7fdd15	0.9994672
32	0x3f800b68	1.0003481
33	0x3f7fed11	0.9997111
34	0x3f800b69	1.0003482
35	0x3f8011e6	1.0005462
36	0x3f801217	1.000552
37	0x3f8017e2	1.0007288
38	0x3f7fd76c	0.9993808
39	0x3f7fe9be	0.9996604
40	0x3f7fc7be	0.9991416
41	0x3f7fcadc	0.99918914
42	0x3f7ffe13	0.9999706
43	0x3f7ff4ea	0.99983084
44	0x3f7fedaa	0.9997202
45	0x3f7fd1ea	0.9992968
46	0x3f7fc842	0.99914944
47	0x3f7fcaac	0.9991863
48	0x3f7fd0b5	0.99927837
49	0x3f7fda21	0.99942213
50	0x3f7fd213	0.9992992
51	0x3f7fe467	0.9995789
52	0x3f7fde8a	0.9994894
53	0x3f7fdacd	0.9994324
54	0x3f7fd4a0	0.99933815
55	0x3f7fda2a	0.99942267
56	0x3f801452	1.0006201
57	0x3f7fe549	0.99959236
58	0x3f800215	1.0000635
59	0x3f7fd792	0.9993831
60	0x3f80162d	1.0006768
61	0x3f7fce39	0.99924046
62	0x3f7fd1c8	0.99929476
63	0x3f800145	1.0000387

base.cnn.cnn.5.bias f4 [64]
0	0xba079cd3	-0.000517321
1	0x3a25e91e	0.00063289877
2	0xb9bd8acd	-0.00036152304
3	0x3a20431d	0.0006113516
4	0x39cfd638	0.00039641722
5	0xba2b285f	-0.0006529148
6	0xb9a99312	-0.00032343768
7	0x3975d254	0.00023443374
8	0x3a063ed2	0.00051210553
9	0xb8d4c770	-0.00010146096
10	0xba2be6b9	-0.00065575127
11	0xba127b91	-0.0005587871
12	0xb9e8e628	-0.00044421968
13	0xb9eab681	-0.00044767934
14	0x3930b59d	0.00016852324
15	0xba4fd4ce	-0.0007928134
16	0x3a100f83	0.00054954755
17	0x399def06	0.0003012346
18	0x39e3f902	0.0004348234
19	0xba37b365	-0.0007007628
20	0x3a2a9c16	0.0006508244
21	0xba35cee7	-0.0006935433
22	0xb9dc393f	-0.00042004322
23	0xb9060848	-0.00012782321
24	0xb9ee526c	-0.00045456307
25	0x37dec614	2.65567e-05
26	0x39f35715	0.00046413453
27	0x3a0b5c20	0.0005316157
28	0x3a268bc3	0.00063532236
29	0x39f5db02	0.00046893215
30	0xba327b4e	-0.0006808535
31	0x388dafd1	6.756152e-05
32	0x3a18dc0b	0.0005831129
33	0x3a0151ac	0.00049331295
34	0x3a0aafa8	0.0005290457
35	0x3a4ac611	0.00077352027
36	0x3a051e05	0.00050780206
37	0x3a15a9aa	0.0005709181
38	0xba239b9a	-0.0006241143
39	0xb8867e84	-6.413183e-05
40	0xba522ea4	-0.0008017814
41	0xba4fa8a5	-0.00079215533
42	0x3a05af95	0.0005099711
43	0x3a0c1951	0.00053443486
44	0x398be271	0.00026680858
45	0xba283355	-0.00064163405
46	0xba4e7253	-0.0007875312
47	0xba4af919	-0.0007742807
48	0xb9d23f90	-0.0004010168
49	0xb974cb47	-0.0002334538
50	0xba0cd5bd	-0.00053724257
51	0xb9b0e7dd	-0.00033742088
52	0x38fcccf5	0.000120544726
53	0xb9119c02	-0.00013886395
54	0xba003b70	-0.00048916694
55	0xb9ec82f8	-0.00045111007
56	0x3a515c45	0.00079864665
57	0x3a1306f2	0.000560864
58	0x3a325447	0.00068027194
59	0xba120508	-0.0005570208
60	0x39fefecc	0.00048636494
61	0xba3569b6	-0.0006920354
62	0xba3c6f28	-0.00071881944
63	0x3a1dee2f	0.0006024567

base.cnn.cnn.7.weight f4 [64, 64]
0	0xbe2589d9	-0.16165866
1	0x3db11ed3	0.086484574
2	0x3e6eb334	0.23310548
3	0xbd3479cf	-0.04406148
4	0xbe8d228e	-0.27565426
5	0x3ca3f2ce	0.02001324
6	0x3e4e9bb1	0.20176579
7	0xbe8e2f77	-0.27770588
8	0x3dfb945a	0.12284155
9	0xbe361386	-0.17780885
10	0x3e9bacfd	0.30405417
11	0xbe92fffa	-0.2871092
12	0xbe913bb7	-0.2836587
13	0xbd9e4bdd	-0.077293135
14	0x3dc4ad69	0.09603388
15	0xbe0c9869	-0.13730015
16	0x3e6aea05	0.22940834
17	0xbd1d8df5	-0.03846546
18	0x3e9cc935	0.3062226
19	0x3dee8b26	0.11647634
20	0xbe2e6d64	-0.17033917
21	0x3e51efec	0.20501679
22	0xbcc248f0	-0.02371642
23	0x3e59f59c	0.21285099
24	0x3dc302d8	0.09522027
25	0x3e75cceb	0.24003951
26	0x3e2ef88e	0.17087004
27	0xbc069f22	-0.008216651
28	0x3e6236fc	0.22091287
29	0xbdcb55df	-0.09928488
30	0xbe476ed3	-0.1947587
31	0x3e2ac060	0.16674948
32	0xbd54781f	-0.05187237
33	0x3bffc051	0.0078049083
34	0xbda50909	-0.08058364
35	0xbdb0a75d	-0.08625672
36	0xbd8ed587	-0.06974321
37	0x3e54a962	0.2076774
38	0xbe2c254b	-0.16811101
39	0x3e901e0c	0.28147924
40	0x3db7ecdb	0.089807235
41	0xbd4e513b	-0.050370436
42	0x3e8a7b81	0.2704735
43	0xbe4bf5e6	-0.19918022
44	0xbe4c5e89	-0.19957937
45	0x3cff4f70	0.031165808
46	0xbe11a1cb	-0.14221875
47	0x3ce5dbaa	0.028058846
48	0x3dc2601e	0.09490989
49	0x3e413c18	0.1887058
50	0x3e470727	0.19436322
51	0xbdfe00ca	-0.12402494
52	0x3b8f10dd	0.004366024
53	0x3d881fea	0.06646712
54	0x39e79de5	0.00044177394
55	0xbde3d54f	-0.1112467
56	0x3e58e854	0.21182376
57	0x3c7c4a53	0.01539858
58	0xbe92b92a	-0.28656894
59	0xbe40d231	-0.18830182
60	0x3e5c0efa	0.21490088
61	0xbdfdcdef	-0.12392794
62	0xbdb597a7	-0.08866816
63	0x3e324615	0.17409547
64	0x3e8d46c8	0.27593064
65	0x3e17aa46	0.14811048
66	0x3e94035f	0.28908822
67	0xbe2a6eb2	-0.1664379
68	0xbe09a66c	-0.13442391
69	0xbe09341d	-0.13398786
70	0x3e3d28b9	0.18472566
71	0x3e791637	0.2432488
72	0x3e82d1e8	0.2555077
73	0xbddf776f	-0.10911452
74	0xbe944704	-0.2896043
75	0x3d6e09e1	0.05811489
76	0x3e1106f8	0.14162815
77	0xbe11575a	-0.14193478
78	0xbdd6bc84	-0.10485175
79	0xbdb26ecc	-0.08712539
80	0x3e92b014	0.28649962
81	0xbe18f898	-0.14938581
82	0x3e7485d6	0.2387918
83	0x3a62d4ae	0.00086529076
84	0xbcb6820e	-0.022278812
85	0xbd90e090	-0.07074082
86	0xbe9ab036	-0.30212563
87	0x3e2643a3	0.16236739
88	0x3d633a08	0.055475265
89	0x3e506914	0.20352584
90	0xbdc950de	-0.09829877
91	0x3e8c1d58	0.27366138
92	0x3e82ed4a	0.25571662
93	0x3dd989c9	0.106219836
94	0xbe993379	-0.29922083
95	0x3e8d1541	0.27555278
96	0x3e664eb1	0.22490956
97	0xbe0995f2	-0.13436106
98	0x3e33d197	0.17560421
99	0xbe926836	-0.28595132
100	0x3e98597f	0.2975578
101	0xbe95c19d	-0.29249278
102	0xbe10613f	-0.14099596
103	0xbe8bd2f7	-0.2730939
104	0xbe5432f9	-0.2072257
105	0x3d9ab406	0.07553868
106	0xbe9122c9	-0.2834685
107	0x3e49a814	0.19693023
108	0x3e8c15a7	0.2736027
109	0xbe2f35b7	-0.17110334
110	0xbe7d4138	-0.2473191
111	0x3c8019ee	0.015637364
112	0x3e43371e	0.19063994
113	0xbe1a6d35	-0.15080722
114	0x3e2dd060	0.1697402
115	0xbe6450bc	-0.22296423
116	0x3ddeef42	0.108854786
117	0x3e9ba9bb	0.30402932
118	0x3deadc7a	0.11467834
119	0x3e2b6f6c	0.16741723
120	0xbe1518cf	-0.14560245
121	0x3dcfa0dc	0.10138103
122	0x3d86d1c3	0.065829776
123	0xbd6ffbf7	-0.0585899
124	0x3a044603	0.0005045833
125	0x3def1c8f	0.11675369
126	0xbd67c260	-0.056581855
127	0xbe329c61	-0.17442466
128	0xbe2b078f	-0.16702102
129	0xbe4f8c0d	-0.20268269
130	0x3d7c182a	0.061546482
131	0xbe95facf	-0.29292914
132	0xbe981c31	-0.29709008
133	0xbdfe825d	-0.124272086
134	0xbdbc6cf1	-0.092004664
135	0xbe998f82	-0.299923
136	0xbe94a05c	-0.29028594
137	0xbd53dc7d	-0.051723946
138	0x3e081083	0.13287549
139	0x3e4e8ac5	0.20170124
140	0x3e76118a	0.24030128
141	0x3e729d42	0.23692802
142	0xbd8d41dc	-0.06897327
143	0x3b4b9c37	0.0031068453
144	0xbe2f40db	-0.17114584
145	0xbe2af792	-0.16696003
146	0xbe2f7ab3	-0.1713665
147	0x3dca6ebe	0.09884404
148	0x3e027f1f	0.12743805
149	0xbe03f726	-0.12887248
150	0x3e147fe2	0.14501908
151	0x3e016d4c	0.1263935
152	0x3df22b94	0.11824718
153	0xbdc2004e	-0.09472714
154	0xbc9ac933	-0.018894767
155	0x3e0c5e73	0.13707905
156	0x3e89297c	0.26789463
157	0xbe468bc6	-0.19389257
158	0x3e8906e5	0.26763073
159	0x3e27ed6d	0.16399164
160	0xbe38ac2d	-0.1803443
161	0xbe049e74	-0.1295107
162	0xbe70fba3	-0.23533492
163	0x3b821005	0.003969195
164	0xbe889d1a	-0.2668236
165	0xbe7a1488	-0.24421895
166	0xbe036815	-0.12832673
167	0xbe34dcc2	-0.17662337
168	0xbe19ddf2	-0.15026072
169	0x3c1999d0	0.009375051
170	0xbe2e72cb	-0.17035978
171	0x3e7ec60f	0.24880241
172	0x3e5d9bd5	0.21641476
173	0xbe024677	-0.12722193
174	0xbccaa696	-0.024737637
175	0x3e04977e	0.12948415
176	0xbe90f55d	-0.28312197
177	0x3e80ee4c	0.25181806
178	0x3e8043eb	0.25051817
179	0x3da5aa47	0.080891185
180	0x3bcc0951	0.0062266965
181	0x3ccd8f69	0.025092797
182	0x3c48093c	0.012209233
183	0xbe89ee37	-0.26939556
184	0xbe525c7f	-0.20543097
185	0xbe2400c0	-0.16015911
186	0x3e71906c	0.23590249
187	0x3e4be646	0.19912061
188	0xbe1e3281	-0.15448953
189	0xbe60e999	-0.2196411
190	0xbdec858a	-0.11548908
191	0xbe945ba5	-0.2897617
192	0x3c0dc643	0.008653226
193	0xbd4c6a9d	-0.04990636
194	0xbe1d5b1d	-0.15366788
195	0xbe84c972	-0.2593494
196	0xbe0b41a1	-0.13599254
197	0xbe2cb3d7	-0.16865478
198	0xbd72fbb6	-0.05932208
199	0x3e227d21	0.15868045
200	0x3e8362ab	0.25661215
201	0x3e8160ac	0.25269067
202	0x3e94b95d	0.2904767
203	0x3cc690c1	0.024238946
204	0xbe947210	-0.28993273
205	0xbe9813b8	-0.29702544
206	0xbe36ffda	-0.17871037
207	0xbdb500b2	-0.08838023
208	0x3e0616aa	0.13094583
209	0xbd2beecc	-0.04197578
210	0xbe579ee8	-0.21056712
211	0xbdca18e3	-0.09868028
212	0xbe563c91	-0.20921542
213	0xbe955ae2	-0.291709
214	0x3e045d7c	0.12926286
215	0x3e6bd3f9	0.2303008
216	0x3d98563c	0.07438323
217	0xbe5146d5	-0.20437177
218	0x3e206229	0.15662445
219	0xbde31b44	-0.11089185
220	0x3e92262d	0.2854475
221	0x3db9461e	0.09046577
222	0xbe6bf9b7	-0.23044477
223	0xbe21a570	-0.15785766
224	0xbde096c8	-0.10966259
225	0xbe8c1ce2	-0.27365786
226	0xbe014dc5	-0.12627323
227	0xbe543ce4	-0.20726353
228	0x3dbbd586	0.09171586
229	0x3e46c6e6	0.19411811
230	0x3de1b31f	0.11020493
231	0x3d2b88de	0.041878574
232	0xbc73f0d5	-0.014888962
233	0x3db32f09	0.087492056
234	0xbca7ba8d	-0.020474697
235	0xbe071117	-0.13190113
236	0x3dde7883	0.108628295
237	0x3e0b0bc7	0.13578711
238	0xbd2c0599	-0.041997526
239	0x3b4b56e2	0.0031027128
240	0x3b213c00	0.0024602413
241	0x3df9cb4e	0.121969804
242	0x3e19262b	0.14955966
243	0xbe8bd6dc	-0.27312362
244	0xbdc6bf0c	-0.09704408
245	0xbe5b0e8c	-0.21392268
246	0x3de6ef49	0.11276109
247	0xbd791dbe	-0.06081938
248	0xbd208e86	-0.03919842
249	0x3e29975f	0.1656165
250	0xbd909148	-0.0705896
251	0xbd9d276d	-0.076735355
252	0xbe09797f	-0.13425253
253	0xbe9c6287	-0.3054392
254	0x3d0d7410	0.034534514
255	0xbe9044ad	-0.28177395

base.cnn.cnn.7.bias f4 [64]
0	0xb95bf05f	-0.00020975013
1	0x3a47c262	0.0007620213
2	0xb7621fa0	-1.3478013e-05
3	0xb984e8c8	-0.00025350437
4	0x3a54edcc	0.00081225927
5	0x38fa190d	0.00011925595
6	0xba4bf2b3	-0.00077800005
7	0xb9b09429	-0.00033679724
8	0x399a104c	0.0002938531
9	0xb9dc38a0	-0.0004200386
10	0x3a35d52d	0.0006936368
11	0xba52116f	-0.0008013462
12	0x3a2b7411	0.00065404276
13	0x3a1ed7a4	0.00060593546
14	0x3a0fb450	0.0005481886
15	0x39886c40	0.00026020594
16	0xba1fbbc6	-0.0006093349
17	0x39ecb50e	0.00045148324
18	0x39aea0e4	0.0003330774
19	0x3a2431d7	0.000626353
20	0xba248f6c	-0.0006277475
21	0xb848f390	-4.791055e-05
22	0x3a38202b	0.00070238364
23	0x3a2dc29a	0.0006628424
24	0x3882d301	6.2381856e-05
25	0xb7d91d9f	-2.588221e-05
26	0xba41cfaf	-0.0007393313
27	0x38bebbc7	9.094882e-05
28	0x3858dd57	5.1704552e-05
29	0xb9351128	-0.00017267896
30	0xba4a3085	-0.00077129185
31	0xba46ca48	-0.0007583243
32	0xb9c54b46	-0.0003763085
33	0x398b8d89	0.00026617598
34	0xba425ae2	-0.0007414055
35	0xba35868b	-0.00069246505
36	0xba3f0ab3	-0.0007287666
37	0x388e0b7c	6.773227e-05
38	0xba458dc0	-0.0007536076
39	0xba3de398	-0.0007243692
40	0x3a3bf54f	0.0007170038
41	0xba4ada13	-0.0007738184
42	0x398545df	0.00025419795
43	0x3a0cc21a	0.00053694996
44	0xba54db2d	-0.0008119818
45	0x3a667843	0.0008791724
46	0x3a325175	0.0006802299
47	0xb8923091	-6.970869e-05
48	0x3a27b315	0.000639723
49	0xba1a4571	-0.00058849814
50	0x3a665968	0.0008787126
51	0x39a121b7	0.00030733433
52	0x395c5c1a	0.00021015145
53	0x3a15e96a	0.00057186803
54	0x3a0fee2a	0.00054905063
55	0x381f40f7	3.7969057e-05
56	0xba57a44e	-0.00082260824
57	0xb85ceca2	-5.267247e-05
58	0x387d1228	6.033681e-05
59	0x39ae2ff2	0.00033223588
60	0x3a4d5366	0.0007832557
61	0xba3dce78	-0.0007240544
62	0x391dc0e5	0.00015044546
63	0xba015d65	-0.00049348763

base.cnn.cnn.8.weight f4 [64]
0	0x3f7ff324	0.9998038
1	0x3f800bb6	1.0003574
2	0x3f7fddf4	0.9994805
3	0x3f7fdcbc	0.9994619
4	0x3f80120c	1.0005507
5	0x3f7fe07d	0.99951917
6	0x3f7fcc7e	0.99921405
7	0x3f7fdb3c	0.999439
8	0x3f7ff127	0.99977344
9	0x3f7fdb08	0.9994359
10	0x3f801a40	1.0008011
11	0x3f7fc763	0.99913615
12	0x3f7ff0f4	0.9997704
13	0x3f8011bc	1.0005412
14	0x3f7ff9d3	0.99990577
15	0x3f7fe354	0.9995625
16	0x3f7fd3c2	0.9993249
17	0x3f7fe069	0.999518
18	0x3f7fdf53	0.9995014
19	0x3f800cb2	1.0003874
20	0x3f7fd7ee	0.9993886
21	0x3f7fdcbb	0.9994618
22	0x3f800e90	1.0004444
23	0x3f80105b	1.0004991
24	0x3f7fdd7f	0.9994735
25	0x3f7fe10d	0.99952775
26	0x3f7fcd1a	0.99922335
27	0x3f7fde7d	0.99948865
28	0x3f7fdd69	0.9994722
29	0x3f7fe037	0.999515
30	0x3f7fd17c	0.9992902
31	0x3f7fca4a	0.99918044
32	0x3f7fde36	0.9994844
33	0x3f7fecfc	0.99970984
34	0x3f7fcb9c	0.9992006
35	0x3f7fc4f3	0.99909896
36	0x3f7fd5ad	0.9993542
37	0x3f7fe262	0.9995481
38	0x3f7fd04e	0.9992722
39	0x3f7fd20c	0.9992988
40	0x3f800711	1.0002156
41	0x3f7fc73e	0.99913394
42	0x3f7fe072	0.9995185
43	0x3f8013e9	1.0006076
44	0x3f7fc788	0.99913836
45	0x3f801a5f	1.0008048
46	0x3f8012e2	1.0005763
47	0x3f7fddcc	0.9994781
48	0x3f8011f4	1.0005479
49	0x3f7fecfc	0.99970984
50	0x3f801cf1	1.0008832
51	0x3f7fe1db	0.99954003
52	0x3f7fdf89	0.9995046
53	0x3f7ff877	0.999885
54	0x3f800515	1.0001551
55	0x3f7fde15	0.99948245
56	0x3f7fc4ed	0.9990986
57	0x3f7fdf9b	0.9995057
58	0x3f7fe6e6	0.999617
59	0x3f7fe518	0.99958944
60	0x3f80186c	1.0007453
61	0x3f7fd754	0.9993794
62	0x3f7fe114	0.99952817
63	0x3f7fd8fd	0.9994047

base.cnn.cnn.8.bias f4 [64]
0	0x3895c121	7.140847e-05
1	0x3a4a9211	0.0007727454
2	0xb8cc7dd4	-9.750915e-05
3	0xb8f01014	-0.000114470866
4	0x3a5517bf	0.00081288436
5	0x39784d5e	0.00023679945
6	0xba4bee3b	-0.00077793346
7	0xb99cd332	-0.0002991199
8	0x39de5d6d	0.00042412747
9	0xb9b8580b	-0.00035160812
10	0x3a3b018e	0.00071337156
11	0xba4e8b4f	-0.0007879035
12	0x3a31d180	0.0006783232
13	0x3a29ea92	0.0006481792
14	0x3a188a70	0.00058189686
15	0x39d38fd7	0.00040352225
16	0xba089968	-0.00052108476
17	0x3a125d53	0.00055833644
18	0x39a85ea3	0.00032113967
19	0x3a336b74	0.000684432
20	0xba1ac5b3	-0.0005904093
21	0x361bb6aa	2.3203124e-06
22	0x3a408463	0.0007343946
23	0x3a332d2e	0.00068350404
24	0xb7fc2ce4	-3.0061645e-05
25	0x3829ed22	4.0513587e-05
26	0xba385405	-0.0007031563
27	0x396b4b1a	0.00022439324
28	0xb7da7e38	-2.60464e-05
29	0x381a19e5	3.6740577e-05
30	0xba475c0e	-0.0007604965
31	0xba3c6268	-0.00071862945
32	0xb9a75d43	-0.00031922208
33	0x39875627	0.00025813395
34	0xba3c5bbb	-0.00071853
35	0xba1bbd34	-0.0005940974
36	0xba3c9d26	-0.0007195048
37	0x393213b4	0.00016982743
38	0xba3e5e7e	-0.0007262005
39	0xba3687f8	-0.000696301
40	0x3a42165d	0.0007403845
41	0xba464a49	-0.000756417
42	0x399ed870	0.00030297367
43	0x3a2263d3	0.00061946845
44	0xba50171b	-0.00079380133
45	0x3a6855c3	0.0008862877
46	0x3a3ce0fb	0.00072051556
47	0x3890d2d6	6.905726e-05
48	0x3a30a9ec	0.00067391875
49	0xba13fd81	-0.000564538
50	0x3a68398d	0.00088586734
51	0x39bbddbf	0.00035832633
52	0x39a74884	0.0003190675
53	0x3a25a638	0.0006319019
54	0x3a0e5d8b	0.0005430809
55	0x3928f988	0.00016114686
56	0xba54c6a8	-0.00081167603
57	0x39421baa	0.00018511587
58	0x3945220f	0.00018800072
59	0x39e5e026	0.00043845287
60	0x3a536888	0.00080645876
61	0xba28895c	-0.00064291595
62	0x39acbb32	0.00032945868
63	0xb9ebdbea	-0.00044986542

rnn.rnn.weight_ih_l0 f4 [192, 64]
0	0xbc5517a2	-0.013006123
1	0xbc9ed633	-0.019389248
2	0xbe07cc10	-0.13261437
3	0xbde42bfc	-0.11141202
4	0x3b649890	0.0034880973
5	0xbc1a44bb	-0.009415801
6	0xbd7b9775	-0.061423738
7	0x3d9ddb69	0.07707865
8	0xbd2ff413	-0.042957377
9	0x3e03efaa	0.12884393
10	0x3cf83b9e	0.030301865
11	0x3dbcbe41	0.092159756
12	0xbdc7520f	-0.09732448
13	0xbce2d945	-0.027691493
14	0x3d9cbadf	0.0765283
15	0xbdf66ade	-0.12032102
16	0xbbc6141c	-0.0060448777
17	0x3e02321f	0.12714432
18	0xbc8d6790	-0.017261297
19	0x3db1e83a	0.08686872
20	0xbdaf32dc	-0.085546225
21	0x3dd5c472	0.104378596
22	0xbe003cc5	-0.12523182
23	0xbda3a75e	-0.07990907
24	0x3d9d7ec4	0.07690194
25	0x3dc01369	0.09378702
26	0x3d84b8fb	0.06480595
27	0x3e01c57b	0.12672989
28	0xbd0d7cad	-0.03454273
29	0x3c36acac	0.011149567
30	0x3d1cd602	0.03829003
31	0xbd71e6e6	-0.059058093
32	0xbe0426d1	-0.12905432
33	0xbc95f37a	-0.018304575
34	0xbd6dea15	-0.058084566
35	0x3dd86931	0.10566939
36	0xbd67c6c1	-0.05658603
37	0xbd1704f4	-0.036869958
38	0x3da9e05b	0.082947455
39	0xbd849c20	-0.06475091
40	0x3d8483d4	0.06470457
41	0xbd9398ca	-0.072068766
42	0x3dbaeb09	0.09126861
43	0xbda49df5	-0.080379404
44	0xbe032727	-0.12807904
45	0xbdd94d37	-0.10610431
46	0xbc483771	-0.0122202495
47	0x3d8a51f8	0.067539155
48	0x3d82622d	0.06366382
49	0xbdc6d329	-0.09708244
50	0x3de3d349	0.11124284
51	0x3d2bb9f1	0.041925374
52	0xbe01ef0c	-0.12688845
53	0x3d06369b	0.03276692
54	0x3d068069	0.032837305
55	0xbc2038e8	-0.0097791925
56	0xbe0d3790	-0.13790727
57	0xbd9a4b31	-0.07533873
58	0x3df26387	0.118353896
59	0x3de508c4	0.111833125
60	0xbe03f8ad	-0.12887831
61	0x3e08e7a6	0.13369617
62	0x3d82f1ca	0.06393774
63	0xbd260f99	-0.04054222
64	0x3c84172d	0.016124332
65	0x3dfd0420	0.123543024
66	0xbdd97194	-0.106173664
67	0xbd6a4dd9	-0.057203148
68	0xbd9bba61	-0.07603908
69	0xbd7e5e4c	-0.062101647
70	0x3db3a88a	0.08772381
71	0xbdc331ba	-0.09530969
72	0x3d1e2084	0.038605228
73	0xbc4585a1	-0.012055785
74	0x3dc148aa	0.09437688
75	0x3d955a21	0.07292581
76	0xbd90f4ad	-0.07077918
77	0x3e07ae2e	0.13250038
78	0x3e0a28e9	0.13492168
79	0x3d8bc461	0.06824566
80	0xbd76d073	-0.060257386
81	0xbd608893	-0.054817747
82	0x3e08991a	0.13339654
83	0x3d02562d	0.031820465
84	0x3e02f31d	0.12788053
85	0x3d88b482	0.06675054
86	0xbd7b1503	-0.061299335
87	0x3ccc28f8	0.02492188
88	0x3d52febb	0.05151246
89	0xbe0a2b71	-0.13493134
90	0xbd4c7e1f	-0.049924966
91	0x3d247bc1	0.040157083
92	0x3d973d3b	0.07384726
93	0x3e0d2a5d	0.13785692
94	0xbdacb292	-0.08432497
95	0xbe16eaa5	-0.14737947
96	0x3de53880	0.11192417
97	0x3e140849	0.14456286
98	0x3d0ad12c	0.033890888
99	0x3c6d99e8	0.014502026
100	0x3d1cc1b2	0.03827066
101	0x3d795b9a	0.060878374
102	0x3e0aae5f	0.1354308
103	0xbe104e78	-0.14092433
104	0xbd992d4b	-0.07479342
105	0x3c8df06e	0.01732656
106	0x3d98f3b7	0.0746836
107	0xbe0e333c	-0.13886732
108	0xbe13512b	-0.14386432
109	0x3c28e0fd	0.010307548
110	0x3d6f7a26	0.0584661
111	0x3e190393	0.1494277
112	0xbdd79e12	-0.105281964
113	0xbe185e0e	-0.14879629
114	0x3e11b0d6	0.14227614
115	0xbd8d7e98	-0.069089115
116	0x3db93949	0.090441294
117	0xbde3e5a6	-0.11127786
118	0xbe176d38	-0.14787757
119	0x3c12cb34	0.00895958
120	0x3c962164	0.018326469
121	0x3c0f51ef	0.008747562
122	0xbddc0a5f	-0.10744166
123	0xbd978aed	-0.07399545
124	0xbddc95f4	-0.10770789
125	0xbde41c9c	-0.11138269
126	0x3e06fb5b	0.13181822
127	0x3dc7cd3a	0.09755941
128	0x3dca0f7f	0.09866237
129	0xbd64ea3c	-0.055887446
130	0x3cc1458f	0.023592738
131	0x3e058873	0.13040332
132	0xbc486803	-0.01223183
133	0xbda48a73	-0.080342196
134	0xbd60f0bc	-0.054917082
135	0xbe14cfca	-0.1453239
136	0x3d0fb01d	0.035080064
137	0x3d79457f	0.060857292
138	0x3dc280ef	0.094972484
139	0xbd59b9ec	-0.053155825
140	0x3d433ebf	0.04766726
141	0x3ddb6a33	0.10713615
142	0xbdfa5553	-0.122233056
143	0xbe0bc6fb	-0.13650124
144	0xbd80e307	-0.06293302
145	0xbd7e20eb	-0.06204311
146	0xbcc8c1e8	-0.024506524
147	0xbe14ebe0	-0.14543104
148	0x3de85988	0.11345202
149	0xbd51db5f	-0.0512346
150	0x3d0ec43b	0.03485511
151	0xbdcca2d2	-0.09991993
152	0x3c9e6cd1	0.019338997
153	0x3d1e8584	0.03870155
154	0xbd9e9739	-0.07743687
155	0x3e083e24	0.13304955
156	0xbdd9a1b1	-0.10626543
157	0x3d9f44f8	0.077768266
158	0x3e14647b	0.14491455
159	0xbd72c1f2	-0.059266992
160	0xbdce8d84	-0.10085586
161	0x3de56bea	0.112022236
162	0x3e07f713	0.13277845
163	0xbc0ad8ac	-0.00847451
164	0x3d27b633	0.040945243
165	0x3be664f1	0.007031076
166	0xbdca889d	-0.09889338
167	0x3de3c10a	0.11120804
168	0xbc099b53	-0.008398849
169	0xbdb071b9	-0.08615441
170	0x3dbe419e	0.09289859
171	0xbda5a85c	-0.080887526
172	0x3c1603e5	0.009156202
173	0x3d1a546e	0.037678175
174	0xbc97a5bd	-0.018511647
175	0x3d7a19e7	0.06105986
176	0x3caf211f	0.021378098
177	0xbd97bf66	-0.07409553
178	0x3d4c7627	0.049917366
179	0x3ca07d08	0.01959087
180	0x3d964c18	0.073387325
181	0xbc4cc56e	-0.012498243
182	0xbd8b815c	-0.06811783
183	0x3ca611be	0.020272132
184	0xbe1bb5f0	-0.15206122
185	0xbe1c1290	-0.15241456
186	0xbdf9d658	-0.12199086
187	0xbd6866df	-0.05673873
188	0xbd515071	-0.051102106
189	0x3d895c7c	0.06707093
190	0xbe1b0ea2	-0.151423
191	0xbcde3531	-0.027124973
192	0x3d9a6c40	0.07540178
193	0x3df2ddd6	0.11858718
194	0x3e1ac4f6	0.15114197
195	0x3b1f3a45	0.0024296206
196	0x3de175b7	0.110087804
197	0xbdb28e1c	-0.087185115
198	0x3d87266a	0.06599124
199	0x3da2d037	0.0794987
200	0xbd667555	-0.05626424
201	0x3cc45249	0.023965018
202	0x3d8db0dc	0.06918499
203	0x3df9dcf4	0.122003466
204	0x3cb5f509	0.022211568
205	0x3dafe061	0.08587719
206	0xbe106f44	-0.14104944
207	0xbcb0f921	-0.021603169
208	0x3d40152b	0.046895187
209	0xbe045c08	-0.12925732
210	0x3d49904f	0.04920989
211	0x3d49f1c9	0.04930285
212	0x3e0b79b3	0.13620643
213	0x3d882926	0.066484734
214	0xbe136cc6	-0.14396963
215	0xb94e0294	-0.00019646651
216	0x3dcfef5a	0.101530746
217	0xbdfd4cd5	-0.1236817
218	0x3caa9872	0.020824645
219	0x3e067af8	0.13132846
220	0xbc5b6563	-0.013390872
221	0x3ce1c0f6	0.027557831
222	0x3dbf5f9a	0.093444064
223	0x3cfbf91c	0.030758433
224	0xbd8fcaa6	-0.07021074
225	0xbd5f838c	-0.054568812
226	0xbdc68a06	-0.09694295
227	0x3dfd4004	0.12365726
228	0xbe110d79	-0.14165296
229	0xbd209b8f	-0.039210852
230	0x3d0ba5c1	0.034093622
231	0xbd9e7d2a	-0.07738717
232	0xbd61e49f	-0.05514967
233	0x3da387df	0.079849
234	0x3dbe2027	0.09283476
235	0x3c7063f5	0.014672269
236	0xbd845dbb	-0.0646319
237	0xbe0b15a7	-0.13582478
238	0x3e0426d6	0.1290544
239	0x3cb27f39	0.02178918
240	0xbdb4ce0c	-0.08828363
241	0x3d9cb20b	0.076511465
242	0xbdba7a34	-0.0910534
243	0xbcce72ed	-0.025201285
244	0xbe0d9512	-0.13826397
245	0x3e0af6a1	0.13570644
246	0x3d92980a	0.071579054
247	0xbd8bcd31	-0.068262465
248	0x3dc79bd7	0.09746521
249	0xbde839d7	-0.11339157
250	0x3d908eab	0.07058462
251	0xbd7c136f	-0.06154197
252	0x3e04f781	0.1298504
253	0xbd856b1a	-0.065145686
254	0x3dd30b58	0.10304898
255	0xbdbd21d0	-0.09234965

rnn.rnn.weight_hh_l0 f4 [192, 64]
0	0xbd142153	-0.036164593
1	0xbe01ddd0	-0.12682271
2	0xbde07ff2	-0.10961904
3	0x3da3472d	0.0797256
4	0xbd1670f9	-0.036728833
5	0x3e0a9487	0.13533221
6	0x3d759614	0.05995758
7	0x3d215b5a	0.03939376
8	0xbe15a20c	-0.14612597
9	0x3d8a272a	0.06745751
10	0xbe0b3a10	-0.13596368
11	0xbd0b570f	-0.034018572
12	0xbd1b538d	-0.037921477
13	0x3d856120	0.06512666
14	0xbcca4748	-0.024692193
15	0x3e051703	0.1299706
16	0xbd53c240	-0.051698923
17	0x3d0f5ba0	0.03499949
18	0x3b6d0d0f	0.0036171114
19	0x3dddccf6	0.10830109
20	0xbd246da8	-0.04014364
21	0xbe048e3b	-0.12944882
22	0xbdb2556a	-0.08707698
23	0x3dd3939d	0.103308894
24	0xbd971c30	-0.07378423
25	0xbde6346a	-0.11240466
26	0xbc41d2c6	-0.011830037
27	0xbd2f3dc5	-0.042783517
28	0xbe174826	-0.14773616
29	0x3ccdb219	0.025109338
30	0xbdf3d99a	-0.119067386
31	0xbd7fc7e0	-0.062446475
32	0xbe115b68	-0.14195025
33	0xbd08ecde	-0.03342902
34	0x3e167ff1	0.14697243
35	0x3e1be17c	0.15222734
36	0xbd5bbf63	-0.053649317
37	0x3dd65a5c	0.104664534
38	0x3dca0c09	0.09865577
39	0xbd0973e1	-0.033557776
40	0x3d7d750d	0.061879206
41	0x3de996ec	0.11405739
42	0xbe0578d0	-0.13034368
43	0x3e1156c9	0.14193262
44	0x3d8703c2	0.065925136
45	0xbe1a9efa	-0.15099707
46	0xbda48755	-0.08033625
47	0xbd3bf50f	-0.045888003
48	0xbc97f625	-0.018549988
49	0xbb950095	-0.0045471885
50	0x3d47f0ba	0.04881356
51	0xbe10a858	-0.14126718
52	0xbd9bd3e0	-0.07608771
53	0x3e046cc8	0.12932122
54	0x3b19f522	0.0023492058
55	0x3d603037	0.05473348
56	0x3d88dd61	0.0668285
57	0xbdaaae54	-0.08334032
58	0xbc3c3f5f	-0.011489718
59	0xbc58d181	-0.013233543
60	0x3d4db89b	0.05022488
61	0x3de5e9f2	0.11226262
62	0x3d944906	0.072404906
63	0x3d5d34cd	0.054005433
64	0x3d6bc3cf	0.057559785
65	0xbdf60ddd	-0.12014363
66	0xbe198f7c	-0.14996141
67	0x3b831b55	0.004001061
68	0xbd6952c5	-0.0569637
69	0xbdf86538	-0.12128681
70	0x3d87e448	0.06635338
71	0xbde7c735	-0.113172926
72	0x3c7da3fa	0.01548099
73	0xbcb247dd	-0.021762783
74	0xbe0f089d	-0.1396813
75	0x3c4aefff	0.012386321
76	0x3e12fb6e	0.14353725
77	0xbd2631b2	-0.040574737
78	0x394e31bf	0.00019664223
79	0xbe0451a4	-0.12921768
80	0xbc8afbdf	-0.016965805
81	0x3e0707d4	0.1318658
82	0x3dbb13df	0.091346495
83	0xbdff7b1c	-0.12474653
84	0x3c669420	0.014073402
85	0x3cc0add6	0.023520391
86	0xbd941900	-0.07231331
87	0xbe0aa0e0	-0.13537931
88	0x3c6b875e	0.014375536
89	0xbd602d54	-0.05473073
90	0x3d6fb1ed	0.058519293
91	0xbda869e6	-0.082233235
92	0x3d2acf1e	0.04170143
93	0xbd5ac2a6	-0.053408287
94	0xbe04b910	-0.1296122
95	0x3e077312	0.1322749
96	0x3dc45d07	0.09588056
97	0x3dd7caab	0.10536703
98	0x3ccf93d8	0.025339052
99	0x3e047e4f	0.12938808
100	0x3db2c4a5	0.08728913
101	0x3db470bd	0.088105656
102	0x3e1091a8	0.14118063
103	0xbd9e20da	-0.0772111
104	0x3d306133	0.043061446
105	0x3c4151a9	0.011799254
106	0x3df2de9f	0.11858868
107	0x3db3afbb	0.08773752
108	0x3e152f34	0.14568788
109	0xbda37ac8	-0.07982403
110	0xbc7b4b5c	-0.015337791
111	0x3d75d14f	0.060014065
112	0x3decda12	0.11565031
113	0x3d37f4a3	0.044911038
114	0xbc976afd	-0.018483633
115	0x3d9e01f6	0.07715218
116	0xbdd1c654	-0.10242906
117	0xbdb39ff2	-0.087707415
118	0x3d8eb8b4	0.06968823
119	0x3d9e5cbd	0.07732532
120	0xbe01df62	-0.1268287
121	0x3d6c3780	0.057670116
122	0xbd7ea1e5	-0.062166113
123	0x3b88975b	0.0041684336
124	0x3d651dd6	0.055936657
125	0x3d4d32a0	0.050097108
126	0x3df63180	0.1202116
127	0xbd06edc6	-0.032941602
128	0x3be16dec	0.006879559
129	0xbe141926	-0.14462718
130	0xbd42cbfa	-0.04755781
131	0xbe1c6c9b	-0.15275805
132	0xbdcf9a3f	-0.10136842
133	0x3defde23	0.11712291
134	0x3cd14dba	0.025549758
135	0x3dcaa88c	0.09895429
136	0xbd848262	-0.06470181
137	0xbdaf37c3	-0.085555576
138	0x3dcd751f	0.10032105
139	0xbbcd5cea	-0.0062671797
140	0x3ab7b969	0.0014017049
141	0xbdff2562	-0.12458302
142	0x3d91f67d	0.07127092
143	0xbe166c81	-0.14689828
144	0x3da4341d	0.08017752
145	0xbdb70503	-0.08936503
146	0xbbd4ac78	-0.0064902864
147	0x3d78e22d	0.060762573
148	0xbbb14865	-0.0054102414
149	0xbccce228	-0.025010183
150	0xbdf35e18	-0.11883181
151	0x3d9bdab9	0.076100774
152	0xbbf4dee1	-0.0074728583
153	0x3e02175c	0.12704223
154	0xbc7800bb	-0.015136893
155	0x3d99cd0a	0.07509811
156	0xbdf960cc	-0.12176666
157	0xbe1afda8	-0.15135825
158	0xbc428613	-0.011872786
159	0x3da33ac7	0.07970195
160	0x3d95f8c3	0.07322838
161	0x3e0f344a	0.1398479
162	0x3c30eef8	0.010799162
163	0x3d0964b9	0.033543322
164	0x3d833d4f	0.06408178
165	0xbca33b7c	-0.019925825
166	0x3d6fadd3	0.05851538
167	0xbc83c900	-0.016087055
168	0xbaede43f	-0.0018149688
169	0xbda78a1f	-0.081806414
170	0x3df2b90c	0.11851701
171	0xbe07ac3f	-0.132493
172	0x3b99ff07	0.004699591
173	0xbdd056d8	-0.10172814
174	0xbde7885d	-0.11305306
175	0xbd959f01	-0.07305718
176	0x3c8c3aa1	0.0171178
177	0xbdfc7d49	-0.12328584
178	0x3e090a3d	0.13382812
179	0x3d91fa53	0.07127824
180	0xbe0d7e0c	-0.13817614
181	0x3da32c91	0.07967485
182	0x3dbe29b0	0.09285295
183	0xbda5af24	-0.08090046
184	0xbdb740b9	-0.08947892
185	0xbda87985	-0.08226303
186	0x3d009770	0.031394422
187	0x3c82d8c8	0.01597251
188	0xbcc9ae13	-0.024619138
189	0x3cfad0dc	0.03061717
190	0xbd8c4230	-0.06848562
191	0x3b35f824	0.0027766312
192	0x3dc6a2a5	0.09698991
193	0xbd3e7878	-0.046501607
194	0xbde7ae4b	-0.113125406
195	0x3d0876c1	0.033316378
196	0x3d0d1244	0.034441248
197	0xbe0498ae	-0.12948868
198	0x3e131723	0.14364295
199	0x3dc75d39	0.09734578
200	0xbb08cde3	-0.0020874671
201	0xbe112bc1	-0.14176847
202	0xbdad0204	-0.0844765
203	0x3d57af78	0.052657574
204	0x3e1233f6	0.14277634
205	0xbd913d9b	-0.070918284
206	0x3d8b5b05	0.0680447
207	0x3da55563	0.08072927
208	0x3e130c23	0.14360099
209	0x3dac1259	0.08401937
210	0x3e0ff03c	0.14056486
211	0x3d4f12cc	0.050555035
212	0xbdacb6c9	-0.08433301
213	0x3d020dae	0.031751327
214	0xbc80a1fe	-0.015702244
215	0x3b25fe5c	0.0025328612
216	0xbd615967	-0.0550169
217	0x3dd157ed	0.10221849
218	0xbe1516d1	-0.14559485
219	0xbdea9811	-0.114547856
220	0xbc2b9b26	-0.010474002
221	0x3dfc9541	0.123331554
222	0x3d58b1f6	0.05290409
223	0xbc4cf02e	-0.012508435
224	0xbd0570a1	-0.032578114
225	0x3d15c559	0.03656516
226	0xbdf20173	-0.11816683
227	0x3e1165b4	0.14198953
228	0x3d576b2d	0.052592445
229	0x3d96b48e	0.07358657
230	0x3d052cf0	0.03251356
231	0x3d4038b1	0.046929065
232	0xbb523b0c	-0.0032078652
233	0x3d268053	0.040649723
234	0x3b75ff02	0.003753603
235	0x3ba5b012	0.0050563896
236	0xbd16fb91	-0.036861006
237	0xbdbc07a8	-0.09181148
238	0x3dc09a21	0.09404398
239	0xbe0e8fb7	-0.1392201
240	0xbcd48c5b	-0.025945833
241	0xbd71d250	-0.05903846
242	0x3d06970d	0.032858897
243	0x3d9bd67a	0.076092675
244	0xbdec9303	-0.11551478
245	0xbd317ebc	-0.043333754
246	0x3e035171	0.12824036
247	0xbe0ac0ae	-0.13550064
248	0x3d368572	0.044560857
249	0x3ca77529	0.020441609
250	0x3ca479b0	0.020077556
251	0xba65ba54	-0.0008763422
252	0x3d02491b	0.031808
253	0x3c009405	0.007847791
254	0xbd52165c	-0.051290855
255	0x3e061f79	0.13097943
